plots/training/best_model.pt (torch, 132842 bytes, 270 tensors)

layers.0.log_s_net.0.weight f4 [8, 1]
-0.83867186 0.35197076 0.7961129 0.89905643 0.17986609 -0.7936128 0.9599654 -0.8639233
00000000: 33b3 56bf 8335 b43e 0ece 4b3f 9028 663f
00000010: d12e 383e 352a 4bbf 4bc0 753f 142a 5dbf

layers.0.log_s_net.0.bias f4 [8]
0.15368074 0.5118527 -1.0236056 -0.07216508 -0.9305864 -0.99767333 1.0631716 -0.84536767
00000000: 7c5e 1d3e c708 033f 8205 83bf 49cb 93bd
00000010: e93a 6ebf 8567 7fbf 0216 883f 046a 58bf

layers.0.log_s_net.2.weight f4 [8, 8]
0.3258201 0.21161096 -0.03309527 -0.21123749 -0.397619 0.41819122 -0.3432659 0.14566648
-0.26037866 -0.2651115 0.35601157 -0.3781885 0.11096127 -0.4072786 -0.22970864 -0.121479616
0.49245876 0.07367428 -0.35101438 -0.32006994 0.12743215 0.2729034 -0.14110675 0.51647186
-0.3057568 0.12177653 0.535086 0.2765927 -0.08130953 0.07993249 -0.2845355 -0.27149385
0.57396543 -0.043215286 -0.16678014 -0.15758611 0.09483992 -0.78549635 -0.50143087 -0.2603017
0.17534547 -0.17908752 -0.15924539 -0.5693493 -0.3892858 -0.3898825 0.13012737 -0.13325718
-0.36460635 0.32643783 -0.012607844 -0.13370815 0.2155517 0.42227596 0.28328246 0.39277712
0.48188892 -0.35613987 0.030834159 -0.060018163 -0.2373065 0.08678965 0.16562466 0.5498564
00000000: e4d1 a63e 8bb0 583e e88e 07bd a44e 58be
00000010: b894 cbbe 291d d63e 8cc0 afbe 9829 153e
00000020: 5a50 85be b2bc 87be 2647 b63e eca1 c1be
00000030: aa3f e33d d286 d0be be38 6bbe 4eca f8bd
00000040: 8e23 fc3e 8ae2 963d 28b8 b3be 35e0 a3be
00000050: 937d 023e ffb9 8b3e 4a7e 10be 8037 043f
00000060: 288c 9cbe f965 f93d 65fb 083f 8f9d 8d3e
00000070: 9c85 a6bd a5b3 a33d a3ae 91be 3e01 8bbe
00000080: 66ef 123f 8302 31bd 6ac8 2abe 415e 21be
00000090: 6f3b c23d 4a16 49bf c65d 00bf 4446 85be
000000a0: c38d 333e b862 37be 3911 23be e0c0 11bf
000000b0: 7850 c7be ae9e c7be 1c40 053e 9274 08be
000000c0: afad babe dc22 a73e 2191 4ebc caea 08be
000000d0: 96b9 5c3e 8e34 d83e 660a 913e 151a c93e
000000e0: 25ba f63e f757 b6be eb97 fc3c 9bd5 75bd
000000f0: 7a00 73be c6be b13d 8399 293e 64c3 0c3f

layers.0.log_s_net.2.bias f4 [8]
0.6458375 -0.09849803 -0.36820766 -0.41443625 0.084974505 0.2902769 0.04957729 -0.34725362
00000000: 9b55 253f 56b9 c9bd b785 bcbe fd30 d4be
00000010: 1d07 ae3d 2d9f 943e 8e11 4b3d 3acb b1be

layers.0.log_s_net.4.weight f4 [8, 8]
0.02871137 0.27314162 -0.22605684 -0.2917671 -0.53512526 0.20362526 -0.3427626 -0.9574563
0.50492644 -0.10196788 0.341314 0.09887528 0.7367829 -0.038741704 0.23221159 0.05811364
-0.025149938 -0.30329502 0.3910523 0.0444103 -1.3975456 0.11139422 0.3495334 -0.75912607
-0.13379775 0.124207616 0.56813604 0.21276045 0.09310346 -1.166181 0.4383142 0.44083154
0.09674899 0.090325736 0.46400204 0.33293584 0.8381667 -0.48950574 0.13203442 0.39835638
-0.0037628673 0.28657618 0.35891974 0.4336358 -2.0470948 -0.062690824 0.097507425 -0.51872426
-1.2367438 -0.9307516 0.20988737 -1.4268187 -0.047160987 -0.44755736 0.4889839 0.29850933
-0.04143663 -0.4559928 0.78765935 -0.2932031 -1.0305095 -0.16870607 -0.13030162 0.6390022
00000000: 1b34 eb3c 38d9 8b3e 727b 67be 7f62 95be
00000010: f8fd 08bf 2483 503e 947e afbe db1b 75bf
00000020: dc42 013f 89d4 d0bd b5c0 ae3e 1f7f ca3d
00000030: ce9d 3c3f 9faf 1ebd e0c8 6d3e 9108 6e3d
00000040: 3e07 cebc 7c49 9bbe 0238 c83e 93e7 353d
00000050: c6e2 b2bf a722 e43d 0bf6 b23e 1656 42bf
00000060: 4702 09be 9060 fe3d 5d71 113f e0dd 593e
00000070: 07ad be3d 6b45 95bf b86a e03e acb4 e13e
00000080: 5624 c63d b3fc b83d ad91 ed3e 9176 aa3e
00000090: 1892 563f 7fa0 fabe 0834 073e 5ef5 cb3e
000000a0: 709a 76bb 1dba 923e 54c4 b73e 8305 de3e
000000b0: 9a03 03c0 0c64 80bd f9b1 c73d 1dcb 04bf
000000c0: 9f4d 9ebf bd45 6ebf b7ec 563e ffa1 b6bf
000000d0: e12b 41bd 3d26 e5be 195c fa3e 37d6 983e
000000e0: 75b9 29bd e377 e9be 0ba4 493f b71e 96be
000000f0: bce7 83bf 49c1 2cbe ca6d 05be a695 233f

layers.0.log_s_net.4.bias f4 [8]
0.29056737 -0.09487624 0.055738386 -0.13142085 -0.032609098 0.25045654 0.3634265 0.13174154
00000000: 3fc5 943e 794e c2bd ef4d 643d 3093 06be
00000010: 1e91 05bd d73b 803e 0a13 ba3e 41e7 063e

layers.0.log_s_net.6.weight f4 [8, 8]
0.3227846 -0.19994122 1.1606888 -0.8621775 0.042495415 0.8638127 -0.6766245 0.17151526
-0.3102071 0.45524037 -0.48518372 0.5192814 0.36478657 0.13861825 0.62566525 0.5512201
-0.050035287 0.15118608 0.10210901 0.09299994 0.041193727 0.3722047 -0.3269478 -0.5073005
-0.008849342 -0.05946837 0.10451053 0.4258365 -0.06930135 -0.25566912 0.38178736 0.508075
-0.049848158 0.2056462 -0.4781475 0.22803876 0.18186578 -0.52837807 -0.53514767 -0.5631257
-0.19400398 0.14494795 -0.71069634 -0.0019484366 0.07022283 -0.12811318 1.2542201 -0.79274267
-0.30819768 -0.36480308 0.17235185 0.05871743 -0.21810654 0.004449909 -0.58504367 0.16186467
-0.26818046 -0.30253568 0.9211103 -0.9892359 -0.28123865 0.6114608 -0.6616273 0.35677308
00000000: 0644 a53e 64bd 4cbe 7391 943f aab7 5cbf
00000010: ac0f 2e3d d422 5d3f 4337 2dbf b2a1 2f3e
00000020: 77d3 9ebe 4415 e93e 006a f8be a0ef 043f
00000030: 4ec5 ba3e f1f1 0d3e 992b 203f c31c 0d3f
00000040: cdf1 4cbd 86d0 1a3e 871e d13d c176 be3d
00000050: c1ba 283d 9d91 be3e b465 a7be 72de 01bf
00000060: d5fc 10bc 1b95 73bd 9e09 d63d 3e07 da3e
00000070: deed 8dbd 10e7 82be a279 c33e 3411 023f
00000080: 952d 4cbd eb94 523e c0cf f4be fe82 693e
00000090: 063b 3a3e c943 07bf 70ff 08bf 0229 10bf
000000a0: fba8 46be 3c6d 143e 32f0 35bf af62 ffba
000000b0: fdd0 8f3d 1a30 03be 498a a03f 2ff1 4abf
000000c0: 16cc 9dbe 78c7 babe 017d 303e b081 703d
000000d0: 5257 5fbe 8bd0 913b 6cc5 15bf dabf 253e
000000e0: f34e 89be f5e5 9abe e2cd 6b3f 903e 7dbf
000000f0: 83fe 8fbe b288 1c3f 6860 29bf f6aa b63e

layers.0.log_s_net.6.bias f4 [8]
-0.057358857 0.35998434 0.12028384 -0.12588449 -0.00382082 0.6369414 -0.517533 0.16347092
00000000: 1ff1 6abd de4f b83e 6057 f63d dde7 00be
00000010: b966 7abb 970e 233f 0b7d 04bf ec64 273e

layers.0.log_s_net.8.weight f4 [1, 8]
0.37000817 -0.37744814 0.087061346 -0.45408294 -0.169055 -0.5037233 0.21975064 0.2755079
00000000: b671 bd3e e240 c1be 384d b23d 8f7d e8be
00000010: c11c 2dbe 03f4 00bf 5006 613e 5f0f 8d3e

layers.0.b_net.0.weight f4 [8, 1]
0.63426083 -0.5072651 -0.95719135 -0.9656056 -0.8892149 -0.48506176 -0.13074705 1.006494
00000000: eb5e 223f 20dc 01bf 7e0a 75bf ee31 77bf
00000010: 96a3 63bf 045a f8be 8ee2 05be ccd4 803f

layers.0.b_net.0.bias f4 [8]
0.7255678 -0.15129891 -0.3213353 0.89360726 -1.1382811 0.41895425 -0.6702076 1.1029043
00000000: d0be 393f 1aee 1abe 0f86 a4be 72c3 643f
00000010: 32b3 91bf 2c81 d63e ba92 2bbf f82b 8d3f

layers.0.b_net.2.weight f4 [8, 8]
0.36586156 -0.6188485 -0.93579507 -0.42153707 -0.2949828 -0.25204495 -0.23134093 0.26214805
0.35567996 -0.4929271 -0.1947873 0.5546587 0.39326492 0.48751915 0.42943683 0.27726924
0.005253785 0.59363407 0.25969037 -1.0969818 0.12368045 -0.61084867 -0.08027082 -0.037487302
0.23595484 -0.2491071 0.019879093 0.079184934 0.6310386 -0.3507496 -0.6569575 0.6118277
0.09262767 -0.0030354606 0.2602165 0.6693212 -1.5926582 0.48810616 -0.94970584 -0.2901837
0.10334089 0.043248165 -0.10137663 -0.50957423 0.035202507 -0.6104582 -0.18235414 0.25245976
-0.7297241 0.09824424 0.11229545 0.18935293 -1.3109643 -0.122144364 0.025968824 -1.0719489
0.17053854 0.30106893 -0.18021445 0.34592873 0.52935624 0.05385612 -0.762554 -0.39856285
00000000: 3552 bb3e db6c 1ebf 4490 6fbf b5d3 d7be
00000010: fc07 97be 090c 81be a3e4 6cbe 4538 863e
00000020: af1b b63e f160 fcbe 5276 47be 1dfe 0d3f
00000030: 055a c93e 1c9c f93e 25df db3e 3cf6 8d3e
00000040: f127 ac3b 67f8 173f 23f6 843e e669 8cbf
00000050: 2d4c fd3d 9460 1cbf 0765 a4bd 498c 19bd
00000060: 259e 713e ee15 7fbe 7bd9 a23c b62b a23d
00000070: bf8b 213f 7495 b3be 5e2e 28bf bda0 1c3f
00000080: 93b3 bd3d 94ee 46bb 193b 853e a258 2b3f
00000090: 39dc cbbf 0de9 f93e ec1f 73bf f592 94be
000000a0: 63a4 d33d fd24 313d 8d9e cfbd 7573 02bf
000000b0: 8130 103d fd46 1cbf 0bbb 3abe 6842 813e
000000c0: 33cf 3abf 4734 c93d 28fb e53d bce5 413e
000000d0: aecd a7bf d326 fabd 92bc d43c 9f35 89bf
000000e0: a8a1 2e3e b525 9a3e 238a 38be 921d b13e
000000f0: e483 073f 3c98 5c3d bd36 43bf 6e10 ccbe

layers.0.b_net.2.bias f4 [8]
0.43500805 -0.0072149914 0.027042205 0.21417491 0.5492314 -0.8404715 0.22236492 -0.026276661
00000000: 60b9 de3e bc6b ecbb 9d87 dd3c ab50 5b3e
00000010: 6e9a 0c3f 2429 57bf a1b3 633e 2742 d7bc

layers.0.b_net.4.weight f4 [8, 8]
-0.50537837 0.22715358 -0.23626225 0.23126374 0.7363254 -1.1598306 -1.0599724 0.17828509
-0.39783883 0.43259385 -0.45048362 -0.32461736 0.17130889 -0.0006185109 -0.5925341 -0.31537002
0.27533394 -0.02931001 1.0242724 0.14090607 -1.1721554 -1.2510482 -0.36167756 -0.89214855
-1.7016338 -0.11168763 -0.09789627 0.14781381 0.5118437 -0.020525943 -0.79080504 0.115838416
-0.8847909 -0.26532078 0.13556401 -0.5679809 0.0060400227 0.09223252 0.052065346 0.14288579
-0.32304448 -0.39825156 -0.11531545 -0.21846433 -0.31468973 -0.0026852107 -0.104083724 0.32779396
-0.20561883 -0.34118554 0.11594349 -0.9885525 0.43604314 -0.39089718 1.4360733 -0.15715979
0.036426935 0.36450776 0.13802397 0.17165907 0.12272485 1.7059382 0.033400834 0.2779561
00000000: 7a60 01bf f39a 683e bbee 71be 67d0 6c3e
00000010: d27f 3c3f 5475 94bf 2dad 87bf 5e90 363e
00000020: 88b1 cbbe f17c dd3e caa5 e6be 3f34 a6be
00000030: 996b 2f3e 9023 22ba 51b0 17bf 2e78 a1be
00000040: 92f8 8c3e 8c1b f0bc 5c1b 833f ae49 103e
00000050: 3009 96bf 5922 a0bf cd2d b9be d963 64bf
00000060: 23cf d9bf 7cbc e4bd d77d c8bd 815c 173e
00000070: 3008 033f 0626 a8bc 3372 4abf b13c ed3d
00000080: a881 62bf 20d8 87be 4bd1 0a3e 3267 11bf
00000090: 62eb c53b 67e4 bc3d 7942 553d a750 123e
000000a0: 1666 a5be a1e7 cbbe 822a ecbd 1db5 5fbe
000000b0: 031f a1be 5cfa 2fbb d929 d5bd 9cd4 a73e
000000c0: be8d 52be dfaf aebe c873 ed3d c711 7dbf
000000d0: 0c41 df3e ad23 c8be 40d1 b73f 7fee 20be
000000e0: 6934 153d c3a0 ba3e 2856 0d3e 65c7 2f3e
000000f0: 2b57 fb3d 2f5c da3f 50cf 083d 4350 8e3e

layers.0.b_net.4.bias f4 [8]
0.4274188 0.28226855 0.104672514 0.052234046 0.030172823 -0.17613645 -0.09039401 -0.044809815
00000000: a3d6 da3e 8185 903e 8b5e d63d 5ef3 553d
00000010: ff2c f73c 1d5d 34be 7f20 b9bd 7f8a 37bd

layers.0.b_net.6.weight f4 [8, 8]
0.11835707 0.15689957 1.1558776 -0.5299732 0.09729528 -0.06616528 0.40834016 -0.49073088
0.00744163 0.69651276 0.15652704 -1.0331422 0.09179927 0.36336496 -0.01703547 0.16177267
-0.08597712 -0.076740876 -0.25171098 0.4616691 -0.3241703 -0.070998095 -0.9426343 0.23543467
0.47986862 0.72028804 -1.2882874 -0.08681478 0.77336556 0.032573346 -0.74685407 0.05012075
-0.11862046 -0.015814345 0.34261465 -0.6287778 0.2636671 0.1494099 0.09866763 -0.21537946
-0.3102358 -0.19829369 -0.37438494 0.7554011 0.17033426 -0.40951422 -0.6155252 0.35367838
0.45716742 -0.25250307 -1.1154363 0.592961 -0.2554681 -0.5112423 -1.2403693 0.06448299
0.028500631 -0.22647241 -0.16900535 -0.077755496 -0.020936739 -0.011987735 0.5843334 0.26019818
00000000: 3165 f23d 48aa 203e ccf3 933f 53ac 07bf
00000010: bf42 c73d aa81 87bd f611 d13e 1441 fbbe
00000020: ebd8 f33b a94e 323f a048 203e 013e 84bf
00000030: 4101 bc3d f90a ba3e f88d 8bbc bca7 253e
00000040: c614 b0bd 522a 9dbd 43e0 80be e45f ec3e
00000050: a6f9 a5be 7367 91bd 7b50 71bf c915 713e
00000060: 57b1 f53e cc64 383f 9ae6 a4bf f3cb b1bd
00000070: 49fb 453f a16b 053d d431 3fbf 6a4b 4d3d
00000080: 49ef f2bd 168d 81bc 306b af3e 95f7 20bf
00000090: 60ff 863e e9fe 183e 4112 ca3d 6f8c 5cbe
000000a0: 3ad7 9ebe 800d 4bbe 62af bfbe f761 413f
000000b0: 1b6c 2e3e d9ab d1be 0f93 1dbf 5515 b53e
000000c0: d911 ea3e 1548 81be 9ec6 8ebf 4bcc 173f
000000d0: b7cc 82be c6e0 02bf 6cc4 9ebf a80f 843d
000000e0: 287a e93c 62e8 67be bd0f 2dbe 463e 9fbd
000000f0: 8683 abbc 3468 44bc e096 153f b238 853e

layers.0.b_net.6.bias f4 [8]
0.48124832 0.27161232 -0.009344537 -0.31766245 -0.14279017 0.32221046 0.30579793 -0.35328665
00000000: 2e66 f63e c510 8b3e d419 19bc a7a4 a2be
00000010: 9637 12be c5f8 a43e 8c91 9c3e fde1 b4be

layers.0.b_net.8.weight f4 [1, 8]
-1.0124873 -0.19128515 0.18639837 -1.1341698 -0.13303855 0.37936765 1.0629609 -0.47780076
00000000: 2f99 81bf 41e0 43be 37df 3e3e 7a2c 91bf
00000010: 423b 08be 7a3c c23e 1a0f 883f 4da2 f4be

layers.2.log_s_net.0.weight f4 [8, 1]
0.82948357 -1.0476079 -1.0869274 -0.5918921 -0.40164596 0.3009393 0.23732227 -1.0419103
00000000: 0959 543f 0418 86bf 7020 8bbf 3e86 17bf
00000010: 8aa4 cdbe b714 9a3e 9c04 733e 515d 85bf

layers.2.log_s_net.0.bias f4 [8]
-0.43997175 -0.61431026 -0.07896732 -0.23402667 0.21714154 -0.98558927 -1.0397097 0.9061184
00000000: fa43 e1be 7043 1dbf 9eb9 a1bd b0a4 6fbe
00000010: 5a5a 5e3e 944f 7cbf 3515 85bf 60f7 673f

layers.2.log_s_net.2.weight f4 [8, 8]
-0.8325206 -0.5625903 0.083804876 -0.06094533 -0.22324085 -0.054656647 -0.112515464 -0.5012395
0.8065037 -0.05973744 -1.0076681 -0.97643083 0.24702054 -0.30067486 -0.42215866 0.09165872
-0.39249218 0.36217627 -0.057258137 0.36154905 0.12354865 -0.30806655 -0.08943905 -0.17941914
0.7628318 0.5963496 0.05705734 0.3418595 0.46238267 -0.15206061 -0.32745817 0.17350931
-0.12124245 0.06361025 0.042255893 0.13058728 -0.12571162 0.48923576 0.37750882 -0.4367432
0.05726114 -0.028083652 0.31445783 0.19905485 0.13180955 0.3218503 0.479567 -0.22900327
0.26168004 0.33358374 0.3388337 -0.1352694 0.09638598 0.32662445 -0.23874286 -0.2664744
0.2031964 -0.0049529495 0.1748428 -0.088082425 0.1132797 -0.13110578 0.25512487 -0.20523633
00000000: 1220 55bf eb05 10bf e4a1 ab3d cfa1 79bd
00000010: 4099 64be a6df 5fbd 826e e6bd 3b51 00bf
00000020: 0777 4e3f 3faf 74bd 45fb 80bf 5ff7 79bf
00000030: f4f2 7c3e 0ef2 99be 2e25 d8be 91b7 bb3d
00000040: bcf4 c8be 2b6f b93e 8287 6abd f51c b93e
00000050: 1307 fd3d e6ba 9dbe d22b b7bd a7b9 37be
00000060: f248 433f 5eaa 183f f5b4 693d 3508 af3e
00000070: 6cbd ec3e c7b5 1bbe 99a8 a7be 6dac 313e
00000080: f64d f8bd 1746 823d 8414 2d3d acb8 053e
00000090: 8cba 00be 1c7d fa3e d648 c13e ce9c dfbe
000000a0: a88a 6a3d b00f e6bc 9e00 a13e 09d5 4b3e
000000b0: 15f9 063e 90c9 a43e ce89 f53e d57f 6abe
000000c0: edfa 853e 7dcb aa3e 9c7b ad3e 1084 0abe
000000d0: 0366 c53d 523b a73e 0279 74be 556f 88be
000000e0: b812 503e 5a4c a2bb fe09 333e 8f64 b4bd
000000f0: 30ff e73d 9840 06be ba9f 823e 7929 52be

layers.2.log_s_net.2.bias f4 [8]
-0.49470997 -0.054219853 -0.31415078 0.23461686 -0.097773924 -0.26152962 -0.416897 -0.29163828
00000000: a04a fdbe a315 5ebd 5fd8 a0be 673f 703e
00000010: b23d c8bd 36e7 85be 8673 d5be 9d51 95be

layers.2.log_s_net.4.weight f4 [8, 8]
0.12125328 -0.72333986 0.35430595 -0.3590327 0.21207912 -0.012788327 0.2847502 -0.11358742
0.47857067 -1.1155682 -0.08546396 -0.5844435 0.15876725 -0.38070145 0.1447473 0.46553233
-0.29330248 0.2934447 0.008694184 0.10659303 -0.013598804 -0.090265565 -0.13317549 -0.2814029
-0.5165436 0.939393 -0.025664097 0.6325207 -0.45392895 -0.17250754 0.57674533 -0.29509053
0.384003 -0.33304536 0.18780194 0.07866649 -0.18028702 -0.11932926 -0.38799497 -0.014466476
0.0034970818 0.11483934 0.021421175 -0.15055932 0.26097086 0.07112574 -0.25273257 -0.02772353
-0.54807246 0.96150494 -0.13044082 0.2641801 -0.5063713 -0.09014628 0.76539856 -0.33876526
0.08010404 -0.6250969 0.14312215 -0.033631388 0.0015865555 -0.3098145 -0.49670747 -0.21340382
00000000: a453 f83d cd2c 39bf 9767 b53e 22d3 b7be
00000010: 452b 593e 2286 51bc c7ca 913e 85a0 e8bd
00000020: 3707 f53e f0ca 8ebf bb07 afbd 179e 15bf
00000030: e293 223e 4deb c2be a338 143e 415a ee3e
00000040: be2b 96be 623e 963e 0d72 0e3c 724d da3d
00000050: 85cd 5ebc 27dd b8bd 285f 08be 0a14 90be
00000060: 343c 04bf 0f7c 703f 833d d2bc e0ec 213f
00000070: 6069 e8be d1a5 30be 95a5 133f 1b16 97be
00000080: 0b9c c43e ec84 aabe 274f 403e e61b a13d
00000090: 299d 38be e662 f4bd 47a7 c6be cc04 6dbc
000000a0: 4c2f 653b e330 eb3d 767b af3c 392c 1abe
000000b0: f99d 853e 5faa 913d 2a66 81be 751c e3bc
000000c0: 7a4e 0cbf 3025 763f 4792 05be 9d42 873e
000000d0: 8da1 01bf 9d9e b8bd 29f1 433f a472 adbe
000000e0: 960d a43d 5a06 20bf 9d8e 123e 11c1 09bd
000000f0: f8f3 cf3a 02a0 9ebe 7150 febe 8886 5abe

layers.2.log_s_net.4.bias f4 [8]
0.1034715 0.1690747 -0.13216986 0.4428878 -0.35987645 -0.025169404 0.2622912 -0.086320855
00000000: dee8 d33d eb21 2d3e 8957 07be 31c2 e23e
00000010: ba41 b8be 1130 cebc 084b 863e fdc8 b0bd

layers.2.log_s_net.6.weight f4 [8, 8]
0.2719236 -0.14255436 0.22012293 0.16764545 -0.011628485 0.14520411 -0.034303613 -0.35106045
-0.10813377 -0.38669777 -0.055460572 0.4122057 0.0166119 0.031517986 0.35090628 -0.25212964
-0.19677198 0.3142588 -0.10335498 -0.08900557 -0.32653672 -0.11677402 -0.14961058 -0.21647227
0.0063663875 -0.09816134 -0.09052479 -0.23607782 0.1145456 -0.03589547 -0.16950741 0.16990322
-0.27974978 0.32272267 -0.12847413 0.08880362 0.12319585 -0.1681766 -0.39849958 -0.35525304
-0.64180225 -0.96035844 0.19104716 0.643491 -0.2643935 -0.14639197 0.6133023 -0.32239848
-0.020876039 0.21060438 -0.0611158 -0.26699296 0.030588936 0.30011335 -0.1348941 -0.008680813
-0.6529018 -0.30470553 -0.09481374 0.30118078 0.33547467 -0.2801848 -0.20711128 -0.28193527
00000000: 9239 8b3e c5f9 11be e867 613e 40ab 2b3e
00000010: 6785 3ebc 63b0 143e f281 0cbd 32be b3be
00000020: 3d75 ddbd 40fd c5be a02a 63bd a00c d33e
00000030: ae15 883c 0119 013d fda9 b33e 2317 81be
00000040: 987e 49be 88e6 a03e c7ab d3bd 8d48 b6bd
00000050: d22f a7be 3827 efbd 8433 19be e8aa 5dbe
00000060: 219d d03b d008 c9bd 1065 b9bd 62be 71be
00000070: e296 ea3d 2107 13bd 5a93 2dbe 1cfb 2d3e
00000080: 5d3b 8fbe e83b a53e b98e 03be acde b53d
00000090: 1b4e fc3d 7d36 2cbe 2308 ccbe bae3 b5be
000000a0: 274d 24bf 0dda 75bf dea1 433e d4bb 243f
000000b0: 965e 87be c7e7 15be 6101 1d3f 6a11 a5be
000000c0: 3a04 abbc ada8 573e 9054 7abd 4db3 88be
000000d0: a695 fa3c 75a8 993e ae21 0abe f839 0ebc
000000e0: 9324 27bf 5d02 9cbe b52d c2bd 5e34 9a3e
000000f0: 56c3 ab3e 6274 8fbe fb14 54be d259 90be

layers.2.log_s_net.6.bias f4 [8]
-0.35421374 0.10379086 -0.030541634 0.05702901 -0.13639732 0.0046751737 0.20901036 0.06963296
00000000: 815b b5be 4d90 d43d 7332 fabc 4097 693d
00000010: bdab 0bbe 3332 993b d006 563e ba9b 8e3d

layers.2.log_s_net.8.weight f4 [1, 8]
0.021274528 -0.10284639 0.253701 -0.29665706 0.06303539 -0.43633655 0.018782813 -0.066111006
00000000: eb47 ae3c 21a1 d2bd 19e5 813e 6fe3 97be
00000010: b318 813d 8167 dfbe 6ade 993c 3565 87bd

layers.2.b_net.0.weight f4 [8, 1]
-0.637983 1.1004926 0.19774622 -0.79614234 -0.6805529 -0.47154617 1.1511284 0.047762647
00000000: db52 23bf f1dc 8c3f fc7d 4a3e fccf 4bbf
00000010: b738 2ebf 806e f1be 2d58 933f c4a2 433d

layers.2.b_net.0.bias f4 [8]
0.39587182 0.92206067 -0.59290445 0.4777984 1.1260228 0.8203474 -0.20900324 -0.123290524
00000000: b6af ca3e 2b0c 6c3f 96c8 17bf fea1 f43e
00000010: 8421 903f 4a02 523f f204 56be be7f fcbd

layers.2.b_net.2.weight f4 [8, 8]
-0.34530094 0.31670207 0.16753112 -0.4795716 -0.5250755 0.2709532 0.020942768 0.021006938
-0.6388756 0.33798215 -0.41241053 -0.39365643 0.12332146 0.06037545 0.17121482 0.102221936
-0.087527305 0.16834183 -0.104858056 0.19625813 0.33829144 0.21122608 -0.23233916 -0.060686577
-0.2306063 0.38037333 -0.39585575 -0.2607301 0.4129372 0.37065712 -0.0061100353 -0.27885017
0.060117073 0.42794463 -0.039063435 0.4450151 -0.21823393 -0.34130687 0.37973124 -0.13235086
-0.7395039 0.03700345 -0.39118677 -0.6566721 0.22450013 0.54895777 0.13583145 0.2040598
0.07496773 0.084229894 0.29813927 0.2964847 -0.4168113 -0.5787082 0.09786085 -0.11747038
0.009105992 -0.02098495 0.43164325 -0.29512584 -1.1703919 -0.49297914 0.0016071531 -0.08034227
00000000: 49cb b0be c626 a23e 478d 2b3e 698a f5be
00000010: 596b 06bf 61ba 8a3e 2b90 ab3c be16 ac3c
00000020: 5a8d 23bf ff0b ad3e 7927 d3be 568d c9be
00000030: f68f fc3d 3f4c 773d f052 2f3e bc59 d13d
00000040: 8441 b3bd cd61 2c3e d2bf d6bd e4f7 483e
00000050: 8934 ad3e a64b 583e 51ea 6dbe 7d92 78bd
00000060: 0f24 6cbe 4bc0 c23e 9bad cabe 6a7e 85be
00000070: 816c d33e c5c6 bd3e b136 c8bb 73c5 8ebe
00000080: 523d 763d 8f1b db3e fb00 20bd 05d9 e33e
00000090: b778 5fbe c6bf aebe 226c c23e fc86 07be
000000a0: 2150 3dbf ee90 173d a249 c8be aa1b 28bf
000000b0: 5de3 653e 7f88 0c3f 6617 0b3e 0df5 503e
000000c0: ae88 993d b980 ac3d b6a5 983e d8cc 973e
000000d0: 4a68 d5be 3826 14bf 456b c83d 5094 f0bd
000000e0: 4c31 153c a1e8 abbc 5800 dd3e bc1a 97be
000000f0: 67cf 95bf c367 fcbe 1ca7 d23a 7d8a a4bd

layers.2.b_net.2.bias f4 [8]
-0.27928978 -0.030654348 -0.0034857513 -0.028907249 -0.028207257 -0.1355824 -0.47677663 0.15653396
00000000: 12ff 8ebe d41e fbbc 3471 64bb e5ce ecbc
00000010: e812 e7bc 1dd6 0abe 111c f4be 704a 203e

layers.2.b_net.4.weight f4 [8, 8]
-0.46615306 0.17525342 0.102085754 0.081750505 -0.6660819 0.28306815 -0.3752612 -0.6137908
0.08660429 -0.06202809 -0.54447 -0.093304746 0.12529045 0.07955375 -0.06434863 -0.30431968
-0.1805295 -0.4043031 -0.53173304 0.2242751 -0.42950982 -0.3929814 0.34299484 0.07789141
0.0563477 0.28898376 -0.098576576 0.2617923 0.36716923 0.3897973 -0.25841585 0.38007066
-0.49202755 -0.48621646 -0.5834327 -0.29919708 -0.04504057 -0.25243986 0.4767097 0.16681114
0.25420108 0.05030748 -0.109067634 -0.49189666 -0.4303134 -0.35979617 0.4295603 -0.04830342
0.14738265 -0.015076523 0.10878019 -0.43852654 -0.17623724 0.3125226 0.21205379 0.3420512
-0.2278202 -0.27817357 0.034339372 -0.18281677 -0.33748552 -0.17826426 -0.07596385 0.21285743
00000000: 9dab eebe a275 333e 5612 d13d cf6c a73d
00000010: 5884 2abf 4fee 903e 3c22 c0be 6521 1dbf
00000020: 975d b13d 2b11 7ebd 6362 0bbf 8f16 bfbd
00000030: 244c 003e 14ed a23d 37c9 83bd cacf 9bbe
00000040: badc 38be d100 cfbe a81f 08bf 5fa8 653e
00000050: b6e8 dbbe dc34 c9be 059d af3e 8885 9f3d
00000060: d9cc 663d aef5 933e 84e2 c9bd a409 863e
00000070: 9bfd bb3e 8393 c73e 154f 84be 9f98 c23e
00000080: 09eb fbbe 5df1 f8be d85b 15bf 5c30 99be
00000090: 767c 38bd cc3f 81be 4b13 f43e 8ad0 2a3e
000000a0: a526 823e 370f 4e3d da5e dfbd e1d9 fbbe
000000b0: 0a52 dcbe 3437 b8be 54ef db3e cfd9 45bd
000000c0: 7aeb 163e 8503 77bc 26c8 de3d 8d86 e0be
000000d0: 8977 34be f602 a03e a124 593e 5621 af3e
000000e0: b349 69be c46c 8ebe 71a7 0c3d 5234 3bbe
000000f0: e7ca acbe e88a 36be ef92 9bbd 4cf7 593e

layers.2.b_net.4.bias f4 [8]
0.1328884 -0.19886927 -0.15426275 0.33583117 -0.7935403 -0.46072972 -0.31015605 -0.39777705
00000000: e613 083e 63a4 4bbe 0ef7 1dbe 10f2 ab3e
00000010: 7525 4bbf c4e4 ebbe c6cc 9ebe 6fa9 cbbe

layers.2.b_net.6.weight f4 [8, 8]
0.0075593116 0.35443202 0.14694957 0.07749948 0.562573 0.2958211 -0.015850663 -0.049476262
-0.056286525 -0.09667857 0.12144458 -0.73070985 0.20889771 0.3890432 -0.3390992 -0.031026352
0.081043154 0.39872074 0.45831177 0.008491197 0.510867 0.27202013 0.019637201 0.002855903
-0.8334257 -0.13133623 -0.30112553 0.3933565 -0.08350578 -0.032421876 -0.14682497 -0.28428558
0.25634372 0.028464433 0.1229974 0.018910198 0.17996697 0.27607363 0.33046335 0.12862551
0.030850574 0.16123304 0.2498593 0.009306837 -0.05483884 -0.007388933 -0.18922602 0.27070755
-0.080417454 0.0038450358 0.015992127 0.0017760925 0.5195396 0.5366453 0.43828934 0.51692367
-0.3427715 -0.037207562 0.23274174 -0.29180676 0.2070271 0.16154048 -0.124073 0.39215648
00000000: 1ab4 f73b 1d78 b53e f379 163e 0cb8 9e3d
00000010: c904 103f dd75 973e 40d9 81bc 9fa7 4abd
00000020: b38c 66bd 6aff c5bd f0b7 f83d cd0f 3bbf
00000030: 48e9 553e ac30 c73e 699e adbe fa2a febc
00000040: f4f9 a53d 2025 cc3e d7a7 ea3e a91e 0b3c
00000050: 2ec8 023f 3946 8b3e 32de a03c 1a2a 3b3b
00000060: 635b 55bf 017d 06be 202d 9abe 0666 c93e
00000070: 1405 abbd cdcc 04bd 4959 16be e18d 91be
00000080: 7c3f 833e 3e2e e93c 10e6 fb3d 8fe9 9a3c
00000090: 4349 383e 8659 8d3e 7e32 a93e 68b6 033e
000000a0: 58ba fc3c 461a 253e 1edb 7f3e b47b 183c
000000b0: b19e 60bd dd1e f2bb 77c4 41be 2e9a 8a3e
000000c0: e8b1 a4bd fffc 7b3b ec01 833c c6cb e83a
000000d0: 8c00 053f 9661 093f 7667 e03e 1c55 043f
000000e0: bf7f afbe f566 18bd da53 6e3e b267 95be
000000f0: e9fe 533e de6a 253e fc19 febd bcc8 c83e

layers.2.b_net.6.bias f4 [8]
-0.0223364 0.035982218 -0.014490599 -0.28473055 -0.094444424 -0.013803523 0.03876747 -0.23206717
00000000: d3fa b6bc 1762 133d fa69 6dbc 34c8 91be
00000010: 146c c1bd 2c28 62bc a3ca 1e3d 04a3 6dbe

layers.2.b_net.8.weight f4 [1, 8]
-0.006956977 0.07098024 0.0036297538 -0.14869015 0.016588943 -0.00045358855 -0.008422759 -0.32471395
00000000: 5af7 e3bb 175e 913d 2ae1 6d3b 3b42 18be
00000010: 89e5 873c a0cf edb9 9dff 09bc e840 a6be

layers.4.log_s_net.0.weight f4 [8, 1]
0.05284698 0.29209343 -0.647331 0.52657616 1.1811954 1.2962646 -0.6923717 -0.0037956322
00000000: 1376 583d 458d 953e 7cb7 25bf b2cd 063f
00000010: 6931 973f 00ec a53f 463f 31bf 24c0 78bb

layers.4.log_s_net.0.bias f4 [8]
-0.070220344 0.16801088 -0.6612395 -0.29024878 -0.6862603 0.07325388 -0.37039417 -0.012942664
00000000: afcf 8fbd 0b0b 2c3e fe46 29bf 7d9b 94be
00000010: c1ae 2fbf 2106 963d 4ea4 bdbe 780d 54bc

layers.4.log_s_net.2.weight f4 [8, 8]
0.24233595 -0.12738723 -0.20776974 -0.32184744 -0.14288093 -0.11829831 -0.0066838567 -0.31162587
-0.1669853 0.0672252 0.25048807 -0.0138465995 -0.20732127 0.30053288 0.20530526 0.16924974
-0.14219117 0.2968017 0.012484982 0.040763993 -0.16631854 0.40942094 -0.20337184 -0.2906318
0.09902782 -0.236007 0.6349203 0.09250302 0.33911368 -0.26772374 0.34771255 0.1309352
-0.04463459 -0.52162665 -0.13800362 -0.6043532 -0.255866 -0.877429 -0.19754733 0.12728518
0.08988367 -0.06088553 -0.5277005 -0.5940505 -0.6623993 0.5728596 0.37025687 0.02229859
0.13392715 0.310782 0.39562583 -0.15235522 0.08639406 -0.12612759 0.4177666 0.23885804
0.09381401 -0.39726102 -0.1142535 -0.4701776 0.07100809 -0.36169738 0.09529133 -0.11313109
00000000: ea26 783e cc71 02be 97c1 54be 30c9 a4be
00000010: 614f 12be 6246 f2bd 4104 dbbb 6d8d 9fbe
00000020: 32fe 2abe 5ead 893d f93f 803e d9dc 62bc
00000030: 074c 54be 72df 993e 8b3b 523e ce4f 2d3e
00000040: 909a 11be 64f6 973e cf8d 4c3c 25f8 263d
00000050: 684f 2abe 9f9f d13e b540 50be b1cd 94be
00000060: 19cf ca3d d2ab 71be 238a 223f 3972 bd3d
00000070: 4fa0 ad3e 1613 89be 6107 b23e e113 063e
00000080: c3d2 36bd 5389 05bf d250 0dbe e4b6 1abf
00000090: de00 83be 309f 60bf d949 4abe 0c57 023e
000000a0: ee14 b83d 1b63 79bd 6117 07bf b213 18bf
000000b0: 0093 29bf eda6 123f 4f92 bd3e 88ab b63c
000000c0: 3324 093e d11e 9f3e 788f ca3e 0203 1cbe
000000d0: 5eef b03d 9727 01be 81e5 d53e 3497 743e
000000e0: 8f21 c03d cc65 cbbe bdfd e9bd 1ebb f0be
000000f0: b16c 913d 6630 b9be 1a28 c33d 46b1 e7bd

layers.4.log_s_net.2.bias f4 [8]
-0.24862841 -0.19528176 -0.36889848 -0.015370937 0.266177 -0.06784299 0.13194379 -0.045498107
00000000: 7298 7ebe f1f7 47be 43e0 bcbe 62d6 7bbc
00000010: 5a48 883e 44f1 8abd 461c 073e 395c 3abd

layers.4.log_s_net.4.weight f4 [8, 8]
0.28833315 0.42918018 0.3521421 -0.05313871 0.50355166 1.1847413 -0.17706054 0.20210817
-0.15081948 -0.32587346 0.093208104 0.011912105 0.26038316 -1.032849 -0.30379027 0.32213742
-0.35446793 -0.034683872 -0.0434717 0.620241 -0.5911737 -0.5718972 0.06085459 -0.0672158
-0.2650159 -0.6584507 -0.08537063 -0.056007463 0.33001477 -0.22911365 -0.058711555 0.3200053
-0.08912805 0.3203522 0.24763697 0.48777592 -0.24319854 -0.27505314 0.15014058 0.17880903
0.08108701 0.3007442 0.34579554 -0.39623114 0.8900071 -0.37789637 -0.29495096 -0.019039577
0.23760498 -0.9749198 -0.71470284 -0.34742376 0.62084126 -0.09380711 0.2534326 0.35380074
-0.035400238 0.62385505 0.22011898 -0.1841106 0.10722573 0.9681286 -0.13650212 -0.28364417
00000000: 67a0 933e 81bd db3e f84b b43e faa7 59bd
00000010: c3e8 003f 9aa5 973f 5c4f 35be 72f5 4e3e
00000020: 6c70 1abe e3d8 a6be e4e3 be3d fd2a 433c
00000030: f150 853e 6534 84bf 668a 9bbe 32ef a43e
00000040: d27c b5be ad10 0ebd 620f 32bd 1dc8 1e3f
00000050: 2957 17bf db67 12bf aa42 793d 70a8 89bd
00000060: 2ab0 87be 3a90 28bf ccd6 aebd 1568 65bd
00000070: b2f7 a83e c59c 6abe 877b 70bd bcd7 a33e
00000080: c488 b6bd 3405 a43e 8c94 7d3e c4bd f93e
00000090: 0a09 79be c4d3 8cbe 74be 193e b719 373e
000000a0: f210 a63d 25fb 993e 1d0c b13e cfde cabe
000000b0: 81d7 633f a27b c1be d003 97be e3f8 9bbc
000000c0: b84e 733e 5894 79bf c4f6 36bf 87e1 b1be
000000d0: 74ef 1e3f f11d c0bd ebc1 813e 5f25 b53e
000000e0: d7ff 10bd f7b4 1f3f df66 613e 7d87 3cbe
000000f0: 2a99 db3d 47d7 773f 36c7 0bbe cf39 91be

layers.4.log_s_net.4.bias f4 [8]
-0.25451952 -0.10632323 0.20162246 -0.085700355 0.23899128 -0.066732235 0.11776838 -0.14820147
00000000: 6250 82be febf d9bd 1e76 4e3e ab83 afbd
00000010: 21ba 743e e9aa 88bd 8c30 f13d 20c2 17be

layers.4.log_s_net.6.weight f4 [8, 8]
0.7263378 -0.57070094 -0.31347984 0.0349169 0.033890616 -1.0870123 -0.2577952 0.771334
-0.54871225 0.06450529 0.33859232 0.118078396 0.12612715 0.22465037 -0.5342574 -0.38998306
0.48470473 -0.07454 -0.28166488 0.17544983 0.14356646 0.06848938 0.30996442 0.3028709
0.84475094 -0.48436952 -0.45209622 -0.2554476 -0.032800194 -0.80913043 -0.81042755 0.73682237
0.29064372 -0.36287123 0.042143587 0.24009615 -0.22990583 0.11615261 -0.07699564 -0.016032238
-0.9082045 -0.23477635 0.21148553 -0.37065002 0.32525256 -0.2605429 -0.13608482 -0.14290677
-0.75297326 0.14132982 0.35014763 -0.09001226 -0.021911185 0.29953253 -0.5057483 -0.16281982
-0.7004397 -0.06249354 -0.072101414 -0.4147713 0.30049545 0.17978229 -0.3014905 0.14099671
00000000: 46f1 393f 7519 12bf 6e80 a0be 0605 0f3d
00000010: e3d0 0a3d 3823 8bbf bcfd 83be 2576 453f
00000020: 6878 0cbf 591b 843d f95b ad3e 16d3 f13d
00000030: 7a27 013e bf0a 663e 18c5 08bf dcab c7be
00000040: 382b f83e 6da8 98bd 6136 90be 1fa9 333e
00000050: 1603 133e 2944 8c3d a8b3 9e3e e511 9b3e
00000060: 9941 583f 48ff f7be 2879 e7be 07ca 82be
00000070: 7f59 06bd 2c23 4fbf 2e78 4fbf 64a0 3c3f
00000080: 41cf 943e 42ca b9be c19e 2c3d c4db 753e
00000090: 6f6c 6bbe 6be1 ed3d e4af 9dbd 0a56 83bc
000000a0: 1780 68bf 3669 70be aa8f 583e d7c5 bdbe
000000b0: 8187 a63e e165 85be d259 0bbe 2756 12be
000000c0: dbc2 40bf c4b8 103e 8d46 b33e 5958 b8bd
000000d0: 167f b3bc 545c 993e b878 01bf 3dba 26be
000000e0: 0450 33bf 3af9 7fbd e8a9 93bd e75c d4be
000000f0: 8ada 993e d918 383e f65c 9abe 7161 103e

layers.4.log_s_net.6.bias f4 [8]
0.009885897 0.18602239 0.22300446 0.00045472887 -0.17277664 0.15425855 0.20211756 -0.051663905
00000000: 75f8 213c a77c 3e3e 485b 643e ad68 ee39
00000010: 5cec 30be f4f5 1d3e e8f7 4e3e 889d 53bd

layers.4.log_s_net.8.weight f4 [1, 8]
0.58221495 -0.25264296 0.0763152 0.8181795 0.10707068 -0.38469777 -0.23706779 -0.3730159
00000000: 0a0c 153f 6b5a 81be 254b 9c3d 3674 513f
00000010: df47 db3d 1bf7 c4be e6c1 72be f1fb bebe

layers.4.b_net.0.weight f4 [8, 1]
0.5771902 -0.100248896 0.2079643 0.11667956 -0.58939314 0.9154321 -0.43886492 0.41380242
00000000: bdc2 133f 4b4f cdbd 98f4 543e b1f5 ee3d
00000010: 78e2 16bf c259 6a3f e7b2 e0be e9dd d33e

layers.4.b_net.0.bias f4 [8]
-0.18874201 0.7839713 0.70579386 -0.3337447 0.9774694 0.09984298 -0.58652574 -1.2241172
00000000: 9645 41be 58b2 483f e8ae 343f 96e0 aabe
00000010: 6f3b 7a3f 7a7a cc3d 8d26 16bf dfaf 9cbf

layers.4.b_net.2.weight f4 [8, 8]
-0.3917057 -0.06295677 0.2868037 -0.3083469 -0.15612671 0.18046395 0.23182249 0.13047339
-0.5771331 0.3173312 -0.055176355 0.2345585 0.35948482 -0.16095912 0.29191035 -0.015722021
-0.25566992 -0.13384846 0.19230029 -0.1963715 0.16199145 -0.40175298 -0.4445146 0.236342
-1.0089465 0.13860992 -0.052714687 0.18271056 0.2593823 -0.68470544 0.35598883 0.108307004
0.25721553 -0.10958441 -0.32614192 -0.1458368 0.20826754 0.24686313 0.11184889 -0.04056689
0.19481981 0.16254373 0.090019405 -0.31170064 -0.3211618 0.34540904 -0.31442317 -0.021812867
-0.36753613 0.35396054 0.19106716 0.13955858 0.047607098 0.072669335 0.08770492 0.24911782
0.47498402 -0.15146628 0.09955827 0.1941234 -1.7113779 0.34054938 0.1597015 -0.052824836
00000000: a68d c8be 7bef 80bd efd7 923e a5df 9dbe
00000010: aedf 1fbe 8bcb 383e e062 6d3e d19a 053e
00000020: ffbe 13bf 3c79 a23e 9a00 62bd 1a30 703e
00000030: 650e b83e 78d2 24be 4675 953e 78cb 80bc
00000040: 2be7 82be 920f 09be 5eea 443e 9c15 49be
00000050: 16e1 253e 91b2 cdbe 6b97 e3be a303 723e
00000060: 2925 81bf c2ef 0d3e 5beb 57bd 7a18 3b3e
00000070: c2cd 843e db48 2fbf 2b44 b63e 10d0 dd3d
00000080: c1b1 833e cb6d e0bd 13fc a6be 3e56 15be
00000090: 1644 553e b0c9 7c3e 0811 e53d 7829 26bd
000000a0: d87e 473e dd71 263e 185c b83d 3a97 9fbe
000000b0: 526f a4be 74d9 b03e 13fc a0be e6b0 b2bc
000000c0: b22d bcbe 513a b53e 1ca7 433e 72e8 0e3e
000000d0: a9ff 423d a9d3 943d a39e b33d be18 7f3e
000000e0: 1b31 f33e fa19 1bbe 35e5 cb3d 49c8 463e
000000f0: 6e0e dbbf 7d5c ae3e ca88 233e db5e 58bd

layers.4.b_net.2.bias f4 [8]
-0.31432158 -0.12571469 -0.022217698 0.331288 0.18848817 0.017760899 0.17173553 -0.3082184
00000000: c2ee a0be 5abb 00be e401 b6bc 959e a93e
00000010: 0b03 413e 4e7f 913c 70db 2f3e cdce 9dbe

layers.4.b_net.4.weight f4 [8, 8]
-0.07051385 -0.14672886 -0.1496335 -0.06771308 0.2880634 -0.027106732 0.40425968 -0.9503318
-0.22957969 -0.37232217 -0.323379 0.3251255 0.22856829 0.0021142988 -0.09821407 0.4552021
-0.20009504 0.7693699 -0.1603326 -2.7709064 -0.057759795 0.37486106 -0.13688935 -0.30305377
0.1602929 0.021034284 -0.22293776 -0.14456429 0.26493663 0.28812978 0.31061333 0.68548995
-0.23801386 0.043003425 0.29041708 0.053516317 0.07148014 -0.19321673 0.17815553 -0.49797973
-0.04846142 -0.15630099 0.04990233 0.11605564 -0.21481122 -0.20642942 -0.04027118 -0.66230965
-0.28096673 -0.0037906687 -0.20308046 0.448251 -0.3515129 0.11925155 0.15857579 0.5411829
0.014551145 0.115676954 0.047330663 -0.9144374 0.1360784 -0.4008898 0.035586268 -0.5998773
00000000: 9169 90bd 1740 16be 8639 19be 28ad 8abd
00000010: 0c7d 933e f00e debc 20fb ce3e f248 73bf
00000020: f016 6bbe 03a1 bebe ef91 a5be d976 a63e
00000030: ce0d 6a3e 0c90 0a3b 7524 c9bd 4010 e93e
00000040: b7e5 4cbe 6df5 443f 3b2e 24be 8856 31c0
00000050: 8995 6cbd caed bf3e b92c 0cbe dd29 9bbe
00000060: d223 243e 1750 ac3c cc49 64be a908 14be
00000070: c6a5 873e bf85 933e b608 9f3e 457c 2f3f
00000080: e8b9 73be 5c24 303d 8cb1 943e ed33 5b3d
00000090: 2e64 923d 9bda 45be 676e 363e 33f7 febe
000000a0: 7b7f 46bd 5e0d 20be 6366 4c3d 94ae ed3d
000000b0: 79f7 5bbe 3c62 53be 65f3 24bd 208d 29bf
000000c0: dfda 8fbe de6c 78bb 53f4 4fbe 2881 e53e
000000d0: 80f9 b3be 283a f43d b161 223e f68a 0a3f
000000e0: ed67 6e3c 0ae8 ec3d ccdd 413d 9218 6abf
000000f0: 2358 0b3e 6e41 cdbe e8c2 113d 8f91 19bf

layers.4.b_net.4.bias f4 [8]
0.33103085 0.025195211 0.18827266 -0.032490868 -0.3195995 -0.29034576 -0.052042525 0.08889329
00000000: e07c a93e 3066 ce3c 8cca 403e 2515 05bd
00000010: 8ca2 a3be 33a8 94be 8b2a 55bd af0d b63d

layers.4.b_net.6.weight f4 [8, 8]
0.06509428 -0.16936663 0.5847667 0.12995446 -0.028455414 0.15107632 -0.43342042 0.6209919
0.40348613 0.033812393 0.19494256 -0.2043901 -0.22700244 -0.28202397 -0.31077746 0.42333558
0.13227846 0.3070059 0.62381065 -0.28251904 0.07731539 0.1389708 0.22279915 0.4280406
-0.27969864 0.2956375 -0.59327567 -0.10387166 0.016442483 -0.15853721 -0.09975311 -0.60931915
-0.28947392 0.30445233 -0.25141504 0.20424584 -0.17884526 -0.26726186 0.23213902 -0.23281516
-2.2386563 0.35594347 0.13235229 0.43713596 -0.21218772 -0.33769822 0.18601827 -0.4152813
0.01559932 0.3312591 -0.12478941 -0.14854077 -0.19083847 -0.041093193 0.05123501 0.19772333
0.022721102 0.16927686 -0.29462144 0.18661602 0.28751823 -0.04850171 -0.085055344 -0.20110416
00000000: 2650 853d 726e 2dbe 45b3 153f c812 053e
00000010: 541b e9bc c0b3 1a3e 48e9 ddbe 53f9 1e3f
00000020: bc95 ce3e dd7e 0a3d 069f 473e a34b 51be
00000030: 5473 68be 7265 90be 391e 9fbe 71bf d83e
00000040: 0174 073e e12f 9d3e 0eb2 1f3f 56a6 90be
00000050: 8857 9e3d 5d4e 0e3e 7625 643e 2328 db3e
00000060: a934 8fbe cc5d 973e eae0 17bf aaba d4bd
00000070: 63b2 863c 9457 22be 5c4b ccbd 57fc 1bbf
00000080: ed35 94be 2de1 9b3e 79b9 80be d225 513e
00000090: 3623 37be 8cd6 88be dab5 6d3e 1967 6ebe
000000a0: 2546 0fc0 393e b63e 5c87 073e 49d0 df3e
000000b0: bd47 59be c8e6 acbe 937b 3e3e c09f d4be
000000c0: 4a94 7f3c cb9a a93e 9791 ffbd 121b 18be
000000d0: 296b 43be 5651 28bd cddb 513d fc77 4a3e
000000e0: 9b21 ba3c ea56 2d3e 9fd8 96be 4518 3f3e
000000f0: 9735 933e bba9 46bd 7f31 aebd 40ee 4dbe

layers.4.b_net.6.bias f4 [8]
-0.019127218 -0.28707168 -0.009292197 -0.005961793 0.19253546 -0.2369505 -0.01602909 0.13477728
00000000: afb0 9cbc 0ffb 92be 4d3e 18bc 255b c3bb
00000010: 0428 453e 27a3 72be 704f 83bc 0e03 0a3e

layers.4.b_net.8.weight f4 [1, 8]
0.5046305 0.23461044 0.2620118 -0.306347 -0.24655421 -0.7255607 0.0013026282 -0.13142346
00000000: 772f 013f b83d 703e 6926 863e 84d9 9cbe
00000010: b578 7cbe 59be 39bf f3bc aa3a df93 06be

layers.6.log_s_net.0.weight f4 [8, 1]
-0.0532003 0.55360425 0.35677546 -0.7578091 0.21980743 -0.15172383 -0.50073737 -1.150323
00000000: 8fe8 59bd 02b9 0d3f 46ab b63e c7ff 41bf
00000010: 3315 613e 7e5d 1bbe 5330 00bf c93d 93bf

layers.6.log_s_net.0.bias f4 [8]
-0.2781189 0.99871796 0.2186037 0.5316901 0.40109402 0.46109608 -0.7877804 -0.35168466
00000000: 9a65 8ebe fbab 7f3f a6d9 5f3e d81c 083f
00000010: 325c cd3e c914 ec3e faab 49bf 0310 b4be

layers.6.log_s_net.2.weight f4 [8, 8]
0.1201501 -0.591356 -0.30830404 0.3754573 -0.68723094 0.24220778 0.057600528 0.2380752
0.16658114 -0.35519764 -0.43842763 0.15860127 -0.55344844 -0.09594747 0.43893504 0.21388853
0.38865936 -0.35357144 -0.33829886 -0.22623625 -0.40690875 0.059790388 -0.05321663 0.22818561
-0.14496018 -0.14057764 -0.9438515 0.27800447 -0.2654189 0.09531492 0.28831813 0.28042486
0.023144955 0.1784401 0.8083037 -0.1479386 -0.13397874 -0.02508282 0.17639217 -0.6060581
-0.109558105 0.14712013 0.19875655 -0.30057397 -0.42312133 0.14140922 -0.23549719 0.2820832
-0.43910357 0.6620755 -0.5269626 -0.05645564 0.07267183 0.34692162 -0.27782202 -0.33723488
0.03689717 -0.4902305 -0.0045136358 0.14578004 -0.1602497 0.16979772 0.19371888 0.51266515
00000000: 4111 f63d 1b63 17bf 07da 9dbe f03b c03e
00000010: 5eee 2fbf 5105 783e 88ee 6b3d fcc9 733e
00000020: 3f94 2a3e 77dc b5be 9679 e0be 5f68 223e
00000030: ccae 0dbf 1b80 c4bd 18bc e03e 9805 5b3e
00000040: 5cfe c63e 5107 b5be 8235 adbe 7aaa 67be
00000050: 5856 d0be c4e6 743d aef9 59bd 7da9 693e
00000060: 7170 14be 96f3 0fbe 40a0 71bf 9a56 8e3e
00000070: fce4 87be 7834 c33d 6f9e 933e d993 8f3e
00000080: 7d9a bd3c 00b9 363e feec 4e3f 377d 17be
00000090: b931 09be 7c7a cdbc 26a0 343e a026 1bbf
000000a0: 0060 e0bd a9a6 163e d686 4b3e d5e4 99be
000000b0: 5ca3 d8be 94cd 103e 2d26 71be 366d 903e
000000c0: 2fd2 e0be c87d 293f 05e7 06bf 073e 67bd
000000d0: f8d4 943d b69f b13e b03e 8ebe 0daa acbe
000000e0: 7d21 173d 7eff fabe 1fe7 93bb 5d47 153e
000000f0: 7f18 24be 74df 2d3e 3e5e 463e 063e 033f

layers.6.log_s_net.2.bias f4 [8]
-0.35099015 -0.2055696 0.08498498 0.090033054 0.29606587 -0.07595625 0.46242255 -0.06896236
00000000: fbb4 b3be d680 52be 9b0c ae3d 4063 b83d
00000010: f295 973e f38e 9bbd a6c2 ec3e 233c 8dbd

layers.6.log_s_net.4.weight f4 [8, 8]
0.51084495 0.26804578 0.21994059 0.026724549 -0.080419265 -0.12349487 -0.13659579 0.23972651
-0.62097126 -0.47483256 0.070451975 -0.5423541 0.14491919 -0.012850874 -0.15703382 -0.10647093
-0.12889896 -1.542919 -0.12010474 -0.33864328 0.27961853 0.23880641 0.24593961 0.16338983
-0.44908667 -1.4243585 -0.012810357 0.087491356 0.38482237 -0.1731066 0.3212948 -0.079168856
-0.44638434 -0.023155347 0.06881254 0.31325746 -0.47246042 0.02781665 0.072168484 -0.15097317
0.67215645 0.13576669 0.14906912 0.23872711 0.09019499 -0.061703138 -0.8016874 0.4313945
0.5820611 -0.04462866 0.49343422 0.11394549 -0.016065756 0.3039722 -0.5728574 0.65441084
-0.36424944 0.1579255 -0.14997955 0.2050621 -0.27723873 -0.06047181 0.19261315 -0.012550466
00000000: bcc6 023f 4c3d 893e 1b38 613e 71ed da3c
00000010: dbb2 a4bd e1ea fcbd c4df 0bbe de7a 753e
00000020: f9f7 1ebf 411d f3be 2049 903d b8d7 0abf
00000030: b265 143e 798c 52bc 79cd 20be 6e0d dabd
00000040: 17fe 03be 5f7e c5bf 79f9 f5bd a762 adbe
00000050: 292a 8f3e ab89 743e 98d7 7b3e aa4f 273e
00000060: b0ee e5be 6151 b6bf 88e2 51bc ab2e b33d
00000070: 7007 c53e db42 31be c180 a43e 4823 a2bd
00000080: 7d8c e4be 48b0 bdbc 97ed 8c3d 4863 a03e
00000090: 55e6 f1be bedf e33c 12cd 933d b698 1abe
000000a0: 7212 2c3f 6c06 0b3e 93a5 183e e174 743e
000000b0: 27b8 b83d 6ebc 7cbd 633b 4dbf bddf dc3e
000000c0: f501 153f 8bcc 36bd 69a3 fc3e 415c e93d
000000d0: 559c 83bc 3fa2 9b3e c8a6 12bf 7887 273f
000000e0: e77e babe 39b7 213e 3d94 19be cdfb 513e
000000f0: 3cf2 8dbe 4ab1 77bd 623c 453e 78a0 4dbc

layers.6.log_s_net.4.bias f4 [8]
-0.032482263 -0.20996802 0.25992966 0.23612007 -0.046205264 0.013567906 -0.09894277 0.19153018
00000000: 1f0c 05bd db01 57be 8015 853e 76c9 713e
00000010: bb41 3dbd ec4b 5e3c 82a2 cabd 7d20 443e

layers.6.log_s_net.6.weight f4 [8, 8]
0.19798473 -0.50371546 -0.3947651 -0.30829293 0.76589364 -0.48864704 0.073285885 0.1595532
0.37212613 -0.49756 -0.04708228 0.0932553 -0.0881095 0.5881847 0.5484018 -0.10742855
0.0047699646 -0.14747262 -0.08163932 -0.24476539 -0.17325985 -0.41504458 -0.56486726 -0.36829507
0.3468258 -0.22129335 -0.263858 -0.08017676 -0.3232049 0.6959592 0.31493896 -0.20745204
0.19451238 -0.25179908 -0.7974826 -0.89782727 0.055323187 -0.13525014 0.11338374 0.23687297
0.104717426 -0.21356092 0.19562297 -0.270239 -0.12914765 0.2137193 0.099041075 -0.20438151
-0.4192286 -0.28153569 0.1301783 -0.08830948 -0.0029571962 -0.16417027 -0.20464185 -0.23373869
0.18295476 -0.019128691 0.08786389 0.13350685 -0.27263469 0.47815067 0.5348069 -0.22021185
00000000: 82bc 4a3e 7ff3 00bf a71e cabe 92d8 9dbe
00000010: 9b11 443f f22f fabe e916 963d ea61 233e
00000020: 5187 be3e 2fc0 febe 59d9 40bd a2fc be3d
00000030: c172 b4bd 4693 163f 0f64 0c3f 8003 dcbd
00000040: 5d4d 9c3b 1003 17be 8432 a7bd c7a3 7abe
00000050: 086b 31be b980 d4be 249b 10bf 2c91 bcbe
00000060: 2793 b13e b99a 62be 6518 87be b733 a4bd
00000070: 1d7b a5be 622a 323f ae3f a13e 4f6e 54be
00000080: 412e 473e cfeb 80be d227 4cbf 02d8 65bf
00000090: 919a 623d 037f 0abe bc35 e83d d48e 723e
000000a0: 1776 d63d b7af 5abe 6351 483e c45c 8abe
000000b0: 483f 04be 3bd9 5a3e 0cd6 ca3d 6349 51be
000000c0: 22a5 d6be 7225 90be 764d 053e 9adb b4bd
000000d0: 85cd 41bb 401c 28be a28d 51be 3259 6fbe
000000e0: 7e58 3b3e c6b3 9cbc fcf1 b33d 05b6 083e
000000f0: c696 8bbe 2ad0 f43e 1be9 083f 377f 61be

layers.6.log_s_net.6.bias f4 [8]
0.44335076 0.09177882 0.08835629 0.18889277 0.2594126 0.21204776 -0.2235218 -0.12882754
00000000: dffe e23e 89f6 bb3d 24f4 b43d 1b6d 413e
00000010: bad1 843e 0c23 593e e6e2 64be 5eeb 03be

layers.6.log_s_net.8.weight f4 [1, 8]
0.67187005 -0.5247705 0.31421018 -0.23193882 0.786891 -0.15016282 0.07551104 -0.28835806
00000000: adff 2b3f 5c57 06bf 28e0 a03e 5f81 6dbe
00000010: b071 493f 48c4 19be 88a5 9a3d aba3 93be

layers.6.b_net.0.weight f4 [8, 1]
0.41105384 -0.28314725 0.21150811 -0.9801053 -0.6036968 -0.07701187 -0.62808293 -0.23170774
00000000: a675 d23e adf8 90be 9595 583e 2ee8 7abf
00000010: e08b 1abf 66b8 9dbd 0bca 20bf cb44 6dbe

layers.6.b_net.0.bias f4 [8]
0.7684726 -1.0032651 0.9117323 0.3660299 -0.11159592 0.55138654 0.23360924 -0.5369223
00000000: 9fba 443f fe6a 80bf 4a67 693f 4568 bb3e
00000010: 678c e4bd ab27 0d3f 4337 6f3e bd73 09bf

layers.6.b_net.2.weight f4 [8, 8]
0.007256318 -0.042189643 0.010917282 -0.11158539 0.16354512 -0.057148423 -0.23152205 0.3137853
-0.93929255 0.08531336 -0.17290927 0.27905276 -0.088458024 0.24519506 0.3919577 0.30573714
0.05583948 0.05419247 0.2192815 -0.92961586 -0.060304984 0.046997044 -0.5248407 -0.1063263
-0.44420937 0.32806194 -0.06574614 0.0594296 0.28479198 -0.15726425 -0.26090315 0.0006037222
0.03757133 0.23535489 0.1284291 0.3577845 -0.22342081 -0.35214528 0.014375492 0.24388495
-0.71559155 0.33417952 -0.22479315 0.18119338 0.11404302 0.13737063 -0.23715752 -0.061287347
0.27811325 -0.48931497 0.27206287 -0.32043394 0.58723235 -0.06530664 -0.17769623 -0.3104024
0.00026708064 -0.19663464 0.22623898 -0.03507101 0.23064177 -0.34219977 -0.111418806 0.2857699
00000000: 68c6 ed3b 0ccf 2cbd 66de 323c e286 e4bd
00000010: 5f78 273e 7714 6abd 1e14 6dbe 78a8 a03e
00000020: 7a75 70bf c5b8 ae3d 210f 31be 01e0 8e3e
00000030: 7b29 b5bd 6a14 7b3e aeae c83e 9489 9c3e
00000040: f0b7 643d ecf8 5d3d 548b 603e 4efb 6dbf
00000050: 5c02 77bd f97f 403d f65b 06bf 9ac1 d9bd
00000060: 696f e3be bcf7 a73e eaa5 86bd 746c 733d
00000070: 41d0 913e e109 21be 1995 85be 1c43 1e3a
00000080: 65e4 193d df00 713e eb82 033e 882f b73e
00000090: 6dc8 64be 634c b4be 2f87 6b3c fabc 793e
000000a0: 0231 37bf 9419 ab3e 2d30 66be c28a 393e
000000b0: 638f e93d e3aa 0c3e 6cd9 72be 7108 7bbd
000000c0: dc64 8e3e 7e87 fabe d34b 8b3e eb0f a4be
000000d0: dc54 163f 7dbf 85bd 00f6 35be 10ed 9ebe
000000e0: f506 8c39 975a 49be 31ab 673e 9fa6 0fbd
000000f0: 5b2d 6c3e cf34 afbe 8b2f e4bd 6f50 923e

layers.6.b_net.2.bias f4 [8]
-0.006660664 0.29365903 0.13199157 0.04433706 -0.45996317 0.12621018 0.45372805 -0.37418774
00000000: b341 dabb 7a5a 963e cc28 073e c79a 353d
00000010: 4b80 ebbe 3e3d 013e 0b4f e83e 8995 bfbe

layers.6.b_net.4.weight f4 [8, 8]
0.19621542 0.28088498 -0.033144735 -0.081424855 0.114753425 -0.3229161 -0.37393212 0.4263652
0.23117408 -0.3211757 -0.04684199 -0.042218905 0.11404049 0.34382766 -0.21653573 -0.24030688
-0.029272564 0.18761273 -0.052120972 -0.21429276 -0.3739521 -0.08704359 0.35800257 0.016596023
-0.11330796 0.15743104 0.36993003 0.049221065 0.43208557 0.05950784 0.14555287 -0.07104509
0.013547804 -0.3247546 0.37483498 -0.30030236 -0.6016463 -0.36696133 0.26375797 0.059484754
-0.117420405 0.14133076 0.34811142 0.21321711 0.0015871446 0.2987676 -0.3452492 0.23060708
0.44510996 0.09314649 0.066994675 0.24581657 -0.09251716 -0.223021 0.07601639 -0.24481621
0.33633408 -0.46238312 -0.23627813 -0.19945008 0.3384594 -0.5669133 -0.006813037 0.54330504
00000000: b2ec 483e 28d0 8f3e c6c2 07bd 13c2 a6bd
00000010: d803 eb3d 4255 a5be 0874 bfbe 8a4c da3e
00000020: e6b8 6c3e 2471 a4be 63dd 3fbd bbed 2cbd
00000030: 0f8e e93d 2e0a b03e 8bbb 5dbe 0213 76be
00000040: 04cd efbc 8d1d 403e cd7c 55bd 906f 5bbe
00000050: a676 bfbe e943 b2bd 1d4c b73e 62f4 873c
00000060: 010e e8bd 9a35 213e 7867 bd3e 079c 493d
00000070: 523a dd3e 7ebe 733d d00b 153e 1780 91bd
00000080: 9cf7 5d3c 3c46 a6be 5fea bf3e 3bc1 99be
00000090: 7e05 1abf 5be2 bbbe 490b 873e 49a6 733d
000000a0: 1c7a f0bd 03b9 103e a93b b23e 9655 5a3e
000000b0: bc07 d03a 11f8 983e 81c4 b0be 4324 6c3e
000000c0: 74e5 e33e 96c3 be3d 8134 893d 57b7 7b3e
000000d0: a379 bdbd 9e5f 64be 7bae 9b3d 1ab1 7abe
000000e0: fb33 ac3e 7bbd ecbe e5f2 71be a43c 4cbe
000000f0: 8d4a ad3e 3b21 11bf e63f dfbb 0a16 0b3f

layers.6.b_net.4.bias f4 [8]
-0.29583535 -0.29309136 0.03902041 0.117471986 0.134863 -0.20761499 -0.046554603 0.09628454
00000000: bb77 97be 1210 96be ded3 1f3d 2795 f03d
00000010: 8719 0a3e 0699 54be 0ab0 3ebd d430 c53d

layers.6.b_net.6.weight f4 [8, 8]
-0.31224188 -0.25757656 -0.116734035 0.0251642 0.46056265 0.37275326 -0.13057649 0.04210292
0.029691674 -0.034263518 0.28805754 0.09853266 0.3921037 0.13165349 0.19185373 -0.28023356
-0.117380396 0.11861502 0.3200529 0.35547492 0.069308825 -0.08016093 -0.14392802 -0.111919075
0.122925036 0.17604284 0.040387396 0.032113295 -0.1102994 -0.3111675 0.23191977 -0.26964316
-0.09786584 -0.24096057 0.3774895 -0.06902161 0.19136024 0.27585274 -0.19464755 0.111493334
0.18675286 -0.25498313 0.06317324 -0.19941689 0.20880914 -0.13394877 -0.3181391 0.013431198
0.46211088 -0.2887949 0.017090345 -0.17884381 -0.7552902 -0.23755497 0.14459357 -0.16766195
0.29738468 -0.31426975 -0.018432898 -0.106517985 0.07327098 0.31432053 0.24067385 0.27580476
00000000: 2bde 9fbe 13e1 83be 4112 efbd 2725 ce3c
00000010: dece eb3e 84d9 be3e d8b5 05be 1d74 2c3d
00000020: f43b f33c e757 0cbd 477c 933e 7ecb c93d
00000030: d1c1 c83e 2cd0 063e 4e75 443e c67a 8fbe
00000040: 2265 f0bd 6eec f23d f9dd a33e cf00 b63e
00000050: c9f1 8d3d 6a2b a4bd de61 13be d435 e5bd
00000060: 1fc0 fb3d 9344 343e 416d 253d 3b89 033d
00000070: a7e4 e1bd 5951 9fbe 607c 6d3e ab0e 8abe
00000080: e36d c8bd 5ebe 76be 4e46 c13e 345b 8dbd
00000090: f0f3 433e 923c 8d3e b051 47be 9e56 e43d
000000a0: 243c 3f3e 268d 82be f960 813d f133 4cbe
000000b0: 10d2 553e de29 09be 21e3 a2be 870e 5c3c
000000c0: cc99 ec3e eddc 93be 0d01 8c3c d522 37be
000000d0: b35a 41bf 9c41 73be 5610 143e 93af 2bbe
000000e0: ce42 983e f7e7 a0be 9700 97bc 1a26 dabd
000000f0: 180f 963d 9fee a03e 3573 763e 4836 8d3e

layers.6.b_net.6.bias f4 [8]
0.29722542 0.40975475 -0.11519187 0.0021436494 0.114527114 -0.062745385 0.13973221 0.21727237
00000000: ee2d 983e 60cb d13e b7e9 ebbd 787c 0c3b
00000010: 318d ea3d a780 80bd f615 0f3e a67c 5e3e

layers.6.b_net.8.weight f4 [1, 8]
-0.20943871 -0.37465927 -0.06048102 0.09819099 -0.2039145 -0.25006837 -0.0505998 -0.12743579
00000000: 1a77 56be 57d3 bfbe f2ba 77bd 5c18 c93d
00000010: f6ce 50be f608 80be bc41 4fbd 877e 02be

layers.8.log_s_net.0.weight f4 [8, 1]
0.12790881 0.47679847 -0.6519187 -0.29171225 -0.4025472 0.668891 1.0992173 1.0591596
00000000: 87fa 023e ee1e f43e 25e4 26bf 4f5b 95be
00000010: ab1a cebe 713c 2b3f 27b3 8c3f 8b92 873f

layers.8.log_s_net.0.bias f4 [8]
-0.5225952 -0.30431944 0.69772387 -0.6706738 -0.2511442 0.7429062 0.6732979 0.21425068
00000000: cdc8 05bf c2cf 9bbe 089e 323f 47b1 2bbf
00000010: f995 80be 1a2f 3e3f 405d 2c3f 8864 5b3e

layers.8.log_s_net.2.weight f4 [8, 8]
0.24324541 -0.59245706 -0.10269493 -0.0028550168 0.04763337 0.23322263 -0.17797437 -0.20486353
-0.05064687 0.10455748 0.32494774 0.25307053 -0.43307263 -0.08624288 -0.10917099 0.09679238
0.1337286 -0.4565343 0.25803944 -0.057720583 0.103989914 -0.036374427 -0.120030984 -0.56044054
0.17227 0.37062725 0.08981941 -0.13438328 -0.09106382 0.18634322 0.515935 0.64245605
-0.08430328 -0.1447119 -0.15373808 -0.072885945 -0.18851481 -0.35712004 -0.25427568 0.012828105
-0.16409996 -0.049509816 -0.049463786 -0.09300907 -0.32766098 0.07390029 -0.26768267 -1.0521624
0.19877629 -0.14372255 0.041163135 0.22241795 0.09814966 0.34460485 0.15667924 0.34848765
-0.13036099 0.11518536 -0.17956237 0.22545362 0.27176633 0.02013169 -0.31158075 0.11630659
00000000: 5315 793e 44ab 17bf b851 d2bd 3c1b 3bbb
00000010: 351b 433d ead1 6e3e ea3e 36be bfc7 51be
00000020: 1873 4fbd 3b22 d63d 8d5f a63e 7692 813e
00000030: b2bb ddbe 1ba0 b0bd 0a95 dfbd 153b c63d
00000040: 26f0 083e ddbe e9be bf1d 843e 6b6c 6cbd
00000050: aaf8 d43d 5afd 14bd ced2 f5bd 0879 0fbf
00000060: 8c67 303e dbc2 bd3e 3df3 b73d c59b 09be
00000070: ab7f babd c2d0 3e3e 5114 043f 0078 243f
00000080: 33a7 acbd 5b2f 14be 846d 1dbe 3a45 95bd
00000090: 070a 41be 70d8 b6be 6c30 82be f92c 523c
000000a0: d209 28be ceca 4abd 8a9a 4abd 8a7b bebd
000000b0: 2ec3 a7be 0959 973d b40d 89be 42ad 86bf
000000c0: 038c 4b3e 012c 13be ad9a 283d 88c1 633e
000000d0: b002 c93d 0c70 b03e 8670 203e f96c b23e
000000e0: 5a7d 05be 4de6 eb3d 33df 37be 50dd 663e
000000f0: f524 8b3e 37eb a43c 8387 9fbe 2632 ee3d

layers.8.log_s_net.2.bias f4 [8]
0.020113528 0.07270212 0.12949331 -0.03869139 0.17477101 0.35943675 0.2127207 0.015774276
00000000: 20c5 a43c d9e4 943d e599 043e dd7a 1ebd
00000010: 2cf7 323e 1808 b83e 75d3 593e 0e39 813c

layers.8.log_s_net.4.weight f4 [8, 8]
-0.27288973 0.05054672 -0.9191128 0.31260943 0.2787594 -0.15366094 0.26237053 0.20106637
0.029247254 -0.127019 0.05374099 0.14965977 0.1436119 -0.06954379 0.27136508 -0.041257255
0.27745578 -0.03203105 0.13665304 -0.33347866 0.2393353 0.5083389 0.11619591 -0.25052422
-0.08812885 -0.3339627 -0.35511982 0.032235123 -0.36361298 -0.04447226 -0.13964912 -0.34169373
0.018285535 0.2721864 -0.16081896 -0.4211732 -0.025476508 0.25210243 -0.09400956 -0.027189432
0.083457574 -0.34644556 -0.20945488 0.07316579 -0.20729744 -0.40177834 0.46567953 -0.16303606
-0.20206326 0.10018987 0.19136348 -0.2967914 -0.027377602 0.54938924 0.26520255 0.02402868
-0.2224533 -0.2522219 -0.30987263 0.13303699 0.04615156 -0.42015088 -0.12129321 -0.049290538
00000000: 34b8 8bbe 140a 4f3d fa4a 6bbf 580e a03e
00000010: 8db9 8e3e 4b59 1dbe 6e55 863e 58e4 4d3e
00000020: f097 ef3c 4511 02be 831f 5c3d 6940 193e
00000030: ff0e 133e f96c 8ebd 5df0 8a3e 5efd 28bd
00000040: af0e 8e3e fe32 03bd c6ee 0b3e b7bd aabe
00000050: 5014 753e 8022 023f 1ff8 ed3d b644 80be
00000060: e67c b4bd 29fd aabe 44d2 b5be fa08 043d
00000070: 7b2b babe 8b28 36bd 2e00 0fbe 7bf2 aebe
00000080: 8ccb 953c 045c 8b3e baad 24be 03a4 d7be
00000090: 1cb4 d0bc 9213 813e 1688 c0bd 5fbc debc
000000a0: ceeb aa3d 5061 b1be 577b 56be f2d7 953d
000000b0: c845 54be e4b5 cdbe 8c6d ee3e edf2 26be
000000c0: ace9 4ebe 5930 cd3d caf4 433e 0bf5 97be
000000d0: fe46 e0bc c6a4 0c3f a1c8 873e cbd7 c43c
000000e0: ccca 63be 3b23 81be a0a7 9ebe d93a 083e
000000f0: 6b09 3d3d 041e d7be 9368 f8bd e0e4 49bd

layers.8.log_s_net.4.bias f4 [8]
-0.29821125 0.15415028 0.29790384 0.10124941 0.29087347 0.2434017 -0.37164754 -0.22626287
00000000: 25af 98be 92d9 1d3e da86 983e da5b cf3d
00000010: 5eed 943e 4c3e 793e 9648 bebe 74b1 67be
