plots/training/best_model.pt (torch, 129706 bytes, 270 tensors)

layers.0.log_s_net.0.weight f4 [8, 1]
000000 f6 9f 47 bf 6f e7 99 3e 1f 25 56 3f be 88 59 3f
       -0.77978456 0.30059382 0.8365039 0.84974277
000010 70 2a 02 3e a2 63 62 bf 83 4d 74 3f 0b 61 64 bf
       0.12711501 -0.8843328 0.95430773 -0.89210576

layers.0.log_s_net.0.bias f4 [8]
000000 14 af 19 3e 3b 19 27 3f c5 f2 79 bf d7 8c 44 bd
       0.15008193 0.65272874 -0.9763606 -0.047985878
000010 a6 d2 6d bf e1 b7 5c bf e2 8b 85 3f ae f4 4e bf
       -0.9289955 -0.86218077 1.0433314 -0.808421

layers.0.log_s_net.2.weight f4 [8, 8]
000000 9d c8 a9 3e 8e 6a 65 3e f1 f8 05 bc 6e 06 29 be
       0.33160868 0.22403929 -0.008177028 -0.16506359
000010 e0 23 cb be f8 14 cf 3e 40 fe a7 be 0c f5 a1 3d
       -0.39675808 0.40445685 -0.32811165 0.07908067
000020 4e d0 73 be d9 60 84 be 8a b6 55 3e dd b1 bf be
       -0.2380993 -0.2585514 0.20870414 -0.37440386
000030 74 a2 c4 3d a9 63 c7 be a0 56 66 be 9a d3 d8 bd
       0.09601298 -0.38943222 -0.22493982 -0.10587235
000040 dd 7c ee 3e 06 fd ba bd 77 c1 98 be 94 49 b2 be
       0.46579638 -0.09130292 -0.29835102 -0.3482176
000050 1c 69 36 3e 92 f8 8c 3e a9 d6 51 be 27 50 07 3f
       0.17813534 0.27533394 -0.20492043 0.5285668
000060 c2 7a a8 be 8d 71 21 3e 58 9c 10 3f 3a 7f 9f 3e
       -0.32906157 0.15765972 0.5648856 0.31151754
000070 be 92 00 be f5 88 38 3d b7 cd 7f be 9c 40 9d be
       -0.12555978 0.045052487 -0.24980818 -0.30713356
000080 c4 1a 09 3f 8d a6 cb bc e3 d1 bb bd 24 fb 0d be
       0.53556466 -0.024859691 -0.09170892 -0.13865334
000090 dd 62 d4 3d ef e1 4d bf 06 ee eb be e2 4b b0 be
       0.10370419 -0.8042287 -0.46080035 -0.34432894
0000a0 9f de 0a 3e 16 2a 2b be 75 7b 72 bd 78 af e9 be
       0.13561486 -0.16715273 -0.05919977 -0.45641685
0000b0 27 71 b0 be 11 32 b5 be 2a fe 21 3e c0 9f e9 bd
       -0.34461328 -0.3538976 0.15819612 -0.11407423
0000c0 c7 c3 aa be 5d e8 a3 3e 4c 63 0e 3e 1d fa 24 be
       -0.3335249 0.32013217 0.13905066 -0.16111036
0000d0 80 87 4f 3e 6a 54 c4 3e 82 d6 8a 3e ac 51 b8 3e
       0.20266533 0.38345653 0.2711678 0.3599981
0000e0 00 8c e3 3e 1a fe e8 be f7 1f a2 3d fe a9 53 bd
       0.4444275 -0.45506364 0.07916253 -0.05167579
0000f0 d5 ce 36 be 1b 07 ab 3d 4c f6 22 3e d5 28 0e 3f
       -0.17852338 0.08350965 0.15914267 0.55531055

layers.0.log_s_net.2.bias f4 [8]
000000 45 9a 25 3f be 88 b2 bd 33 94 da be 04 aa bf be
       0.6468852 -0.08717488 -0.42691192 -0.374344
000010 2a df a4 3d 5f 80 84 3e 90 b6 6c 3d f6 d7 d4 be
       0.08050378 0.2587919 0.057791293 -0.41571015

layers.0.log_s_net.4.weight f4 [8, 8]
000000 e0 1b 04 3d 65 ea 79 3e de e7 5a 3e 5c f8 94 be
       0.032253146 0.2440582 0.21377513 -0.29095733
000010 28 44 01 bf de 6b 5e 3e 9e 7c 8b be 3c cd 14 bf
       -0.50494623 0.21720836 -0.27243513 -0.5812566
000020 f7 de 02 3f 43 fc 01 be 51 6a 88 3e 9d 39 39 3e
       0.5112147 -0.12693886 0.26643613 0.18088384
000030 11 cb 27 3f c6 d0 3e 3c e8 aa 79 3e b6 a0 09 3d
       0.6554423 0.011646455 0.24381602 0.03360053
000040 98 a1 af bc 87 f2 9d be 9a 3f d2 3e 81 55 6f bd
       -0.021439359 -0.30849096 0.4106415 -0.058431152
000050 d1 b7 ad bf 69 bd f6 3d ce 88 b2 3e 0d 6e 41 bf
       -1.3571721 0.12047846 0.3487 -0.7555855
000060 5a ce 28 bc 4b de 26 3e a9 dd 18 3f 2f eb 9f 3e
       -0.010303104 0.16295736 0.59713227 0.31234118
000070 12 6c 71 3e 21 6d 3b bf f3 8f db 3e 27 37 ef 3e
       0.23576382 -0.7321339 0.42883262 0.46721765
000080 a5 34 1d 3e 25 d0 fa 3b 39 2e cd 3e 2f c6 da 3e
       0.15352114 0.0076542073 0.40074328 0.42729327
000090 95 8b 45 3f 33 0d bb be a2 19 2f 3e 75 9b c4 3e
       0.7716611 -0.36533508 0.17099622 0.38399854
0000a0 9b 4b 32 3d d1 6d 88 3e be 6b c9 3e fd 27 a8 3e
       0.043529134 0.26646283 0.39340013 0.3284301
0000b0 12 a8 f3 bf d9 f9 04 bd af b7 be 3d 33 23 f9 be
       -1.9035666 -0.032464836 0.093123786 -0.48659667
0000c0 f1 6c 9b bf d1 13 6b bf 29 5f 3e 3e ac db bc bf
       -1.2142621 -0.9182711 0.18590988 -1.4754539
0000d0 85 a0 76 bd 6e 3d d2 be 96 77 fb 3e bb ce 9b 3e
       -0.060211677 -0.41062492 0.49114674 0.3043116
0000e0 df 51 13 3c 7c ce e7 be 55 c9 4d 3f ab 18 a0 be
       0.008991688 -0.45274723 0.80385333 -0.3126882
0000f0 71 60 60 bf d7 31 74 bd db 07 f7 bd 4f 85 26 3f
       -0.8764716 -0.059617843 -0.12062045 0.6504716

layers.0.log_s_net.4.bias f4 [8]
000000 a1 17 9c 3e 9f 75 98 bd ae 55 95 3d a4 46 f9 bd
       0.30486777 -0.074443094 0.07291733 -0.12171677
000010 03 9f 64 3d 0b 5d 91 3e 14 c5 b0 3e bb a6 26 3e
       0.055815708 0.283913 0.3452536 0.1627454

layers.0.log_s_net.6.weight f4 [8, 8]
000000 eb f5 b9 3e 4f 34 49 be a0 ad 94 3f 67 ad 24 bf
       0.36320433 -0.1964886 1.1615486 -0.6432709
000010 73 84 31 3d d5 4f 5b 3f 7e ca 32 bf 71 f8 17 3e
       0.043339204 0.8566869 -0.6984023 0.14840867
000020 35 8f 09 be ce 1a de 3e 0d 09 fc be fc 31 f2 3e
       -0.13433535 0.43379825 -0.49225655 0.4730376
000030 d2 7b 9f 3e a1 88 d6 3d fe 82 1d 3f 61 f9 09 3f
       0.31149155 0.10475279 0.61528003 0.53896147
000040 35 2e 4f be 8b a3 32 3e 24 26 f9 3d 8d f3 26 3e
       -0.2023247 0.17445199 0.12165478 0.16303845
000050 f5 c2 e6 3d 79 d3 cf 3e 4b 8d 9d be ea c3 06 bf
       0.11267654 0.40591028 -0.3077186 -0.5264269
000060 5a b5 47 3e 17 44 f4 3b 17 ee 0a 3e 1f 51 bb 3e
       0.19502774 0.007454406 0.13567387 0.36585328
000070 e0 e7 57 bd 3f 04 84 be dc cf a1 3e 30 67 f9 3e
       -0.052711368 -0.2578449 0.31603897 0.48711538
000080 f6 af 6c 3e 43 91 3e 3e f3 b3 e5 be 44 7a a1 3e
       0.23113999 0.186101 -0.44863853 0.31538594
000090 9e 7a f5 3d 6c 10 14 bf 54 cc 0e bf 27 d4 06 bf
       0.11986278 -0.5783756 -0.5578053 -0.5266747
0000a0 51 91 a9 bc 95 30 cc 3d 10 9d 39 bf 2d 27 ec bd
       -0.020699175 0.09970204 -0.72505283 -0.1153091
0000b0 d0 37 3b bd bf 14 23 be 7a 13 9f 3f 52 77 56 bf
       -0.045707524 -0.15925883 1.2427819 -0.8377582
0000c0 39 4f f8 be 4b 35 af be 09 3f 34 3e 27 84 db 3d
       -0.48497942 -0.34220347 0.17602171 0.107185654
0000d0 f7 74 27 be e0 25 0e 3d 2c 99 13 bf 1e 57 35 3e
       -0.16353212 0.03470409 -0.57655597 0.17709014
0000e0 2a b9 4b be 58 00 8d be bf e5 6b 3f 67 5a 43 bf
       -0.19894853 -0.27539325 0.9214744 -0.7630982
0000f0 75 57 94 be 7c 1d 1b 3f 5b 1d 2a bf c8 20 be 3e
       -0.28972974 0.60591865 -0.6645104 0.37134385

layers.0.log_s_net.6.bias f4 [8]
000000 b8 f4 4c bd 1e 80 bf 3e eb 84 e2 3d db ff ca bd
       -0.05003807 0.37402433 0.11060508 -0.09912082
000010 0b b3 88 3d b2 f3 25 3f ec 67 08 bf 48 03 47 3e
       0.06674775 0.64824975 -0.5328357 0.19434845

layers.0.log_s_net.8.weight f4 [1, 8]
000000 63 ac b0 3e 13 d4 b5 be cf b8 18 3e a2 3d cc be
       0.3450652 -0.35513362 0.14914249 -0.39890772
000010 e1 3e 15 be 21 2e 03 bf dc 11 70 3e 2f 60 75 3e
       -0.14574768 -0.5124226 0.23444313 0.23962472

layers.0.b_net.0.weight f4 [8, 1]
000000 65 97 17 3f 62 81 fc be ef f4 7b bf 9a bb 6a bf
       0.59215385 -0.4931746 -0.98420614 -0.9169251
000010 0c 33 64 bf 77 e8 ec be 85 7b 19 be 3b 9f 77 3f
       -0.8914039 -0.46271107 -0.14988525 0.9672734

layers.0.b_net.0.bias f4 [8]
000000 22 3d 3d 3f 23 6e 10 be 19 04 94 be 33 6d 65 3f
       0.73921406 -0.14104514 -0.28909376 0.8961975
000010 b8 08 92 bf cf 3d d2 3e 05 17 24 bf 1c 0a 8f 3f
       -1.1408911 0.4106278 -0.64097625 1.117496

layers.0.b_net.2.weight f4 [8, 8]
000000 74 c8 b0 3e e7 40 22 bf 66 3c 6d bf e8 9c c1 be
       0.34527934 -0.63380283 -0.92670286 -0.37815022
000010 96 2f 8f be 40 e5 4f be 5a 34 5e be 5e e2 76 3e
       -0.27965993 -0.20302296 -0.21699658 0.2410979
000020 e3 4f a4 3e cc 13 f4 be e2 e7 34 be 43 f5 0b 3f
       0.320922 -0.47671354 -0.17666581 0.54671115
000030 5e 8f d5 3e d6 5b f7 3e 8c ed fc 3e bb 0a 76 3e
       0.41710943 0.48312253 0.49399984 0.24027531
000040 61 84 35 bc 5c 42 12 3f 2c d8 71 3e 91 75 84 bf
       -0.011078925 0.57132506 0.2361762 -1.0348378
000050 bc 70 d3 3d be 2d 0d bf 2f ca b4 bd 55 1e 5d bd
       0.10324237 -0.5514792 -0.08827626 -0.053984005
000060 97 44 1b 3e 41 d0 6c be a1 84 1c 3d fb a8 c4 3d
       0.15162884 -0.23126318 0.038212422 0.09602543
000070 07 be 25 3f ee 08 ac be 52 9b 26 bf 8f 8b 06 3f
       0.64743084 -0.33600563 -0.6508075 0.525567
000080 02 d9 ad 3d 9f eb 32 3d eb fe 9a 3e e7 83 1d 3f
       0.084886566 0.043681737 0.30272612 0.6152939
000090 cc 6c cb bf b5 1c dc 3e 86 b9 6b bf a6 b3 97 be
       -1.5892577 0.42990652 -0.9207996 -0.29629248
0000a0 0f 75 d5 3d f3 45 4d 3d a9 e8 c1 bd 02 73 ef be
       0.10422718 0.050115537 -0.094682045 -0.46767431
0000b0 d8 18 04 3d 71 70 11 bf ec 3b 53 be 63 18 81 3e
       0.032250255 -0.56812197 -0.20628327 0.25213918
0000c0 7d de 27 bf 16 39 98 3d ee a6 b1 3d ae 89 2c 3e
       -0.65573865 0.07432763 0.086744174 0.16849396
0000d0 83 d6 a8 bf c1 18 12 be 4c 6f 19 3d 7c e2 71 bf
       -1.3190464 -0.14267255 0.037459657 -0.9448621
0000e0 00 c9 07 3e a0 1b 9e 3e 73 53 31 be b8 b4 ad 3e
       0.13260269 0.3088045 -0.1731699 0.3392694
0000f0 f4 d7 08 3f b6 5c 37 3d d7 f4 3f bf 28 74 d8 be
       0.5345452 0.04476615 -0.7498297 -0.4227612

layers.0.b_net.2.bias f4 [8]
000000 07 cd d9 3e d6 18 42 bd 21 a6 30 3d fc 9d 5b 3e
       0.42539236 -0.047386967 0.043127183 0.21446985
000010 27 61 00 3f 05 d6 4b bf b7 ea 53 3e f2 33 30 bd
       0.5014824 -0.7962344 0.20695005 -0.04301829

layers.0.b_net.4.weight f4 [8, 8]
000000 aa cc 00 bf 17 b9 6d 3e 8f 28 83 be 11 cb 60 3e
       -0.5031229 0.23215137 -0.2561688 0.21952464
000010 f2 ea 45 3f de 68 ab bf b9 cb 7d bf 25 95 69 3e
       0.77311623 -1.3391378 -0.9913898 0.228108
000020 2d 28 db be 14 05 d0 3e d6 f0 d4 be 67 c1 b8 be
       -0.4280409 0.40628874 -0.41589993 -0.36085054
000030 ac c8 f7 3d 0b 54 e5 3c c1 c7 13 bf c2 e1 9e be
       0.12098822 0.027994176 -0.57726675 -0.31031615
000040 8f 24 83 3e 7f 7c fe bc 9d df 60 3f 29 0e 01 3e
       0.2561383 -0.031065224 0.87841207 0.12603058
000050 38 80 6f bf 38 71 88 bf 25 ee af be 33 3a 5b bf
       -0.9355502 -1.0659552 -0.34361377 -0.8563568
000060 7d cb cd bf 7e 2f 1b be 70 8b 8c bd 56 f7 df 3d
       -1.6077725 -0.15154836 -0.06862533 0.109358475
000070 12 53 fd 3e 8b 97 44 bb d2 ea 45 bf d3 8f f6 3d
       0.4947744 -0.0029997553 -0.7731143 0.12039151
000080 0b 93 16 bf 0d 24 6e be ed 30 17 3e 57 47 cf be
       -0.5881812 -0.2325594 0.14764757 -0.40484115
000090 18 94 88 bc c1 5b fc 3d f5 2c 15 3d 6a b5 10 3e
       -0.01667218 0.12322188 0.036419827 0.14131704
0000a0 ba bb 64 be b0 c7 c5 be 6b 30 c1 bd 86 de 13 be
       -0.22337237 -0.38628912 -0.09433063 -0.14440355
0000b0 a5 62 b4 be a2 f6 53 3d b0 f5 11 be 77 c6 9f 3e
       -0.3523151 0.05174888 -0.14253879 0.31206104
0000c0 df d5 1e be df dd 92 be ec fe 93 3d 75 18 60 bf
       -0.15511273 -0.286849 0.07226357 -0.8753732
0000d0 4b e5 f5 3e 5e c2 d7 be 0e 92 b2 3f 88 1d 23 be
       0.480265 -0.42140478 1.3950822 -0.15929234
0000e0 11 c0 a0 bc 71 16 c1 3e d3 a1 5d 3d c6 68 0b 3e
       -0.019622834 0.37712434 0.054109406 0.13614187
0000f0 08 df 35 3e e1 54 be 3f 96 2d 16 3d 76 60 8d 3e
       0.17760861 1.4869653 0.036664568 0.27612656

layers.0.b_net.4.bias f4 [8]
000000 56 a4 f2 3e 32 e4 71 3e d2 ce da 3d ae 26 64 3c
       0.47391003 0.23622206 0.10683979 0.013925238
000010 f6 9e a6 3d 5f e0 1a be fe fd e4 bc e0 bd 6a bd
       0.08135788 -0.15124653 -0.027953144 -0.057309985

layers.0.b_net.6.weight f4 [8, 8]
000000 d2 ae a0 3d 46 e1 93 bd a3 bd 89 3f 69 af eb be
       0.07845844 -0.07220702 1.0760998 -0.46032265
000010 ec 92 49 3d 34 e7 a2 bd 00 05 db 3e dd 43 e8 be
       0.04921238 -0.07954255 0.42777252 -0.45364276
000020 47 a1 29 bd 3b 37 a4 3e f1 40 aa 3d ae ba 51 bf
       -0.04141357 0.32073388 0.08313168 -0.81925476
000030 64 da ea 3c f9 05 a8 3e 94 43 2c bd f0 79 5c 3e
       0.02866859 0.32817057 -0.042056635 0.2153089
000040 d7 af fb bc 22 81 22 3d f6 64 26 be 1c 85 03 3f
       -0.030723495 0.039673932 -0.16249451 0.51374984
000050 90 2d 74 be 35 66 64 bd 79 b4 70 bf 4d 3f 6c 3e
       -0.23845506 -0.055761535 -0.9402538 0.23071022
000060 f6 24 f7 3e 20 b0 2f 3f 1d af 9e bf 11 53 83 bd
       0.48270386 0.6862812 -1.239719 -0.06412328
000070 30 f5 09 3f 67 50 c8 bc b5 02 34 bf 81 52 9b 3d
       0.5388975 -0.024452401 -0.7031663 0.07584096
000080 e9 b8 01 be 57 06 88 bd 91 32 90 3e 38 05 1f bf
       -0.12668194 -0.06641834 0.2816358 -0.6211734
000090 e4 12 4c 3e 06 ee f1 3d cf 35 08 3e 56 a7 45 be
       0.19929081 0.118129775 0.13301776 -0.19302115
0000a0 f7 ee 95 be 54 dd 02 be 2e 83 93 be 7d a0 41 3f
       -0.29283878 -0.12779742 -0.2881102 0.7563551
0000b0 87 30 67 3e 94 d9 c4 be 36 28 48 bf 10 01 ad 3e
       0.22577105 -0.3844725 -0.7818636 0.33789873
0000c0 84 04 ef 3e 20 77 4e be 9f 45 68 bf f5 3f 15 3f
       0.46683133 -0.2016263 -0.90731233 0.58300716
0000d0 46 5f 30 be 02 4c fe be 20 35 a1 bf df d4 82 3d
       -0.17223844 -0.49667364 -1.2594337 0.06388258
0000e0 d5 47 9b bc aa ca 8f be 04 99 02 3e 78 fc 03 be
       -0.01895515 -0.28084308 0.12753683 -0.12889278
0000f0 d5 33 4e be af e8 eb bb 40 da 06 3f eb 49 86 3e
       -0.2013696 -0.007199369 0.52676773 0.2622827

layers.0.b_net.6.bias f4 [8]
000000 e4 0c 01 3f d9 25 a5 3e ae bd d1 bc c7 f2 7f be
       0.50410295 0.32255438 -0.025603142 -0.24994956
000010 24 c0 c8 bd a1 d4 8f 3e c0 c4 8d 3e 47 69 be be
       -0.09802273 0.2809191 0.2768917 -0.37189695

layers.0.b_net.8.weight f4 [1, 8]
000000 54 ee 6e bf ca 3d d6 bd c2 4e 51 3e 7e 40 8d bf
       -0.9333241 -0.10461004 0.204402 -1.1035306
000010 60 29 e6 bd ee 87 a5 3e 86 56 86 3f 05 ab e6 be
       -0.112383604 0.3233027 1.0495155 -0.45052353

layers.2.log_s_net.0.weight f4 [8, 1]
000000 58 2f 39 3f 3d f2 85 bf df 73 8d bf d0 0c 1f bf
       0.72337866 -1.046455 -1.1050986 -0.62128925
000010 fe 85 d2 be 36 ff a9 3e ad 05 8c 3e 7e 2c 86 bf
       -0.41117853 0.33202523 0.2734808 -1.0482328

layers.2.log_s_net.0.bias f4 [8]
000000 57 88 e7 be 7d 92 1c bf b3 e4 a8 bd 8f ea 26 be
       -0.45221207 -0.61161023 -0.08246746 -0.16300415
000010 90 79 5e 3e 23 2a 7e bf 90 4b 86 bf 15 08 73 3f
       0.2172606 -0.99283046 -1.049181 0.9493421

layers.2.log_s_net.2.weight f4 [8, 8]
000000 70 76 29 bf 14 d3 0c bf 4d 38 8a 3d 26 22 a8 bd
       -0.66196346 -0.5500958 0.0674902 -0.08209638
000010 90 46 73 be 5c 5b 47 bc f8 59 92 bd 32 fa 08 bf
       -0.23757386 -0.012167778 -0.071460664 -0.5350677
000020 47 36 22 3f 02 ee ec bb b7 2a 77 bf d9 85 67 bf
       0.6336407 -0.007230521 -0.9654955 -0.9043861
000030 02 a6 5e 3e 8b 8e a2 be b3 12 de be f3 38 f6 3d
       0.21743014 -0.31749377 -0.4337364 0.12022581
000040 02 0f 7f be f0 d3 ba 3e 1a 30 44 bd 66 74 bd 3e
       -0.24908069 0.3648982 -0.047897436 0.37002867
000050 31 b5 12 3e ab d5 a5 be f0 4e da bd 32 9c 26 be
       0.14326932 -0.32389578 -0.106595874 -0.16270521
000060 2d 7b 17 3f 9d 9f 15 3f e1 23 98 3d 57 50 ba 3e
       0.59172326 0.58446676 0.07428718 0.3638942
000070 1b 82 f4 3e 82 c6 47 be 83 f9 bc be 68 1f 55 3e
       0.47755513 -0.19509318 -0.36909112 0.20812762
000080 e2 2f 10 bd e9 c5 98 3d ed 7d d0 3c 02 42 df 3d
       -0.035201915 0.07459623 0.025450671 0.10901262
000090 05 e9 0f be 69 52 01 3f 9f da ca 3e 8e 2a f1 be
       -0.14053734 0.5051637 0.3961992 -0.4710278
0000a0 7f c4 04 3e e3 9c 89 bc da 1a 98 3e c3 a4 36 3e
       0.12965582 -0.016798442 0.29707986 0.17836289
0000b0 21 ee e7 3d a4 33 ad 3e 21 0e 00 3f 93 2b 89 be
       0.11324716 0.3382846 0.5002156 -0.26791057
0000c0 21 48 bb 3d ce e9 bb 3e ec bb be 3e 45 89 cf bd
       0.09144617 0.36701816 0.37252748 -0.10133604
0000d0 16 a2 fa 3d 45 47 96 3e 18 a9 8a be 5f e0 71 be
       0.12237947 0.2935125 -0.27082133 -0.23620747
0000e0 9e 88 98 3e ee 6a bf bc 4d 2d 18 3e e7 bf fb bd
       0.2979173 -0.023366418 0.14861031 -0.12292462
0000f0 39 67 c1 3d 48 a0 f1 bd 82 5d 86 3e 4d 8b 77 be
       0.09443516 -0.11798149 0.26243216 -0.24174233

layers.2.log_s_net.2.bias f4 [8]
000000 d8 81 06 bf 9a 64 80 bd 68 9d 94 be 5a 1a 88 3e
       -0.52541876 -0.06269188 -0.2902634 0.26582605
000010 83 76 00 be 48 9c 96 be 09 45 c7 be 85 ab 88 be
       -0.12545209 -0.29416108 -0.38919857 -0.2669336

layers.2.log_s_net.4.weight f4 [8, 8]
000000 cc 0b 00 3e 35 7d 10 bf 0b 63 a6 3e dc cc b4 be
       0.125045 -0.5644105 0.3249744 -0.35312545
000010 9d 97 79 3e 9c 9a ce 3b f0 8a 9b 3e 18 03 84 bd
       0.24374242 0.006305052 0.30379438 -0.064459026
000020 c4 e7 f6 3e a0 98 74 bf a4 b7 11 be d6 fd 13 bf
       0.48223698 -0.9554539 -0.1423021 -0.578092
000030 11 b0 42 3e 3b b8 a9 be 44 af 28 3e de dc 03 3f
       0.19012477 -0.3314837 0.16473109 0.5150889
000040 81 f3 82 be 59 da 22 3c a6 5e 94 3d 7f d8 95 3d
       -0.25576404 0.009939753 0.07244615 0.07316684
000050 5e f0 99 bc 38 77 7d bd 9d c2 d2 bd 0b 64 9c be
       -0.018791374 -0.061881274 -0.10291026 -0.30545077
000060 0b aa 06 bf 6c 19 48 3f 08 b7 cb 3c 04 77 21 3f
       -0.52603215 0.7816379 0.02486755 0.6307223
000070 79 04 fb be a2 dd 69 be 78 1a 0d 3f a7 93 b3 be
       -0.4902685 -0.22838452 0.55118513 -0.35073587
000080 81 51 c9 3e 7c 66 38 be e3 5b 11 3e 5c d1 a5 3d
       0.39319995 -0.18007845 0.14195208 0.08096573
000090 c1 ba 14 be 8f f1 88 bd 37 c4 b9 be cc bf 1f 3d
       -0.14524366 -0.06686699 -0.36282513 0.03900127
0000a0 a6 d7 a0 3c 01 98 48 3e ba fc 9e 3b bc dc 22 be
       0.01963408 0.19589235 0.0048519047 -0.15904516
0000b0 09 ba 8d 3e 9a 0e ad 3d e7 55 63 be 3c 0a 3c bc
       0.27680996 0.08450051 -0.22200738 -0.011477049
0000c0 43 49 0e bf 2d 6e 4d 3f 45 56 9f bd bd 89 85 3e
       -0.5558054 0.8024624 -0.077801265 0.26081648
0000d0 e7 7b 0a bf 08 a3 13 be ec c2 3d 3f 42 36 c9 be
       -0.5409531 -0.1441766 0.7412555 -0.39299208
0000e0 6a e7 bb 3d 55 ce f0 be b2 10 c7 3d 0f 1c 0b bd
       0.09174998 -0.4703242 0.09719981 -0.033962306
0000f0 69 7b 21 3d 9d b1 82 be 86 93 f0 be e2 3c 20 be
       0.039424334 -0.25526133 -0.4698755 -0.15648225

layers.2.log_s_net.4.bias f4 [8]
000000 43 ba a8 3d 3f 2b 17 3e 7f 11 49 be 99 73 f1 3e
       0.082386516 0.14762591 -0.1963558 0.47158507
000010 b0 40 c7 be 37 33 65 bd 2b 10 94 3e af a2 f0 bd
       -0.3891654 -0.055957045 0.28918585 -0.117497794

layers.2.log_s_net.6.weight f4 [8, 8]
000000 e1 d3 75 3e a4 61 2f be 54 a6 a5 3e cf ef 3b 3e
       0.24006607 -0.1712709 0.3235346 0.18353198
000010 f9 e5 f9 bc d8 62 18 3e 5d 36 0c bc 00 47 ce be
       -0.030505167 0.14881456 -0.008557883 -0.40288544
000020 0a 22 91 bd f6 6b aa be 1b ad 2a be 75 f1 d3 3e
       -0.070865706 -0.33285493 -0.16667597 0.41395155
000030 d5 b5 58 bc f4 96 86 bc 51 24 ae 3e 20 12 62 be
       -0.013226946 -0.016429402 0.34012082 -0.22077227
000040 f5 3b 75 be 68 8d 81 3e fc c1 89 3a e4 2d a7 bd
       -0.23948653 0.25303197 0.0010510082 -0.0816305
000050 76 fe 9c be 51 4c 9c bd 7c 94 04 be 58 9f 83 be
       -0.30662888 -0.07631744 -0.12947267 -0.25707507
000060 8b 02 c8 3c 5b 07 07 bd 9d 5c 32 be 77 ad 81 be
       0.024415275 -0.032966 -0.17418142 -0.25327656
000070 ed 96 dc 3d f9 d0 44 bd e5 87 4c be e4 17 5e 3e
       0.10770974 -0.048050854 -0.19973715 0.21688801
000080 11 80 9e be 62 8c 8d 3e 10 ef 84 bc 89 44 a2 3d
       -0.30957082 0.27646166 -0.016227275 0.07923228
000090 c6 3a 25 3e 38 1d f1 bd 63 e5 ca be 22 ed c0 be
       0.16135702 -0.11773151 -0.39628133 -0.37680918
0000a0 7c f6 14 bf 2c 87 65 bf d7 64 b2 3d f8 38 22 3f
       -0.58188605 -0.8965938 0.0871064 0.6336818
0000b0 83 56 90 be d4 20 3f be 1a 2f 17 3f eb ca 8e be
       -0.28191003 -0.18664867 0.59056246 -0.2788919
0000c0 1a c5 da bc 0b 38 9a 3e b4 b2 19 bb 71 88 a7 be
       -0.026705313 0.30120882 -0.0023452463 -0.32721284
0000d0 5a 39 24 3d 4e 96 99 3e b9 ec 4b be 45 23 dc 3c
       0.040093757 0.29997486 -0.19914521 0.026872287
0000e0 79 a9 1b bf fb 09 83 be 59 fa 52 be 58 cd 9d 3e
       -0.6080547 -0.25593552 -0.20603313 0.30820727
0000f0 e7 c4 99 3e e5 84 aa be 01 6d 59 be cc 36 83 be
       0.30033037 -0.33304515 -0.21232988 -0.25627744

layers.2.log_s_net.6.bias f4 [8]
000000 a7 4c b3 be f0 67 0e 3e 66 eb 65 bd 83 49 8e 3d
       -0.3501942 0.13906837 -0.056132697 0.06947615
000010 ee fd 37 be 73 c6 e4 3c ca 5a 4c 3e 24 89 e1 3d
       -0.1796796 0.02792666 0.19956508 0.110124856

layers.2.log_s_net.8.weight f4 [1, 8]
000000 0b 35 82 3d e8 14 c7 bd a1 dd 85 3e 2d 91 aa be
       0.063577734 -0.097207844 0.26145652 -0.33313885
000010 b6 28 90 3d 4a 7f d8 be f5 8e c4 bc 56 3d aa bd
       0.07039015 -0.42284614 -0.023993948 -0.0831248

layers.2.b_net.0.weight f4 [8, 1]
000000 c0 d4 30 bf d0 2f 8e 3f ab 6a 1f 3e d5 e7 53 bf
       -0.6907463 1.1108341 0.15568034 -0.8277562
000010 3f 71 2b bf 88 54 bf be 94 52 94 3f 00 4b 86 3d
       -0.66969675 -0.3736918 1.1587701 0.06557274

layers.2.b_net.0.bias f4 [8]
000000 a7 ab 9c 3e bf 69 6c 3f 88 86 15 bf 8b 28 b5 3e
       0.3059971 0.92348856 -0.58408403 0.35382494
000010 1c 0c 8e 3f e4 aa 55 3f ff 2d 5a be 15 e6 0d be
       1.1097445 0.83463883 -0.21306609 -0.138573

layers.2.b_net.2.weight f4 [8, 8]
000000 33 92 90 be 38 ee 9d 3e 3d 21 15 3e 97 ab ca be
       -0.2823654 0.3084581 0.1456346 -0.39584038
000010 93 9f fa be 7c 47 98 3e 31 c0 25 bc 53 bc b0 bb
       -0.4894987 0.29742038 -0.010116623 -0.0053935437
000020 e2 fb 1d bf ce 24 b5 3e 49 5b c3 be 9b 4f b9 be
       -0.6171247 0.35379642 -0.38155583 -0.36193547
000030 4a d7 91 bd 3c f4 8b bd 1e 4d 53 3e 3f 0e 04 3e
       -0.07121141 -0.068336934 0.20634887 0.1289606
000040 44 0d e4 bd bb ca 3b 3e 84 78 03 be 74 c9 31 3e
       -0.11135343 0.18339054 -0.12838942 0.17362005
000050 44 84 c4 3e b8 bf 81 3e 2a 60 66 be 23 8e 81 bd
       0.3838216 0.25341582 -0.22497621 -0.063259386
000060 a2 a0 7a be 85 b8 c9 3e 7f 25 bf be fe e3 8b be
       -0.24475339 0.3939859 -0.37333295 -0.27322382
000070 a3 9d 91 3e 92 04 8d 3e 54 0d b6 3c 5d ec 84 be
       0.2844058 0.2754255 0.022223152 -0.2596158
000080 49 8a 56 bd 71 d4 d4 3e 9e 46 14 bd 04 ee 93 3e
       -0.052377973 0.4156833 -0.03620016 0.2889253
000090 7b f9 64 be 4e 88 b3 be c9 0d bb 3e c5 57 0f be
       -0.22360794 -0.3506493 0.36533955 -0.13998325
0000a0 31 e9 41 bf 30 4a 52 3d 72 dc b4 be 2e d6 2a bf
       -0.75746447 0.051340282 -0.35324436 -0.6673306
0000b0 84 1f 65 3c b6 8d d1 3e 22 82 2f 3e 2f 43 70 3e
       0.013984565 0.4092843 0.17139485 0.23463129
0000c0 c6 56 df 3d 9c ab 5a 3d 9e 3f 87 3e 99 66 a7 3e
       0.109052226 0.053386316 0.26415724 0.32695463
0000d0 d8 68 94 be fe f9 f7 be f4 6f 17 3d 2c ef 1b be
       -0.2898624 -0.48432916 0.036972 -0.15227956
0000e0 1d 9a 99 3b b0 cf c0 bb 3d 02 c8 3e 31 d8 98 be
       0.004687561 -0.0058841333 0.39064208 -0.2985244
0000f0 c0 92 3f bf f8 9d ca be 8f 39 2e 3c c7 53 cb bd
       -0.748333 -0.39573646 0.01063384 -0.09928089

layers.2.b_net.2.bias f4 [8]
000000 bb 35 8b be e8 e6 23 bd 67 da a7 3c c8 8e 13 bd
       -0.2718943 -0.04001513 0.020489885 -0.03602484
000010 58 7f 1d bd c0 97 18 be 70 3a f1 be bf 2b 39 3e
       -0.038451523 -0.14901638 -0.47114897 0.18083094

layers.2.b_net.4.weight f4 [8, 8]
000000 21 85 7a be 0f 14 5f 3e 1a bc 9a 3d 16 96 aa 3d
       -0.24464847 0.21784995 0.07555409 0.08329408
000010 9c dc 15 bf b6 04 91 3e 72 a9 b1 be d5 b8 09 bf
       -0.5853975 0.28323907 -0.3469959 -0.53797656
000020 bf d7 85 3d 7f 3e 67 bd d2 bc e6 be 62 b7 54 bd
       0.06535291 -0.056456085 -0.45065933 -0.0519327
000030 2b 17 fc 3d ac 33 c8 3d 23 e2 18 be 05 98 83 be
       0.123091064 0.09775481 -0.14930014 -0.2570192
000040 46 be 62 be 64 6b d2 be 85 71 d4 be 6a b0 73 3e
       -0.22142896 -0.41097558 -0.4149286 0.23797765
000050 06 75 e4 be 18 c4 c5 be 0c e4 8b 3e 70 4f 0d 3e
       -0.44620532 -0.3862617 0.27322423 0.13799834
000060 74 76 cd 3d ae d1 98 3e 24 5b 4a be ac a0 82 3e
       0.10032359 0.29847473 -0.1976133 0.25513208
000070 2b 42 c6 3e cf f4 c4 3e 4d aa 4c be 98 5c a4 3e
       0.38722357 0.38468024 -0.1998684 0.32101893
000080 48 07 ec be 30 17 dc be a7 ff 02 bf 64 2e 42 be
       -0.46099305 -0.4298644 -0.51171345 -0.18963009
000090 20 1a b9 3c f6 48 61 be fa 6b ce 3e 32 50 5d 3e
       0.022595465 -0.22000489 0.40316755 0.21612623
0000a0 2c 74 87 3e 6a 63 42 3d 87 f9 5d bd 43 39 da be
       0.2645582 0.04745809 -0.054193046 -0.42621812
0000b0 54 93 d1 be a4 e7 cc be f8 9a c2 3e 97 89 80 bd
       -0.40932715 -0.40020478 0.38008857 -0.06276243
0000c0 ab c0 cb 3d 15 17 f3 bc 6b 8a 34 3e df 56 e0 be
       0.09948858 -0.029674092 0.17630927 -0.43816277
0000d0 37 0f 4e be 3f cc 9f 3e cf 23 28 3e 90 0b cc 3e
       -0.20122992 0.31210515 0.1641991 0.3985257
0000e0 73 6c 8b be aa 51 94 be 80 ee 04 3e 9b ff 35 be
       -0.27231178 -0.28968555 0.12981606 -0.17773287
0000f0 06 b9 b7 be 86 f5 34 be bd f3 05 be fd ed 8a 3e
       -0.3588335 -0.17671785 -0.1308126 0.27134696

layers.2.b_net.4.bias f4 [8]
000000 32 d6 07 3e a6 e7 15 be e4 e6 04 be a8 3f a3 3e
       0.13265303 -0.14639148 -0.12978703 0.31884503
000010 68 a9 36 bf bb ed ce be fe be 99 be 28 50 c4 be
       -0.71352243 -0.4041575 -0.30028528 -0.38342404

layers.2.b_net.6.weight f4 [8, 8]
000000 cf f4 6f 3d 29 79 a8 3e e0 30 7f 3d 54 e4 2f 3e
       0.058583077 0.32904938 0.06230247 0.17176944
000010 ab 81 f9 3e 35 be 5d 3e d9 99 ea bd 17 66 16 be
       0.4873174 0.2165459 -0.11455125 -0.14687382
000020 42 52 91 bd 84 23 de bd b0 56 e9 3d bf 8b 3b bf
       -0.070957676 -0.10846618 0.113934875 -0.7326011
000030 58 f2 4a 3e 55 8f bf 3e 9d 20 ac be fa bf 09 bd
       0.1981901 0.3741404 -0.33618632 -0.03363035
000040 c2 6f e0 3d 07 ab c4 3e d3 bd f0 3e 99 2d 2a bd
       0.10958816 0.38411734 0.47019824 -0.04154739
000050 75 b7 05 3f c9 94 9d 3e 4a 6f a6 3c 35 4b 28 3d
       0.5223306 0.30777577 0.020316739 0.041087348
000060 51 43 19 bf 39 05 7e bd c1 f5 9c be c5 b6 cb 3e
       -0.5986834 -0.0620167 -0.30656245 0.3978788
000070 01 63 91 bd e8 c0 97 bc 22 68 18 be 52 46 95 be
       -0.070989616 -0.018524602 -0.14883474 -0.29155213
000080 e6 94 94 3e 57 38 70 3b cc 81 10 3e af 7c b3 bc
       0.2901985 0.0036654675 0.14112014 -0.02191004
000090 f7 1b 31 3e ae cc 8d 3e 0b be aa 3e 7d 6b 25 3e
       0.17295824 0.2769522 0.33348116 0.16154285
0000a0 58 eb a1 bd 1f e3 2a 3e 65 a2 79 3e 50 4d a1 3c
       -0.079062164 0.16688202 0.24378355 0.019690186
0000b0 d5 86 f9 bc 96 77 bd 3b e9 38 32 be 0a ee 87 3e
       -0.0304598 0.005782078 -0.17404522 0.26548797
0000c0 af 0b 98 bd 96 13 82 3c 84 f2 fc 3c 84 0a ac bc
       -0.074241035 0.01587848 0.03087736 -0.021001108
0000d0 d0 c3 09 3f 9d 3a 0f 3f 16 67 e1 3e 25 3a 09 3f
       0.5381441 0.5594881 0.4402396 0.53604347
0000e0 dc ff a5 be 86 02 c0 bc 35 0e 81 3e 55 d7 a2 be
       -0.32421768 -0.023438703 0.25206152 -0.3180491
0000f0 58 7d 6b 3e 03 1b 46 3e 3e 44 e8 bd fa 8f d2 3e
       0.22997034 0.19346242 -0.11341141 0.4112547

layers.2.b_net.6.bias f4 [8]
000000 61 ae 34 3d cf 83 3b 3d cd 42 79 bc d2 f6 9e be
       0.044111613 0.04578 -0.01521368 -0.31047684
000010 27 9e a7 bd 11 ed 50 bd 6e b5 e0 3c 1b bc 80 be
       -0.08184462 -0.051007334 0.027430262 -0.25143513

layers.2.b_net.8.weight f4 [1, 8]
000000 ea dd 8d bc 4e 29 68 3d 0f ef b4 3a ba 76 27 be
       -0.017317731 0.056680016 0.0013804155 -0.16353884
000010 62 1a aa ba 88 bf a0 3c a9 b0 c0 3a 34 41 b1 be
       -0.0012977833 0.01962258 0.0014701086 -0.3462006

layers.4.log_s_net.0.weight f4 [8, 1]
000000 f1 eb 21 3d 8c 19 b1 3e 2b 81 25 bf d5 9d 06 3f
       0.039531652 0.34589803 -0.6465022 0.5258458
000010 20 4c 94 3f a7 4c a2 3f 37 43 37 bf 33 c7 16 3a
       1.1585732 1.2679642 -0.71586937 0.0005751729

layers.4.log_s_net.0.bias f4 [8]
000000 99 55 1a be c4 c5 4b 3e ce 32 2a bf d2 c5 95 be
       -0.15071715 0.1989966 -0.6648377 -0.29252487
000010 59 fb 3a bf 98 88 bc 3d 02 5e a8 be e6 3f 7f bb
       -0.73039776 0.09205741 -0.32884222 -0.0038947999

layers.4.log_s_net.2.weight f4 [8, 8]
000000 66 84 95 3e d1 fe 08 be f3 eb 6a be fc b7 aa be
       0.29202574 -0.13378455 -0.2294157 -0.33343494
000010 74 76 1c be 0e 4a 0f be 82 24 69 bd 86 f5 8b be
       -0.15279561 -0.13993093 -0.056919582 -0.27335757
000020 e4 97 27 be 44 8b 3a 3d b8 1e 5f 3e 21 11 59 bd
       -0.16366535 0.04554297 0.21789062 -0.05299485
000030 32 fd 80 be 99 d1 84 3e 24 8c 87 3e ef b6 47 3e
       -0.25193173 0.2594116 0.26474106 0.19503377
000040 d3 f9 1c be 99 3f 96 3e 7b 73 fd 3a a1 c8 81 3c
       -0.15329675 0.29345396 0.0019336784 0.015842738
000050 06 93 48 be fc b9 c4 3e 96 64 45 be b2 22 9c be
       -0.19587335 0.38423145 -0.19276652 -0.3049522
000060 9f 6d d3 3d 3e 01 73 be 33 3b 24 3f 9d 29 c1 3d
       0.10323643 -0.23730943 0.6415283 0.09431765
000070 78 f3 ad 3e 2e a9 82 be f6 f6 be 3e 21 84 b1 3d
       0.33974814 -0.255197 0.3729779 0.0866778
000080 d0 b8 19 bd 49 d5 b3 be ac 3f 2e be ff 4c 17 bf
       -0.037529767 -0.3512366 -0.17016476 -0.5910186
000090 0a f9 77 be 9a d6 34 bf 78 45 7a be 5b 2e 30 3e
       -0.24216095 -0.70639956 -0.24440563 0.17205183
0000a0 fa 81 eb 3d 08 91 8c bd 14 86 11 bf 39 72 1a bf
       0.114994004 -0.068636 -0.5684521 -0.6033054
0000b0 3a 3e 2c bf d6 3d 0d 3f 98 d8 5e 3e ca 16 05 3d
       -0.6728245 0.5517248 0.21762311 0.032492436
0000c0 95 8b 01 3e 63 10 a9 3e 2b 6d 99 3e 35 71 f8 bd
       0.12650903 0.33020315 0.299661 -0.121309675
0000d0 49 3a f7 3d b6 70 b6 bd c8 5a 91 3e b0 27 86 3e
       0.12071664 -0.08908217 0.28389573 0.26202154
0000e0 e5 56 12 3e 3d 93 bb be 6b 80 6c be c0 3c da be
       0.1429096 -0.3663577 -0.23095863 -0.42624474
0000f0 5f c8 f4 3d 68 5f a9 be 8e dd d4 3c 8b 22 91 bd
       0.1195228 -0.33080602 0.025984552 -0.07086667

layers.4.log_s_net.2.bias f4 [8]
000000 f0 85 78 be 9f a1 29 be fa b1 a5 be 55 6b a1 bc
       -0.24269843 -0.1656556 -0.32362348 -0.0197045
000010 48 0f 8c 3e 63 5f 40 bd 25 4f d7 3d 2e b6 7d bd
       0.2735541 -0.046965968 0.105131425 -0.06194132

layers.4.log_s_net.4.weight f4 [8, 8]
000000 a8 b8 8f 3e 22 2c c1 3e 21 c5 99 3e 8a 2d 60 bd
       0.2807057 0.37728983 0.3003321 -0.05473093
000010 0d ba 04 3f d1 11 96 3f af bd 32 be 11 ac 51 3e
       0.5184639 1.1724187 -0.17455171 0.20475794
000020 c5 04 52 be 03 24 40 be e2 36 40 3e 04 fb 03 3c
       -0.20509632 -0.18763737 0.18770936 0.008055452
000030 e7 85 3d 3e 87 37 82 bf 71 e9 8d be 97 c2 82 3e
       0.18508111 -1.0173196 -0.27717164 0.25539085
000040 2a 8e b9 be 64 ab 45 3c 9d b3 dc 3c 16 38 1e 3f
       -0.36241275 0.0120647885 0.026941115 0.6180433
000050 b3 74 11 bf d8 69 0f bf ca 93 81 3d 58 d9 a5 bd
       -0.56818694 -0.5602088 0.06327017 -0.08098096
000060 bb fd a5 be c0 a1 dd be 1d 60 92 3d ca 8e 98 3c
       -0.32420143 -0.43287468 0.071472384 0.018622775
000070 e5 c3 a9 3e b5 ef a9 be 97 95 16 bd c4 7d 41 3e
       0.33157268 -0.33190694 -0.036763754 0.18895632
000080 88 37 7a bd 7a 44 5b 3e f2 8e 31 3e 72 5a f6 3e
       -0.061088115 0.2141284 0.17339686 0.4811588
000090 5b 1a 50 be 7f 2d 30 be 11 94 35 3e ad 72 65 3e
       -0.20322554 -0.17204855 0.17732264 0.22407027
0000a0 bb 3c c2 3d c5 90 82 3e 3a 77 98 3e a4 85 d0 be
       0.0948424 0.25501075 0.29778463 -0.4072696
0000b0 a5 63 74 3f 09 93 6e be 46 46 74 be ae 4f 49 3b
       0.95464545 -0.23298277 -0.23854932 0.0030717659
0000c0 dd 0b a5 3e aa 3f d2 be f5 53 3c be 21 b2 e7 be
       0.32235613 -0.41064197 -0.18391402 -0.4525309
0000d0 87 3c 17 3f 1a 7f 49 be 6d 9b 25 3e bd 05 df 3e
       0.5907673 -0.19677392 0.16172571 0.43559065
0000e0 b8 26 0f 3c d3 18 07 3f 10 42 e3 3d bb 86 17 be
       0.008737259 0.52772254 0.11096585 -0.1479749
0000f0 fd 79 3e 3e 41 16 70 3f 1a 77 31 be 0c 8e 6b be
       0.18601222 0.93783957 -0.1733059 -0.23003405

layers.4.log_s_net.4.bias f4 [8]
000000 98 71 5d be 2a e2 ba bd f0 95 3b 3e d0 25 8f bd
       -0.21625364 -0.091251686 0.18318915 -0.06989634
000010 db 54 82 3e d8 42 0f bd ad 9c 1d 3d 8a 68 1e be
       0.25455365 -0.034975857 0.038479496 -0.15469566

layers.4.log_s_net.6.weight f4 [8, 8]
000000 55 24 24 3f 16 da 09 bf 5a 92 79 be 60 e8 97 3d
       0.6411794 -0.538484 -0.24372235 0.07417369
000010 cd 3c eb 3a 7d 33 e3 be 0b 2a 53 3d f2 9d 33 3f
       0.0017947197 -0.4437522 0.051553767 0.7016288
000020 6d 01 fb be 71 a3 bb 3c 8c 40 8b 3e a1 a1 15 3e
       -0.49024525 0.022905083 0.27197683 0.14612438
000030 7b cb a3 3d fb 24 ee 3d ab b1 03 bf 2d cc c4 be
       0.07997795 0.11628147 -0.51442975 -0.38437024
000040 d1 54 db 3e 7c a7 e4 bc 68 8c 4a be de f1 1e 3e
       0.42838147 -0.027911894 -0.19780123 0.15521953
000050 4a 73 43 3e cc e1 42 3e 15 22 a1 3e 33 d0 90 3e
       0.19086948 0.19031447 0.31471315 0.28283843
000060 f9 2b 3f 3f 8c 9f f2 be 55 74 02 bf 8b dd 4b be
       0.7467647 -0.4738735 -0.5095876 -0.1990873
000070 5a 00 f8 bd 53 94 0d bf eb f3 02 3d c6 35 27 3f
       -0.12109442 -0.5530445 0.0319709 0.65316427
000080 2d d8 64 3e 5b ce 95 be 94 40 cf 3d 72 0b 6c 3e
       0.2234809 -0.29259 0.10119739 0.23051241
000090 bb 22 59 be fc bc 59 3e 10 a8 d7 bd de a7 4b bd
       -0.21204655 0.21263498 -0.10530102 -0.049720638
0000a0 0b 4f 54 bf a4 12 94 be 10 01 13 3e 42 75 b2 be
       -0.8293311 -0.28920472 0.14355874 -0.34855086
0000b0 d1 2b 91 3e 8d 7b bd be 7b 93 f0 bd d0 85 eb bd
       0.28353742 -0.37008324 -0.1174688 -0.11500132
0000c0 04 92 2a bf 78 cd b6 3d 8f 2f 92 3e 5d 13 89 bd
       -0.6662905 0.08925909 0.2855191 -0.066931464
0000d0 3e 02 79 bd 89 cc 43 3e 19 57 f8 be c0 a6 06 be
       -0.060793154 0.19120993 -0.4850395 -0.13149548
0000e0 f8 b7 2a bf 34 e1 85 bd 3c a1 31 be 82 3c b4 be
       -0.66686964 -0.06537095 -0.17346662 -0.35202414
0000f0 29 14 60 3e 57 24 36 3d 87 90 63 be 86 60 f6 3d
       0.2188269 0.04446825 -0.22223102 0.12030129

layers.4.log_s_net.6.bias f4 [8]
000000 bf 61 09 bc 0b e2 33 3e 12 28 70 3e ae 37 ef bc
       -0.008385121 0.17566697 0.23452786 -0.029201355
000010 75 ca 45 be 08 72 19 3e a7 55 4c 3e bf b2 ca bd
       -0.19315512 0.14984906 0.19954549 -0.09897374

layers.4.log_s_net.8.weight f4 [1, 8]
000000 da b5 f7 3e 7a ee 46 be 76 3a 86 3d 32 04 34 3f
       0.4838093 -0.19426909 0.06554119 0.703189
000010 3f 91 f6 3d 69 93 b3 be ab 0f 36 be 52 ce 97 be
       0.12039422 -0.35073403 -0.17779414 -0.29649597

layers.4.b_net.0.weight f4 [8, 1]
000000 69 af 0f 3f 3a 71 ad bd 47 88 54 3e e6 09 be 3d
       0.5612703 -0.08468862 0.2075511 0.09279232
000010 e3 0a 13 bf 7d 8c 65 3f 45 48 ef be 1c 3f ce 3e
       -0.57438487 0.89667493 -0.46734825 0.40282524

layers.4.b_net.0.bias f4 [8]
000000 a2 fb 32 be 8f dc 4b 3f 46 1b 38 3f 50 76 b6 be
       -0.17478803 0.7963342 0.71916616 -0.3563714
000010 42 8c 7c 3f 8f d6 d6 3d 2a a7 0a bf 32 6c a1 bf
       0.98651516 0.104901426 -0.5416132 -1.2611144

layers.4.b_net.2.weight f4 [8, 8]
000000 9c 66 c3 be 9f 38 93 bd 53 4a 90 3e 43 29 97 be
       -0.38164222 -0.07188534 0.28181705 -0.29523668
000010 88 73 1e be 13 cb 37 3e c6 8f 53 3e 71 08 04 3e
       -0.15473759 0.1794856 0.20660314 0.12893845
000020 6a 53 07 bf 18 58 b2 3e d8 de f2 bc 72 ad 4e 3e
       -0.52861655 0.34832835 -0.029647276 0.20183352
000030 26 71 ca 3e 9a 73 0f be 1e 37 69 3e 83 54 4b bd
       0.3953945 -0.14008942 0.22774932 -0.049641144
000040 de a2 89 be 72 40 20 be 7c c2 26 3e 36 4d 36 be
       -0.2688207 -0.15649584 0.16285127 -0.17802891
000050 d8 3a 16 3e cb 31 b6 be a9 cf e2 be 58 ca 82 3e
       0.14670885 -0.35584864 -0.44299057 0.25545
000060 46 c0 5b bf f5 0f 06 3e 41 4a 55 bd 41 d3 4a 3e
       -0.8584026 0.13092025 -0.052072767 0.1980715
000070 6f 6f 70 3e a2 97 25 bf d4 5c a2 3e b2 30 fe 3d
       0.23480009 -0.646845 0.31711447 0.12411632
000080 de 8c 82 3e ed b5 ed bd d1 3a aa be 7b 63 0a be
       0.25498098 -0.11606965 -0.33247998 -0.13514511
000090 eb 39 30 3e 33 32 7a 3e 5d 48 0a 3e 8c 18 e7 bc
       0.17209594 0.24433212 0.13504167 -0.028209947
0000a0 0e 18 44 3e f5 0d 25 3e 62 04 b3 3d e5 ec a0 be
       0.19149801 0.16118605 0.0874107 -0.31430736
0000b0 69 b5 a5 be e5 1a ae 3e 36 52 a0 be b0 36 9d bc
       -0.32364967 0.34004894 -0.31312722 -0.019191116
0000c0 09 9a c5 be 99 8e a2 3e ef 71 22 3e b1 0c 3f 3e
       -0.38594082 0.31749418 0.15863775 0.18657185
0000d0 f2 51 f9 bd 28 86 48 3d 3d 53 dc 3d c8 51 95 3e
       -0.12173833 0.048956066 0.10758064 0.29163957
0000e0 1b 8f ed 3e c3 a7 22 be c7 97 c0 3d a8 e2 51 3e
       0.46398243 -0.15884309 0.09403949 0.20496619
0000f0 da 1a d2 bf 90 ef a8 3e 66 4a 2c 3e 03 60 6c bd
       -1.6414444 0.32995272 0.16825256 -0.05770875

layers.4.b_net.2.bias f4 [8]
000000 76 7e a4 be 93 aa c5 bd d1 97 3f bd a6 e0 a6 3e
       -0.32127732 -0.09651675 -0.046775643 0.32593268
000010 54 62 39 3e 71 84 83 3c 37 03 0b 3e 0e a6 a0 be
       0.18103915 0.016054364 0.13575445 -0.3137669

layers.4.b_net.4.weight f4 [8, 8]
000000 3c 15 39 bd bd dd 29 be d6 57 57 be e1 9c c5 bd
       -0.045186266 -0.16588493 -0.210296 -0.09649063
000010 70 8a 86 3e 68 bb 8a bd 09 52 c2 3e e1 db 6c bf
       0.26277494 -0.06774026 0.37953213 -0.9252301
000020 63 c4 63 be 4a 15 db be c6 0a b8 be 95 63 98 3e
       -0.22242884 -0.4278968 -0.3594572 0.29763475
000030 b9 62 86 3e b0 07 2a 3d b0 f4 8e bd d0 46 e9 3e
       0.26247194 0.041511238 -0.06980264 0.45561838
000040 1c 7d 93 be 57 86 4b 3f d8 ea 0b be 2a 8c 1a c0
       -0.28806388 0.7950186 -0.13663805 -2.414805
000050 f1 42 9a bd 2e be ad 3e b2 f6 eb bd 8b 55 a1 be
       -0.07532299 0.33934158 -0.11521663 -0.31510577
000060 5f aa 03 3e fc a6 4c 3d ce d9 14 be ac 34 d6 bd
       0.1285796 0.049963936 -0.14536211 -0.10459265
000070 ca e1 92 3e 97 25 9e 3e 58 3b a4 3e 3c c6 2d 3f
       0.28687888 0.30888054 0.32076526 0.67880607
000080 64 d4 69 be 7f 9b 2b 3d 59 ea 83 3e a4 a5 2a 3d
       -0.22834927 0.04189634 0.2576473 0.041661873
000090 b7 22 73 3d 66 b5 65 be 96 8f 31 3e 84 72 00 bf
       0.05935928 -0.2243248 0.1733993 -0.50174737
0000a0 c7 1a 09 bd f0 41 3d be 7b 8d e5 bc 4b 8d a1 3d
       -0.033472802 -0.18482184 -0.028021565 0.078882776
0000b0 07 38 77 be 61 5e 72 be dc 12 41 bd c9 1b 29 bf
       -0.24142466 -0.23668815 -0.047137126 -0.6605802
0000c0 ba 9a 85 be 70 32 35 3c cc d9 11 be fd 22 e6 3e
       -0.2609461 0.0110593885 -0.14243239 0.4494857
0000d0 96 21 ae be 89 25 10 3e 17 d0 15 3e 0d f1 0d 3f
       -0.3401 0.14076819 0.14630161 0.5544594
0000e0 ac 28 8c bd 7a 34 71 3d 24 0b 02 bd ca 32 1d bf
       -0.06843695 0.058887936 -0.031748906 -0.6140562
0000f0 d5 f3 34 3e d5 53 b4 be 8c 4b fb 3c 5d 5e 15 bf
       0.1767114 -0.3522021 0.030675672 -0.5834711

layers.4.b_net.4.bias f4 [8]
000000 b7 63 95 3e c0 b7 58 3d fa 7e 4c 3e 48 48 84 bc
       0.2917764 0.052909613 0.19970313 -0.016147748
000010 3a 4a a7 be e4 7b 9c be 1f 44 5c bd 8d 2a bd 3d
       -0.32673818 -0.3056327 -0.053775903 0.092366315

layers.4.b_net.6.weight f4 [8, 8]
000000 74 c6 ad 3d d9 d3 5a be 10 c4 fc 3e cd 15 bf 3d
       0.084851176 -0.21369876 0.49368334 0.0933033
000010 48 d0 8a 3b b8 26 36 3e f5 87 eb be 60 00 d6 3e
       0.004236255 0.17788208 -0.46002164 0.4179716
000020 34 14 de 3e 21 c7 3d 3c 72 b2 01 3e ce 61 5a be
       0.4337479 0.011583121 0.12665728 -0.21326372
000030 a0 24 55 be 9d 41 88 be 0a 96 b9 be e7 8a 82 3e
       -0.20814753 -0.2661256 -0.36247283 0.254966
000040 ab 63 35 3e b3 a7 93 3e 8b 11 10 3f b8 5f 91 be
       0.17713802 0.28838882 0.5627677 -0.2839334
000050 b3 d3 b2 3d 36 34 14 3e d4 f2 37 3e e7 0d 85 3e
       0.08731785 0.14473042 0.17963725 0.2598717
000060 f9 f5 a4 be f7 14 a0 3e e4 55 08 bf 5e 82 d3 bd
       -0.32218912 0.31265995 -0.5325606 -0.103276
000070 d8 4e e0 3b b7 86 28 be b7 76 66 bd d6 fd e1 be
       0.0068453364 -0.1645764 -0.05626556 -0.44138974
000080 5a 51 ad be 67 84 a7 3e 52 6a 54 be bc 6d 53 3e
       -0.3385113 0.32718202 -0.20743683 0.20647329
000090 70 b8 41 be eb 4e 8c be c3 c0 90 3e df 27 f6 bd
       -0.18918014 -0.2740396 0.28272066 -0.120193236
0000a0 24 19 e0 bf 35 76 b9 3e 5d 68 3a 3e 3c 09 e6 3e
       -1.7507672 0.36222997 0.18203874 0.4492892
0000b0 a0 b8 67 be 3d 8b b4 be 80 ed 3b 3e a9 6d ce be
       -0.22629023 -0.3526248 0.18352318 -0.4031804
0000c0 7d 2c a5 bc 01 90 96 3e 2a a1 57 be d5 a4 47 be
       -0.020162815 0.2940674 -0.21057573 -0.19496472
0000d0 bd 62 34 be 89 3e e2 bc ec 4a 83 3d 80 45 e6 3d
       -0.1761579 -0.02761771 0.064107746 0.11243725
0000e0 14 fb bc ba 13 bc 47 3e 33 39 62 be b6 3d 4d 3e
       -0.0014418089 0.19505338 -0.22092132 0.20043072
0000f0 67 c6 86 3e fb 03 8f bd 18 c6 ec bc 60 92 f7 bc
       0.26323244 -0.06983181 -0.028903052 -0.030221164

layers.4.b_net.6.bias f4 [8]
000000 0a 51 a4 bc 55 ea 93 be 73 27 9f 3a 3f b6 78 bc
       -0.020058174 -0.2888972 0.0012142494 -0.01518017
000010 ed 3a 3a 3e 1f b0 50 be e7 d1 d4 bc 89 bf 11 3e
       0.18186541 -0.20379685 -0.025978995 0.14233221

layers.4.b_net.8.weight f4 [1, 8]
000000 e6 74 de 3e fb 5b 8b 3e 36 7b 6e 3e 7d 9b a2 be
       0.4344856 0.27218613 0.23289189 -0.31759253
000010 37 82 92 be 45 ff 1c bf b5 03 15 3c 5f 71 0b be
       -0.2861497 -0.6132701 0.009095122 -0.13617466

layers.6.log_s_net.0.weight f4 [8, 1]
000000 20 80 63 bd 5b e2 11 3f e3 e3 bc 3e 30 cb 47 bf
       -0.05554211 0.56986016 0.36892614 -0.78044415
000010 fe 8e 74 3e ac d2 3f be ef ed df be 23 15 93 bf
       0.23882672 -0.18732709 -0.43736216 -1.1490825

layers.6.log_s_net.0.bias f4 [8]
000000 ec b0 86 be 48 9d 79 3f cd c8 3b 3e a8 17 10 3f
       -0.26306856 0.9750562 0.18338318 0.56286097
000010 24 6f b7 3e d9 d1 04 3f b4 81 57 bf 24 7e b5 be
       0.3582698 0.518827 -0.84182286 -0.354478

layers.6.log_s_net.2.weight f4 [8, 8]
000000 ee 94 9f 3d db 47 01 bf 03 f4 a2 be e4 b0 d0 3e
       0.07792078 -0.5050027 -0.3182679 0.40759957
000010 dd 8a 1b bf 53 65 91 3e 2a 80 d4 bd 33 46 82 3e
       -0.60758764 0.28397617 -0.10376008 0.25444183
000020 cf 9f f5 3d a3 20 47 be 21 0a c5 be bd a5 16 3e
       0.11993372 -0.19446044 -0.3848429 0.14711662
000030 62 ad b1 be c1 65 bc bd 3a cc 89 3e dd de 27 3e
       -0.34702593 -0.091990955 0.26913625 0.1639361
000040 9d e7 c3 3e 1e 76 be bd dd 79 af be b2 2e 82 be
       0.38262644 -0.09299873 -0.34272662 -0.2542625
000050 2a 4f 1f be 92 df 3a 3d 1e cc 89 be 67 94 38 3e
       -0.15557542 0.04562337 -0.26913542 0.18025361
000060 8a ae e4 bd cb 86 48 be b9 0c 79 bf f1 55 8b 3e
       -0.11166103 -0.1958267 -0.9728504 0.27214006
000070 98 23 a6 be 7b 79 9a 3d 34 d2 7c 3e 40 d3 9f 3e
       -0.3244903 0.07542702 0.24689561 0.31215858
000080 37 06 6e 3d 26 39 15 3e fe f5 49 3f b3 79 45 be
       0.058111396 0.14572582 0.7889098 -0.19284706
000090 8d 17 2b be 60 0c 7e bd 36 b9 53 3e 57 49 1b bf
       -0.16708203 -0.06202352 0.20676121 -0.6065878
0000a0 aa dd 06 be cf 83 26 3e 4d 3f 50 3e e4 a6 8e be
       -0.13170496 0.16261218 0.20336647 -0.27861702
0000b0 1e 2c d1 be 70 30 32 3e f3 87 86 be 5a 35 7e 3e
       -0.4085397 0.1740129 -0.26275596 0.2482504
0000c0 5d e8 dd be e3 99 28 3f 78 56 d8 be c6 bd 9b bd
       -0.43341342 0.6585981 -0.4225347 -0.07604556
0000d0 d0 87 ac 3d 3b fe a6 3e 87 81 4e be 97 ba b6 be
       0.08424342 0.32615837 -0.20166598 -0.35689232
0000e0 88 48 a9 3d 59 8a 0a bf 8f 1a 89 3c 0d 23 f0 3d
       0.08265787 -0.5411735 0.016736297 0.117254354
0000f0 b4 e9 66 be a7 f7 10 3e 49 ed f7 3d 73 17 fa 3e
       -0.22550088 0.14156972 0.121058054 0.48846015

layers.6.log_s_net.2.bias f4 [8]
000000 00 75 9c be 15 74 3a be 7c 9f a5 3d 5b 40 84 3d
       -0.30558014 -0.18208344 0.0808706 0.06457587
000010 60 03 85 3e a1 d8 46 bd d0 c3 e3 3e 1e 4a d1 bd
       0.25979137 -0.048546437 0.4448533 -0.10219215

layers.6.log_s_net.4.weight f4 [8, 8]
000000 8d b1 e5 3e 76 a4 80 3e b4 07 15 3c b6 a6 f7 3c
       0.44862023 0.25125474 0.009096075 0.030230861
000010 5b 65 b4 bd 8d f2 0c be 51 9f f5 bc 7f 55 52 3e
       -0.088083945 -0.13764401 -0.029983195 0.20540427
000020 bf 42 04 bf 1f 2b da be fa 69 b9 3c 80 58 f1 be
       -0.51664346 -0.42611024 0.022633541 -0.47137833
000030 ed 0e 1b 3e 05 87 18 bc 90 90 16 be cc 38 d1 39
       0.15142412 -0.009309535 -0.14703584 0.00039905903
000040 9f 65 07 be 9f a0 48 bf 22 48 a0 bd a7 48 ca be
       -0.13222359 -0.7837009 -0.07826258 -0.39508554
000050 ca d0 92 3e 18 ee 84 3e fe a4 74 3e 92 7f 19 3e
       0.28674918 0.259629 0.23891065 0.1499007
000060 bd a3 ea be a7 35 28 bf 39 11 47 3d f6 72 bc 3c
       -0.45828047 -0.65706867 0.04860041 0.023004036
000070 4b 81 cf 3e a6 bd 14 be 92 20 97 3e 12 dd c8 bd
       0.4052833 -0.1452547 0.29517037 -0.09807791
000080 5a 54 d1 be c7 6f 26 3d ea 69 ea 3d 9c bb ab 3e
       -0.40884668 0.040633943 0.11445983 0.33541572
000090 dd a7 ae be e8 73 16 3d 98 e2 00 3d e1 f6 07 be
       -0.34112445 0.03673163 0.031466097 -0.1327777
0000a0 42 52 2c 3f 61 2b 38 3e 9d 95 b9 3c 2b 07 73 3e
       0.67313015 0.17985298 0.022654349 0.23733203
0000b0 a5 03 b3 3d f7 0f 64 bd 2f 1b 4d bf d6 0a df 3e
       0.087409295 -0.055679288 -0.80119604 0.43562955
0000c0 65 6c 0b 3f 43 f1 87 bc 2d 21 bc 3e a6 b8 9a 3d
       0.5446227 -0.016594535 0.3674406 0.0755475
0000d0 8e 4e b4 bb a3 6b a6 3e 73 9d 1b bf b4 a4 1e 3f
       -0.0055025285 0.32503995 -0.60787123 0.6197007
0000e0 50 45 d8 be 70 c5 8d 3d f0 db 93 bb 39 aa 26 3e
       -0.4224038 0.06922424 -0.0045123026 0.16275872
0000f0 96 85 86 be 2c c8 46 bd 45 20 2b 3e 58 7b 98 bd
       -0.26273793 -0.048530743 0.16711529 -0.07445401

layers.6.log_s_net.4.bias f4 [8]
000000 03 4b 89 3c 03 d8 47 be e4 51 6e 3e 8d 5c 45 3e
       0.016759401 -0.19515996 0.23273426 0.19273587
000010 59 87 83 bd 87 cb 7c 3c 3b db 08 be 9e c2 17 3e
       -0.064223 0.015429384 -0.1336488 0.14820334

layers.6.log_s_net.6.weight f4 [8, 8]
000000 72 4a 2c 3e e5 81 e4 be 81 c5 d3 be 8f 7c a0 be
       0.16825274 -0.44630352 -0.4136162 -0.3134503
000010 b7 76 4c 3f ff e2 00 bf 99 70 70 3d 7b d6 d6 3d
       0.79868644 -0.5034637 0.05870113 0.10490128
000020 d2 2a c2 3e 53 2f 09 bf d6 0f 65 bd c1 4b a6 3d
       0.37923294 -0.53587836 -0.055923305 0.08119918
000030 72 1c f0 bd 22 ae 13 3f f1 ee 08 3f 0f 6b c2 bd
       -0.117241755 0.5768758 0.53489596 -0.09493076
000040 91 0e 1e bb d6 9f db bd 37 bf 9a bd 6d 2a 71 be
       -0.002411757 -0.10723846 -0.075560026 -0.2355134
000050 a6 e9 14 be b9 a8 ce be c4 1f 0d bf 0e 5c c4 be
       -0.14542255 -0.403631 -0.55126595 -0.38351482
000060 ea fb b1 3e 56 cf 7b be 9b 89 aa be 09 fd 08 be
       0.34762508 -0.24590811 -0.3330811 -0.13377775
000070 1e 9b ee bd ae ac 2f 3f 9e f0 9a 3e a9 f8 1a be
       -0.1165068 0.68622863 0.302617 -0.15133919
000080 5e c8 d5 3d e6 9b 38 be 80 4a c5 be 94 b6 f3 be
       0.10438608 -0.1802822 -0.385334 -0.47600234
000090 49 be 02 3e 55 47 81 be 51 1f 3d bc df ca 68 3e
       0.127679 -0.25249735 -0.011543111 0.22733639
0000a0 56 91 e8 3d bf 9d 82 be d0 ce 42 3e e0 a3 8e be
       0.11355846 -0.25510976 0.19024205 -0.27859402
0000b0 57 b7 1e be d7 12 51 3e 44 5c b2 3d 35 5e 40 be
       -0.15499626 0.20417343 0.087090045 -0.18785937
0000c0 bf 35 dc be 7a e7 6d be b4 47 03 3e ae 88 b3 bd
       -0.43009755 -0.23232833 0.12820321 -0.08766304
0000d0 a5 df 85 3c 37 6a 1f be 35 26 46 be c2 16 85 be
       0.016341994 -0.15567861 -0.19350512 -0.25993925
0000e0 35 0f 19 3e ed 71 db ba bb 73 40 3d 3a 0c a9 3d
       0.14947207 -0.0016742327 0.04698537 0.08254285
0000f0 f2 e6 04 bd 0c 52 e7 3e 50 34 04 3f 60 04 81 be
       -0.03244681 0.45179784 0.5164232 -0.2519865

layers.6.log_s_net.6.bias f4 [8]
000000 87 f1 c2 3e 81 62 e9 3d d1 fd 81 3d 2a 24 6d 3e
       0.38074896 0.11395741 0.0634724 0.23158327
000010 df d7 48 3e c2 97 73 3e a4 37 84 be b5 f7 ff bd
       0.19613598 0.2378836 -0.258237 -0.12498418

layers.6.log_s_net.8.weight f4 [1, 8]
000000 9a 41 18 3f 89 69 09 bf 86 c2 a0 3e 0e 7f 77 be
       0.594751 -0.5367666 0.3139841 -0.24169561
000010 94 f7 9f 3e 09 85 53 be 40 9f d4 3d 8f d0 8d be
       0.31243575 -0.20656218 0.10381937 -0.2769818

layers.6.b_net.0.weight f4 [8, 1]
000000 c6 ee f2 3e 7f 57 a2 be ee f5 78 3e bb e2 7a bf
       0.47447795 -0.3170738 0.24312565 -0.98002213
000010 ab c4 17 bf 2b f8 dc bd 85 8a 1b bf 06 b2 84 be
       -0.59284467 -0.10789522 -0.6075824 -0.2591707

layers.6.b_net.0.bias f4 [8]
000000 93 52 3b 3f 4c 65 7b bf 4b 6a 62 3f 42 81 d5 3e
       0.73172873 -0.9820144 0.8844344 0.41700178
000010 e0 e8 7a bc bd e7 15 3f 4e 56 74 3e 0e 62 08 bf
       -0.015314311 0.5855673 0.23861048 -0.5327462

layers.6.b_net.2.weight f4 [8, 8]
000000 7d 4c 70 3b a1 0d 14 bd fb ea 9e 3b a8 5a 08 be
       0.0036666684 -0.03614581 0.004849789 -0.13315833
000010 9b bb 26 3e 55 3b 8a bd 3b f4 81 be c3 16 a3 3e
       0.16282503 -0.06749598 -0.25381646 0.31853303
000020 19 05 80 bf bc 8a df 3d ab 5a 46 be 6f 99 92 3e
       -1.0001556 0.10915133 -0.19370525 0.28632686
000030 5d 90 a3 bd ca 61 7a 3e 2e 29 cd 3e 0f 09 b4 3e
       -0.079865195 0.24451366 0.4007048 0.3516316
000040 0e 39 b0 3c 57 ed c8 3d 52 0b 32 3e f5 b2 4d bf
       0.02151158 0.09810894 0.17387131 -0.8035119
000050 3e f0 70 bd 99 ab 11 bd e6 69 c3 be 5d 97 91 bd
       -0.058822863 -0.03556404 -0.38166732 -0.071089484
000060 e5 74 b8 be 84 90 92 3e 35 03 cd bc b9 bc b0 3d
       -0.36026683 0.28625882 -0.025025943 0.08629746
000070 5a 80 a2 3e a3 11 f3 bd 00 09 70 be e7 bc 45 bd
       0.3173855 -0.11868598 -0.23440933 -0.048275854
000080 4a 6b 0f 3d 72 df 71 3e 47 cc 02 3e 8c 85 b1 3e
       0.03501443 0.23620394 0.12773238 0.346722
000090 69 78 47 be f4 f1 af be 01 60 37 3b 48 09 7e 3e
       -0.19479527 -0.34364283 0.0027980807 0.24808228
0000a0 08 5c 1e bf d4 39 8b 3e 4a a5 28 be 2c ee 60 3e
       -0.6185918 0.27192557 -0.16469303 0.21965855
0000b0 de 3e 17 3e 3c e2 3c 3e 07 e9 4c be 91 34 0b be
       0.14770076 0.18445677 -0.20010768 -0.13594271
0000c0 2a bd 8e 3e 3d 56 f8 be 41 92 88 3e 63 c8 ac be
       0.27878696 -0.48503295 0.26674083 -0.33746633
0000d0 0c 71 0c 3f d1 49 b3 bd e2 35 46 be 8d a3 9f be
       0.54859996 -0.08754314 -0.19356492 -0.31179467
0000e0 34 c5 94 bc a1 e0 2c be 3c da 48 3e 54 cd 9d bd
       -0.01816044 -0.16882564 0.196145 -0.07705179
0000f0 74 51 31 3e 8c 66 c8 be 87 c0 1d be 69 56 9c 3e
       0.17316228 -0.39140737 -0.15405475 0.30534676

layers.6.b_net.2.bias f4 [8]
000000 a4 dd 5d bc 29 57 92 3e f7 c5 8b 3d 35 22 aa 3d
       -0.013541613 0.28582123 0.06824868 0.08307306
000010 78 1c e9 be f5 e8 35 3e d3 51 e0 3e 7c 5a d5 be
       -0.45529532 0.17764647 0.43812427 -0.41670597

layers.6.b_net.4.weight f4 [8, 8]
000000 3b 0a 4e 3e bc 89 a5 3e 24 cb 96 bb d8 eb 60 bd
       0.2012109 0.32331645 -0.004601853 -0.054912418
000010 4c bf 00 3e ad 31 8c be a7 db c8 be 08 f1 cd 3e
       0.12572974 -0.2738165 -0.3923008 0.40222955
000020 2c 0f 83 3e e4 00 9e be 61 54 b8 3c 6e 37 2d bd
       0.25597513 -0.30860054 0.022501172 -0.04228919
000030 6b 6f eb 3d f5 95 bb 3e c2 06 52 be e8 60 80 be
       0.11495861 0.36637846 -0.2051039 -0.25073934
000040 e7 a7 65 bd d3 ef 33 3e 32 06 ea bd e9 12 5c be
       -0.056068327 0.17571954 -0.11426963 -0.21491589
000050 12 55 bf be 27 23 e0 bd 50 01 b3 3e 4e f8 d5 3c
       -0.3736959 -0.10944205 0.3496194 0.026119377
000060 2f 58 53 be 78 00 4b 3e 07 c9 ab 3e fb 3f 61 3d
       -0.20639108 0.19824398 0.3355181 0.054992657
000070 0f b5 c3 3e 3c 4f 89 3d 81 34 41 3e 42 89 06 be
       0.38224074 0.06704566 0.18867685 -0.13138297
000080 a3 29 89 bd 2e a4 ed be 0e 33 9e 3e dc 5c 9f be
       -0.06697395 -0.46414322 0.30898327 -0.31125534
000090 cd 20 17 bf a0 8a d2 be 62 70 84 3e c3 b8 82 3d
       -0.59034425 -0.41121387 0.2586699 0.06382897
0000a0 7e 74 0b be 23 0a 17 3e 21 47 9b 3e 16 d3 5d 3e
       -0.13618657 0.1474996 0.30327705 0.21662554
0000b0 e4 fb 14 bd a3 88 9a 3e de 9d 9e be b3 56 5c 3e
       -0.036373034 0.3018237 -0.30979818 0.21517448
0000c0 12 dc b9 3e 3b f5 09 3e ba 77 06 3d 8e fa 82 3e
       0.36300713 0.13472454 0.032829024 0.25581783
0000d0 58 87 d6 bd 8a eb 5c be e4 94 b9 3d f2 44 90 be
       -0.104750335 -0.21574226 0.09061602 -0.281776
0000e0 9c f7 bc 3e 08 ad 09 bf f2 ba 57 be f8 f2 3d be
       0.3690766 -0.5377965 -0.21067408 -0.18549716
0000f0 92 37 9a 3e a3 c0 16 bf 4c 06 b6 3c b3 2f 04 3f
       0.30120522 -0.5888769 0.0222198 0.51635283

layers.6.b_net.4.bias f4 [8]
000000 15 87 8f be 38 be 91 be 3a 4c 02 3d c0 28 37 3e
       -0.28032747 -0.28465438 0.031810977 0.17886639
000010 72 a5 05 3e 8b 08 40 be 77 d4 6c bc 8b cb f9 3d
       0.13051394 -0.18753259 -0.014454952 0.12197026
