checkpoints/best_model.pt (torch, 132842 bytes, 270 tensors)

layers.0.log_s_net.0.weight f4 [8, 1]
000000 b1 46 5f 3f aa 2e e3 3e 51 4b d1 3e a5 91 23 3f
       0.8721724 0.4437154 0.40877774 0.6389411
000010 36 b3 10 3f 3b eb 96 3e f5 32 08 bf 38 9c 6f 3f
       0.56523454 0.29476342 -0.53202754 0.93597746

layers.0.log_s_net.0.bias f4 [8]
000000 48 c8 01 be f8 7f 50 3f 2b 7a 8c 3e 7a cf eb 3e
       -0.12674057 0.81445265 0.27436957 0.4605673
000010 a1 e9 be 3e c8 42 2e bf fa bd 86 bf 4c bd 23 3f
       0.3728762 -0.6807065 -1.0526726 0.6396072

layers.0.log_s_net.2.weight f4 [8, 8]
000000 8d 05 72 3f 52 60 39 be ce 36 11 be 66 3c 77 be
       0.9453972 -0.1810315 -0.14181063 -0.24144134
000010 bf 43 0e 3e a5 bf 87 3f 43 08 87 3e 13 8d cb 3d
       0.1389303 1.060536 0.2637349 0.09939017
000020 95 b0 fe 3e 9d ce 82 be 4d c6 a4 bd ee 9a eb 3c
       0.49744096 -0.25548258 -0.08045635 0.0287604
000030 10 5a c0 3e 05 c6 55 3f 03 fd 62 bc 64 91 79 3e
       0.37568712 0.8350528 -0.013854268 0.24371868
000040 ab bb 99 bf d6 59 87 3c 7f 33 58 3e b7 e3 b4 3e
       -1.2010397 0.01652233 0.21113394 0.35329983
000050 34 f2 0f be 23 f4 d7 be 06 9d 96 3d a7 f7 bf bb
       -0.14057237 -0.4217845 0.073541686 -0.00585838
000060 2c 19 79 bd 8e ba 13 3f 3d 05 80 3e 04 f1 f6 3d
       -0.06081502 0.57706535 0.25003996 0.12057689
000070 2c 13 47 3e 93 7e fa be 34 71 19 bf 41 a8 78 3e
       0.19440907 -0.48924693 -0.5993836 0.24282934
000080 ea 83 ed 3d f8 74 22 be 59 a7 c4 3e 02 35 2c 3e
       0.11597426 -0.15864933 0.38408926 0.16817096
000090 b9 cd 01 be 34 46 3f be f4 a7 d5 3e 25 67 68 be
       -0.12676133 -0.18679124 0.417297 -0.22695597
0000a0 97 05 2b bf dd fd d7 3b 1f 65 95 be f8 42 44 be
       -0.66805404 0.006591542 -0.29178712 -0.19166172
0000b0 41 c7 f8 be 06 72 bc be d9 74 5c 3f d2 cf 2b bf
       -0.4858952 -0.36805743 0.86115795 -0.67113984
0000c0 e3 b2 35 3f 44 89 9b 3e cb 9c 28 3e bc 93 38 3e
       0.70976084 0.30378163 0.16466062 0.18025106
0000d0 3d f1 4f 3e c8 e3 3d 3e 66 fb a1 3e 48 f7 f3 3d
       0.20306869 0.18543923 0.31637114 0.119123995
0000e0 ae 0e 89 3e 4f ea e3 3c 76 d6 d4 be 6d b2 48 3d
       0.26769012 0.027821688 -0.4156987 0.048998285
0000f0 e0 07 b3 3e 9b e6 cc bd 5b c2 6b 3e 9e 99 9f be
       0.34966946 -0.10004922 0.2302336 -0.31171888

layers.0.log_s_net.2.bias f4 [8]
000000 89 64 d4 be 38 1b 87 bd 94 bb 12 bd 88 17 6b bd
       -0.41482952 -0.065969884 -0.03582342 -0.057395488
000010 8d 3f 8f be 37 c9 c7 3e f1 ea 60 3e 1d 88 c1 bd
       -0.27978173 0.39020702 0.21964623 -0.0944979

layers.0.log_s_net.4.weight f4 [8, 8]
000000 a0 70 06 3f 39 59 a8 bd 4d f6 ad be da f3 bf bd
       0.525156 -0.08220143 -0.33976975 -0.09372683
000010 35 d7 3a bc b2 2d ce 3d 74 e0 90 be 41 a1 5b 3e
       -0.011403848 0.100673094 -0.28296244 0.21448232
000020 1a 0c 58 bf 5f 48 94 bd ac 57 ce bc 0f d5 f7 3e
       -0.84393466 -0.07240366 -0.02518829 0.48404738
000030 c6 c2 b9 3d e0 34 05 bf 6d 85 b1 3e bc aa f6 be
       0.09070353 -0.52033806 0.34672108 -0.48177135
000040 23 63 5c 3f 9b 2f 97 3e a7 d5 83 be 8e 8f 81 be
       0.8608877 0.29528508 -0.2574894 -0.25304836
000050 d4 d3 ed 3c b8 8f 2d 3f 82 4b c3 3e 26 88 c6 be
       0.029031672 0.6779742 0.38143545 -0.38775748
000060 26 c2 79 be b8 3f 99 3d 7a 6b ac be f9 b9 37 3e
       -0.24390468 0.074828565 -0.33675748 0.17942037
000070 f3 be 9e bd b5 bf cd bd 00 d8 25 be a8 8e 85 bd
       -0.077512644 -0.10046331 -0.16195679 -0.0652135
000080 8a c6 fe 3e 22 8e fa be 53 e3 ab 3d 33 af 33 bf
       0.49760848 -0.48936564 0.08392968 -0.7018921
000090 d2 2c c2 bd 2b 34 1a 3f ab a7 5b be 0a 23 10 be
       -0.09481205 0.6023585 -0.21450679 -0.14075866
0000a0 cc 39 0b 3e c0 6c f9 be 39 7d c0 be a1 09 05 bf
       0.13596267 -0.48715782 -0.37595537 -0.5196782
0000b0 1b 4e 76 3e f2 fc 0a 3f a5 93 da 3d 79 d0 13 be
       0.24053232 0.54292214 0.10672692 -0.14434995
0000c0 29 31 04 bf 01 23 c7 be eb 9f f2 3e 57 29 83 be
       -0.5163751 -0.38893893 0.47387633 -0.25617477
0000d0 b2 f4 d8 bd b8 c6 a4 be 17 e0 04 be d0 e7 6b 3d
       -0.10593547 -0.3218286 -0.12976108 0.05759412
0000e0 61 d0 55 3f 87 c9 3d be b6 c7 cf be e2 bc 94 3e
       0.83521086 -0.18533908 -0.40582055 0.29050356
0000f0 07 69 86 3d 52 e9 2f 3f 4b 1d 9e 3e 45 4a 9a bc
       0.06563001 0.68715394 0.30881724 -0.018834243

layers.0.log_s_net.4.bias f4 [8]
000000 df 20 57 3e 16 6f 9d bd 3e d6 58 3e 2a 5b 29 3d
       0.21008633 -0.076872036 0.21175477 0.041346706
000010 99 24 05 3f 31 f7 13 3e 23 f5 52 be f3 6d 80 3e
       0.5200897 0.14449765 -0.20601325 0.25083885

layers.0.log_s_net.6.weight f4 [8, 8]
000000 a9 b0 b8 bd aa 00 9a be d7 74 c9 3e a4 d6 71 3e
       -0.0901807 -0.30078632 0.39346954 0.23617035
000010 40 95 cc 3c 26 b4 22 3e a3 ca ab bd 07 a0 77 be
       0.024973512 0.15889034 -0.08388259 -0.2418214
000020 37 95 18 be 7d 0f 86 be da 84 48 bc 79 d1 5c be
       -0.14900671 -0.26183692 -0.0122387055 -0.21564282
000030 1a e4 e8 be 33 6c 8a be bd 7f d4 bd d3 df d3 be
       -0.45486528 -0.27035674 -0.10375927 -0.41381702
000040 f5 81 47 3e 4c 77 41 bf b3 a0 de 3e 6e 4d 8d 3d
       0.19483168 -0.7557266 0.4348198 0.06899534
000050 24 af f7 3e 7f 26 04 3f e2 2a ae be e6 ba ba 3b
       0.4837581 0.5162124 -0.34017092 0.0056985496
000060 13 ad 93 3e 8f 8a e9 bc e1 63 d0 3e 79 0a d2 3d
       0.28842983 -0.028508453 0.40701202 0.10255904
000070 bd 6f 13 3f 5d 02 5b 3f a7 20 d6 be 6e ad d7 3e
       0.57592374 0.8555048 -0.41821787 0.42124504
000080 fb ab 4f 3e 66 bc 25 be 03 ec 60 3d 4d 84 be be
       0.20280449 -0.1618515 0.05491258 -0.37210312
000090 3b 27 c4 bd 7a 11 79 be cc a7 3f be a9 87 48 bd
       -0.09577795 -0.24323073 -0.18716353 -0.0489575
0000a0 21 28 21 bb 0f 35 b6 3d 3a 53 66 be 43 4e 62 3e
       -0.002459057 0.08896839 -0.22492686 0.22100167
0000b0 1b e5 92 3e cc bc 92 bc 52 57 8c 3e 5b 10 2b be
       0.2869042 -0.017912291 0.2741037 -0.16705458
0000c0 20 48 fd bd 69 c0 57 be 2f 5f 99 3d 64 d7 3f 3e
       -0.123672724 -0.21069492 0.07488858 0.18734509
0000d0 c4 0c 58 3e ee 78 b4 be 7e 62 58 bd ec 38 b9 be
       0.2109862 -0.35248512 -0.052828304 -0.3617624
0000e0 d6 b0 17 3e 18 14 95 be 2e 02 da 3e 47 72 3e be
       0.14813551 -0.29116893 0.42579788 -0.18598281
0000f0 09 52 40 3f fd c1 98 3e 5e cb 28 be 15 fe 99 3e
       0.75125176 0.298355 -0.16483828 0.30076662

layers.0.log_s_net.6.bias f4 [8]
000000 25 0f b9 be 19 75 e3 bd 3c 74 0a 3e e1 27 c3 3d
       -0.36144367 -0.11106319 0.13520902 0.09529091
000010 17 d7 03 bb f1 84 79 be 64 24 fc bc 8a 7f 86 be
       -0.0020117217 -0.2436712 -0.030779071 -0.2626918

layers.0.log_s_net.8.weight f4 [1, 8]
000000 d4 5c 56 be 8d 03 8a 3e 64 3e bc be 17 58 ad be
       -0.20933849 0.26955834 -0.3676635 -0.3385627
000010 ee b3 4e 3e 17 26 14 bf 2c 73 67 3e 3f a6 ed be
       0.20185825 -0.5787062 0.22602528 -0.46415898

layers.0.b_net.0.weight f4 [8, 1]
000000 0b 7d 95 bf 3c 0d 19 bf 95 eb 63 bf ab 0d 91 3f
       -1.1678785 -0.5978582 -0.89031345 1.1332296
000010 ca 1b 27 be 94 28 ed 3a e9 a9 15 3e f7 e7 28 3f
       -0.16319194 0.0018093758 0.14615597 0.6597895

layers.0.b_net.0.bias f4 [8]
000000 c1 fb c6 be 0c 10 4b bf 24 b5 99 3f 82 40 e8 3d
       -0.38863948 -0.7932136 1.2008405 0.11340429
000010 aa 16 72 bf 0f 10 c7 bb bb 8f 92 3e 9e 8d 90 bf
       -0.9456583 -0.0060749124 0.28625283 -1.1293218

layers.0.b_net.2.weight f4 [8, 8]
000000 47 9a b9 3e b0 35 f2 3d a8 2a e5 be 8b e4 4a 3d
       0.36250517 0.11826646 -0.44759107 0.04953436
000010 24 e9 54 3e ac a0 66 3c 5c 39 85 3d 50 d7 76 3f
       0.20792061 0.014076393 0.06505081 0.9642229
000020 57 35 8d be 0e af 4b bf 2c e6 f9 3d c5 72 a6 be
       -0.27579758 -0.7956399 0.12202105 -0.32509437
000030 65 d0 47 be f0 8f bc bc b4 5c 43 3f 31 8d f5 ba
       -0.1951309 -0.023017853 0.7631333 -0.0018734095
000040 3a a8 1a 3e 05 92 e2 3e 4c b5 b9 3e 1b 8d 94 be
       0.15103236 0.4425203 0.3627113 -0.29013905
000050 9b 4a 3a 3e 88 78 58 3e 85 6f 8f be 8d 78 42 3e
       0.18192522 0.21139729 -0.2801477 0.18991299
000060 ae b2 25 bd 0a 01 2e 3f 75 91 0d be d1 6f 79 3d
       -0.040453605 0.67970335 -0.13825019 0.060897652
000070 12 bc 8d 3d 4c 8a 12 bc a8 85 32 3e fa 8c 80 3f
       0.06920637 -0.008944105 0.17433798 1.0043023
000080 cf 68 c0 3e fd 05 de be 7d ce f9 3e bd 2e 43 be
       0.37579963 -0.43363944 0.4879035 -0.19060798
000090 9a f5 d7 be ec 98 8d 3d 8d 35 17 bd 8b 41 41 be
       -0.42179567 0.06913933 -0.036916304 -0.18872659
0000a0 e1 44 6d 3e 24 d9 07 3e 37 6b 1b 3e 60 a9 0e bd
       0.23170806 0.13266426 0.15177618 -0.034829497
0000b0 77 38 67 be f8 b4 33 bc 8b dd c9 be ac d6 54 3e
       -0.22580133 -0.010968439 -0.39426836 0.20785016
0000c0 fb 67 d8 3e 3d f2 05 be af 41 a9 bd f4 fe 7d 3f
       0.4226683 -0.13080688 -0.08264481 0.9921715
0000d0 4a 82 29 bd f7 1d 42 3e 4f 20 51 be f8 c3 24 bf
       -0.04138402 0.18956743 -0.20422481 -0.64361525
0000e0 78 14 35 3f f2 35 8a 3e b6 c0 02 be 93 91 3d 3e
       0.7073436 0.26994282 -0.12768826 0.18512563
0000f0 3a 21 99 3e 7a 38 a4 be 15 d1 b0 be 78 82 cb bd
       0.29908162 -0.32074338 -0.34534517 -0.09936994

layers.0.b_net.2.bias f4 [8]
000000 2a 56 be be e6 1e eb 3e b8 9c 7e be 03 68 ed be
       -0.37175113 0.4592201 -0.24864471 -0.46368417
000010 73 79 ec 3d f6 2e 1c be 8d 0b a1 3d 92 fa 73 3e
       0.11546602 -0.15252289 0.07863531 0.23826054

layers.0.b_net.4.weight f4 [8, 8]
000000 b4 db 3b be ea e3 53 bf 0b c2 01 3f 47 6f 12 3d
       -0.18345529 -0.82769644 0.5068671 0.035750654
000010 04 08 22 3f d0 60 e9 3d 32 7e 22 3e cd 58 cb 3e
       0.6329348 0.11395419 0.15868452 0.39716187
000020 38 0b 0b 3f e6 5f 6b bf 37 79 86 3e 15 38 e2 3e
       0.54313993 -0.91943204 0.26264355 0.44183412
000030 cb f5 a6 3e 19 c8 22 3d 26 d5 68 3e 6b eb b1 3e
       0.326094 0.03974161 0.2273756 0.34749922
000040 a8 01 be 3f b6 ab a6 bd a4 c8 1f 3e eb ae 81 3f
       1.4844255 -0.0813822 0.15603882 1.0131506
000050 0b 27 2c be a8 fe c9 be ed c3 1d be 0a 2f 2c be
       -0.16811769 -0.394521 -0.15406771 -0.16814819
000060 21 0d 77 3e c4 6e 03 bf ae cd b5 3e 61 c2 4e 3e
       0.24126102 -0.5134089 0.35508484 0.20191337
000070 f3 cb f2 be ea 74 52 3e f4 ac a0 3e 50 04 86 3e
       -0.47421226 0.20552412 0.31381953 0.26175165
000080 6e 43 ea bc 03 96 7f bf 98 fd a3 3e c6 33 92 3e
       -0.028596606 -0.99838275 0.32029414 0.28555125
000090 83 95 e6 bd a3 d3 3d 3e 68 f3 1b bd fa a4 e6 3e
       -0.11258986 0.18537764 -0.038073927 0.45047742
0000a0 f0 8e 9f be 3b b3 3d 3f 6c dc bf 3c a1 1b 2b bf
       -0.3116374 0.7410161 0.023420535 -0.66839033
0000b0 2a 6f 50 3e 5b 17 07 bf 15 3d cb bf 05 a4 1d bf
       0.20354906 -0.5277001 -1.5878016 -0.615784
0000c0 13 91 b7 3d e5 ae bc bd 8b ba 7e be 3b 51 80 bd
       0.089632176 -0.09213046 -0.24875848 -0.062654935
0000d0 32 b6 a3 be bd c5 12 bc 3a 32 12 be b2 a0 8e be
       -0.31974941 -0.008958277 -0.14276972 -0.27856976
0000e0 4b 18 f9 be cc 91 83 bd bd 22 a6 3d 85 a4 26 bf
       -0.48651347 -0.06424293 0.081120946 -0.65094787
0000f0 20 ac a5 3e aa e0 4c 3c 92 3a 98 3e 8c 78 0f 3f
       0.32357883 0.012504736 0.29732186 0.56043315

layers.0.b_net.4.bias f4 [8]
000000 ac 52 c0 3c cc 38 8a be 29 48 a7 be bf 92 9b 3d
       0.023476921 -0.26996458 -0.3267224 0.07596349
000010 c6 e3 10 3d ec a2 f1 bd b6 90 4c bd 55 81 84 3e
       0.03537347 -0.11798653 -0.049942695 0.25879923

layers.0.b_net.6.weight f4 [8, 8]
000000 a0 ae b0 3e de 36 f1 be c1 5f 98 be bf e2 87 be
       0.34508228 -0.47112173 -0.29760554 -0.2654018
000010 15 33 db be fe 4d 1b bf e3 0e 54 3e 3c 33 c3 3e
       -0.4281241 -0.6066588 0.20708804 0.38125026
000020 9d 9e ac 3e 77 47 2d 3f 51 88 8a bf 18 e8 49 3e
       0.33714762 0.6768717 -1.082285 0.19717443
000030 18 93 c4 3e 81 d5 c9 bd 56 66 8d 3d 7a 1c 86 3d
       0.38393474 -0.09855176 0.06904285 0.065484
000040 13 fb 1b bf 3e 1d 75 3e eb e2 38 bf c0 f2 be 3d
       -0.60929984 0.23936936 -0.7222125 0.09323645
000050 b2 0f 8e 3e 48 7a 23 3f 4e 66 6d 3e a2 7c b3 3d
       0.2774635 0.6385846 0.23183557 0.08764006
000060 e9 e7 0f bf 53 3a c9 3d 07 1a 07 3f 19 95 a7 bf
       -0.5621324 0.098255776 0.5277409 -1.3092376
000070 5f d5 67 bd 4e 17 70 bf dc 07 ab bd 82 df 2e 3e
       -0.05659997 -0.9378556 -0.083511084 0.17077449
000080 9f c1 f5 3e 18 69 5c be 2b 54 b4 3f ba 1f 44 3e
       0.47999284 -0.21524465 1.4088186 0.19152728
000090 b9 40 ae be c1 39 9a bf 61 35 f9 bd d5 d2 42 3e
       -0.34033754 -1.2048875 -0.12168384 0.19025739
0000a0 2e 26 86 bf 64 ae ec 3e be 88 6f bf de 0e 0f bf
       -1.0480402 0.462268 -0.93568027 -0.5588206
0000b0 63 12 81 be c2 35 20 3f 5c 4d 9c 3e bd bb c9 bd
       -0.2520934 0.6258203 0.3052777 -0.09850261
0000c0 10 56 fb be a7 9b 1a 3f 56 85 6d bf 53 c6 4b 3e
       -0.49089098 0.60393757 -0.9278158 0.19899873
0000d0 70 94 dd bc dd a0 a3 3e 07 ef 06 bd 48 f5 cb bd
       -0.02704832 0.31958666 -0.032942798 -0.09958893
0000e0 8c f3 25 3e 7f 62 41 bf 57 83 2b bf 8d 44 0c be
       0.16206187 -0.7554092 -0.66997284 -0.13698025
0000f0 4d 02 2c bf c3 50 36 bf 11 86 f2 be a7 89 0a 3f
       -0.6719101 -0.7121698 -0.4736791 0.5411629

layers.0.b_net.6.bias f4 [8]
000000 2f ed 18 3d 25 90 d6 be 1e 88 1f 3e 62 25 87 3e
       0.03733557 -0.4190685 0.15579268 0.26395708
000010 90 bd 83 3e 1b d9 64 3c 22 d6 9e 3e 1e fc 10 3e
       0.25730562 0.013967778 0.31022745 0.14158675

layers.0.b_net.8.weight f4 [1, 8]
000000 2d a7 d9 be b0 98 8f 3e 5f ce 59 3e 9b 37 d3 bf
       -0.42510357 0.2804618 0.2127013 -1.6501344
000010 1d 63 be be 9e db e7 3e b3 6e 31 3f 7a dc ee be
       -0.37184992 0.45284742 0.6930954 -0.46652585

layers.2.log_s_net.0.weight f4 [8, 1]
000000 64 5d 91 3f c3 60 01 3f 19 ff 65 bf c1 dd 51 3f
       1.1356626 0.5053827 -0.89842373 0.81978995
000010 78 a1 22 bf d3 c6 7b 3e a1 d0 25 bd a2 0d 49 3f
       -0.6352763 0.24587564 -0.040482167 0.7853643

layers.2.log_s_net.0.bias f4 [8]
000000 15 bf 20 bf a5 c2 df be c6 7b 12 bf 8c 2b 35 bf
       -0.6279157 -0.4370319 -0.57220113 -0.7076957
000010 41 35 d2 be 0d 87 4e 3f 89 e5 80 bd 41 80 d0 be
       -0.41056255 0.8067482 -0.0629378 -0.4072285

layers.2.log_s_net.2.weight f4 [8, 8]
000000 8a 1b 22 3e d7 15 6a bf b5 ae 1e bf a8 8e 8b bf
       0.15830818 -0.91439575 -0.6198533 -1.090291
000010 8e 74 b1 bf 2a ae 9d 3e 5e e9 24 3b fe 8c c6 3e
       -1.3863695 0.3079694 0.0025163512 0.38779444
000020 98 e7 69 bf 51 00 d7 3e b7 ae 5b be f1 8d d4 3e
       -0.9136901 0.4199243 -0.21453367 0.41514543
000030 be 8f 15 3e db 1d c9 be 89 40 42 be ff 79 15 bf
       0.14605615 -0.3928059 -0.1896993 -0.58389276
000040 1b f2 9a bf 17 09 55 be 75 23 ff 3e a1 c5 8b be
       -1.2105135 -0.20804249 0.4983174 -0.27299216
000050 a4 19 57 3e 6d b8 ca bd 3b 47 73 3d 04 0f 55 bf
       0.21005875 -0.09898458 0.059394103 -0.8322604
000060 d4 ce cb bb c4 c4 10 3d d2 6d b3 be 49 3f 10 3f
       -0.006219724 0.0353439 -0.35044724 0.56346565
000070 62 6f 72 be de c7 11 3e 84 c8 84 3e 4f 55 3f bf
       -0.23675302 0.142364 0.2593423 -0.74739546
000080 e3 cd 5f be 3a 40 f9 be ba 36 12 bf 4e 16 d0 be
       -0.21855883 -0.48681813 -0.57114756 -0.40642017
000090 ef 61 39 bf 01 b1 5b 3d 7d 3e c7 be 8e c9 63 bf
       -0.7241506 0.0536356 -0.38914862 -0.88979423
0000a0 eb 80 66 bf c1 e5 9b bd 22 62 25 be f9 ae 78 be
       -0.90040463 -0.076121815 -0.16150716 -0.24285497
0000b0 68 60 82 be df 76 2d 3e 19 ba 4f be 76 f5 8b be
       -0.25464177 0.16939877 -0.20285834 -0.2733571
0000c0 17 79 43 3e 9a 31 69 be e0 04 67 3f 79 30 ba be
       0.19089161 -0.22772828 0.90241814 -0.36365107
0000d0 ef 00 22 3f ef 8f 86 be bd 7b d4 bd 92 22 41 be
       0.63282675 -0.26281688 -0.10375164 -0.18860844
0000e0 38 d4 a5 bd 0c 12 78 be 0b f0 5a 3e 57 d5 bd 3d
       -0.08097118 -0.24225634 0.21380632 0.09269207
0000f0 38 70 ba be 43 b0 3c be 97 dd 28 3e c6 ff 8c be
       -0.3641374 -0.18426614 0.1649078 -0.2753889

layers.2.log_s_net.2.bias f4 [8]
000000 af ab 95 bc 69 df e0 be e4 1b 9b 3e 8a f4 1f be
       -0.018270342 -0.43920448 0.30294716 -0.15620628
000010 9a 41 d7 bd 0b 44 42 3e 88 a5 f2 bd 23 73 b4 3d
       -0.105105594 0.18971269 -0.11847979 0.08811023

layers.2.log_s_net.4.weight f4 [8, 8]
000000 7b 28 b6 be 20 92 6f be 37 62 05 3f b3 c2 da 3d
       -0.3557776 -0.23395586 0.5210299 0.10681667
000010 28 3a 80 be b6 b7 c5 3e 53 9d 76 be 2e 88 0f 3e
       -0.2504437 0.38616723 -0.24083452 0.14016792
000020 89 18 eb be c4 3c 0d 3e 3c 70 21 3e fe 5d 22 bc
       -0.45917156 0.13792711 0.1576547 -0.009910105
000030 49 0c a6 be d6 cf a9 3e c5 42 28 bf 83 a6 5b be
       -0.32431248 0.3316638 -0.6572688 -0.21450238
000040 b6 87 fb 3e fc 96 64 be 37 2b c0 be 32 cd 8a be
       0.49126977 -0.22323221 -0.3753297 -0.27109677
000050 d4 be a6 3d 1c d4 21 bf cb 20 35 3f bb a0 2b 3e
       0.08141866 -0.6321428 0.70753163 0.16760533
000060 cc b2 dc bb bd 96 d0 3e 88 ba 23 3e 45 8c 15 be
       -0.0067351814 0.40740004 0.15989125 -0.1460429
000070 93 60 86 be 78 f5 c5 be 06 02 89 3f 5d a7 06 3e
       -0.26245555 -0.3866384 1.0703743 0.13149782
000080 f2 ea 92 be 1f 67 2b be a6 36 a4 bd 4e 13 d1 bd
       -0.28694874 -0.16738556 -0.08018236 -0.1020876
000090 25 31 8c bd 61 50 da 3e ab 32 9f be b1 98 88 be
       -0.06845311 0.4263945 -0.31093344 -0.26678994
0000a0 3e c1 39 bf 68 a3 4a 3e 8c 8e 9e 3c 6d be dd be
       -0.7256049 0.19788897 0.019355081 -0.43309346
0000b0 94 3a 8a 3d bf 30 d3 3e c1 a7 1f bd 98 98 4f be
       0.06749454 0.41248128 -0.038978342 -0.20273054
0000c0 ab 2d 34 3f 54 9c 2f be 68 bf af bd 00 ee 5d 3d
       0.70382184 -0.17149478 -0.0858143 0.054182053
0000d0 94 fc 83 3e 72 bd f2 be 95 43 23 3f d1 79 c8 bd
       0.2577864 -0.4741016 0.63774997 -0.0978886
0000e0 8a 3a e6 bc a8 63 ef bd 10 8c c9 3e 92 7e cc be
       -0.028104085 -0.1168893 0.39364672 -0.39940315
0000f0 be d0 51 be 5b f4 1e bf 5a e3 73 3f 3d eb 3e 3c
       -0.20489785 -0.62091607 0.95268786 0.011652765

layers.2.log_s_net.4.bias f4 [8]
000000 5e fc 29 3e 76 fe 7a bd 22 a7 32 3e 09 eb 3d be
       0.16600177 -0.06127783 0.17446569 -0.1854669
000010 53 c9 b2 3e 40 3c 0a be bd 17 08 3e a3 21 c9 3d
       0.34919223 -0.13499546 0.13290305 0.09820869

layers.2.log_s_net.6.weight f4 [8, 8]
000000 4a 5e 98 3c 4f ce 09 3e 23 55 2b be 9b 2c 32 bf
       0.018599648 0.13457607 -0.16731696 -0.6959931
000010 80 a0 88 be 80 8e ca 3e f7 4b de be f8 5b 44 3e
       -0.26684952 0.39561844 -0.43417332 0.19175708
000020 27 df 09 3d 8a 09 2f 3d c9 ee 47 bf a6 e9 aa bf
       0.03366008 0.042733707 -0.7809873 -1.3352554
000030 44 c3 7e 3c 02 f3 82 bc 6f 19 bf be c4 72 e2 be
       0.015549485 -0.015985016 -0.37324092 -0.44228184
000040 1b 24 5d be 27 3a 82 3e 40 84 b3 be bd 02 f3 be
       -0.21595804 0.25434992 -0.35061836 -0.47463027
000050 77 23 c8 bd 6c 6b a4 3e 18 03 cb be d3 ed 83 3e
       -0.097723894 0.32113206 -0.39650798 0.25767383
000060 6f c0 f9 be 99 5b 9a be cd 42 9b 3e aa f2 47 3f
       -0.48779628 -0.30148008 0.30324402 0.7810465
000070 96 7c 60 be cf 5f 7d be 9e 45 18 3f 43 e0 49 3e
       -0.21922526 -0.2474358 0.5948123 0.19714455
000080 b4 44 0d 3e 71 d8 26 3c ba 23 be be dd 6a 65 bf
       0.1379574 0.01018344 -0.37136632 -0.89616185
000090 ef 26 90 3e ba a9 ae 3e ed 15 f9 3d 5d af 95 bd
       0.28154704 0.34113866 0.12162385 -0.073088385
0000a0 ae 6f 40 3d 10 a3 d6 3d 4a f6 5c bf 07 40 53 bf
       0.046981506 0.104803205 -0.8631331 -0.8251957
0000b0 96 3f c1 3e 9d a5 80 3c fd e1 d3 be 72 d0 63 3e
       0.37743825 0.01570397 -0.41383353 0.22247484
0000c0 20 b6 e0 3e 52 b5 5c 3d 69 c7 12 bf 2e fa f7 be
       0.4388895 0.053883858 -0.57335526 -0.4843306
0000d0 72 8b 71 3e 29 7d 95 3e 3f 3c 25 be 93 d4 3e 3e
       0.2358835 0.29197052 -0.16136263 0.18635778
0000e0 63 a6 9f 3e de 98 23 3f 23 35 c4 bd 19 c3 f8 bd
       0.3118163 0.6390513 -0.095804475 -0.12146587
0000f0 b3 42 97 bb 37 05 af 3e 0c 83 74 3d 53 93 9e 3d
       -0.0046161055 0.34183666 0.05969529 0.077429436

layers.2.log_s_net.6.bias f4 [8]
000000 02 2c 9e be bf 3f 06 bd 4c 5a 48 3e c1 95 a7 3e
       -0.3089295 -0.032775637 0.19565696 0.3273144
000010 cc 72 77 be 78 53 8e be b6 3d 9a 3e 1e a7 91 be
       -0.24164885 -0.27798057 0.30125207 -0.28447813

layers.2.log_s_net.8.weight f4 [1, 8]
000000 a5 f0 ac 3d 99 3d 29 3f e6 14 26 3e fa e5 8d be
       0.08444337 0.66109616 0.1621891 -0.2771452
000010 34 fc 7b 3d bf 7b 21 3e c1 8e de 3e 34 17 a2 3e
       0.061519817 0.15769862 0.43468288 0.31658328

layers.2.b_net.0.weight f4 [8, 1]
000000 6b b1 51 3e c9 0e c7 3e 9a 6a 41 be 81 c8 76 bf
       0.20477836 0.38878468 -0.18888322 -0.96399695
000010 3f 6a 41 bf d2 34 83 bf 94 84 05 3f 19 ed 39 3e
       -0.75552744 -1.0250494 0.52155423 0.18156852

layers.2.b_net.0.bias f4 [8]
000000 21 19 43 3f 3e 52 ae 3d 4b d2 6e 3f 66 cf 80 be
       0.7621022 0.0851178 0.9328963 -0.25158232
000010 21 38 cb 3e d3 8b bb be 0d e6 50 3f e2 00 58 bf
       0.3969126 -0.36630115 0.8160103 -0.8437635

layers.2.b_net.2.weight f4 [8, 8]
000000 83 86 98 be 34 45 7f 3d d8 6d 2e be 1e f0 ee 3e
       -0.29790124 0.062321857 -0.1703409 0.4666757
000010 0d d5 97 3c 7f c3 e3 3e d7 ff 51 bd 35 5c b1 be
       0.018534208 0.4448509 -0.05126938 -0.3464066
000020 8a bf 13 be 8c 19 8e be 32 59 88 be bb 0b 9b be
       -0.14428535 -0.27753866 -0.2663055 -0.30282387
000030 51 3c 1e be c1 5f 56 3e 48 54 a1 bc 93 31 bc be
       -0.15452696 0.20934965 -0.019693509 -0.36756572
000040 06 f1 ec bd 28 9c 60 bd a5 5d 57 3e b8 99 c6 be
       -0.11569409 -0.054836422 0.21031816 -0.38789153
000050 ff 8a 96 3e c8 51 eb 3c 42 8b 34 3e 49 1b b3 be
       0.2940292 0.02872552 0.17631248 -0.34981754
000060 03 1e 94 3e e8 8a a6 bd b2 59 88 3e dc f3 30 3e
       0.28929147 -0.08131963 0.26630932 0.17280525
000070 bc 6c 7e 3e b8 f4 d5 be b8 30 c8 be 12 c5 c5 be
       0.24846166 -0.41788268 -0.3909967 -0.38626915
000080 35 31 d1 be 2d 43 bc bd fd 82 e7 bc d0 29 d7 3d
       -0.40857854 -0.091925 -0.028260702 0.10506022
000090 93 c6 97 3e a4 4d 63 3e 40 5e 55 be d1 b1 44 3e
       0.29643688 0.22197586 -0.20836735 0.19208457
0000a0 d5 22 16 3d fe fd ed bd b9 93 23 3e 10 3c ac 3d
       0.036654312 -0.11620711 0.1597432 0.084098935
0000b0 7d 76 d5 3b 7a 7d 2d be 5d 32 d1 3c 7b 44 bd 3e
       0.006514369 -0.16942397 0.02553671 0.3696631
0000c0 ce 76 3d 3e 9e 1f 88 be b3 9a 9a 3e 0d 51 ee 3d
       0.18502352 -0.26586622 0.3019615 0.11636553
0000d0 e1 94 eb bd af a1 50 be f7 13 b6 3e 1d 83 98 3e
       -0.11503006 -0.20374177 0.35562107 0.29787531
0000e0 1f f7 76 be d9 a7 c3 3e 69 18 73 be a3 99 b8 3e
       -0.24117707 0.38213995 -0.2373978 0.36054716
0000f0 84 03 6d 3e d8 c6 fb 3d 90 97 14 bc 2a 31 85 3d
       0.23145872 0.12293786 -0.009069338 0.06503518

layers.2.b_net.2.bias f4 [8]
000000 92 45 b1 bd 3a de fa bd 68 a7 a5 3e d7 40 00 be
       -0.086558476 -0.122494176 0.32354283 -0.12524734
000010 04 de 27 be ed 5b 63 be d7 d5 2b 3e 77 10 e5 3d
       -0.16393286 -0.22203036 0.16780792 0.11184781

layers.2.b_net.4.weight f4 [8, 8]
000000 8c d0 e8 3d 2f c5 c4 bb 40 18 4f 3d ea 45 c1 be
       0.11367902 -0.0060049514 0.050560236 -0.37748653
000010 26 9e f8 3d e2 a5 57 be 75 6e 26 3e 74 db a4 3d
       0.121395394 -0.21059373 0.16253074 0.0804967
000020 ca ed 93 3e fe 6f a6 3e 67 84 f6 bd d4 86 fc bc
       0.28892356 0.32507318 -0.120369725 -0.03082601
000030 36 46 93 3e 87 65 ad 3d 6f f1 aa 3d 88 63 13 3e
       0.28764504 0.084666304 0.08346831 0.14393437
000040 31 e1 d7 bd 73 48 36 be 2b 00 94 be 3b 83 85 be
       -0.10540999 -0.17801075 -0.28906378 -0.26076683
000050 a9 c9 99 3e 20 8e 97 be 89 4d 32 3e 73 25 01 3d
       0.30036667 -0.2960062 0.1741239 0.031529855
000060 4d 0c f0 3e fe 58 02 be 82 bc 9a be 1b 6a dd be
       0.46884385 -0.1272926 -0.30221945 -0.43245015
000070 1c 44 6c 3e 9c 17 4b 3d 32 d4 8e be 05 2a dc 3d
       0.23072857 0.049583063 -0.27896267 0.10750202
000080 bc be 03 bd 6c 05 7b 3e f7 00 0c bd 76 8f 3c be
       -0.03216432 0.24513787 -0.034180608 -0.18414101
000090 c7 4b b3 be 65 66 dd bd 89 04 43 be c3 00 c3 3d
       -0.3501875 -0.10810546 -0.19044699 0.0952163
0000a0 6a ef 6c bf 11 3f f8 bd 2a 8e 9e bd c9 7f 93 3e
       -0.92552817 -0.12121404 -0.077419594 0.2880843
0000b0 df 06 ee be e6 a2 71 3e 36 9c c2 bd 87 de 73 be
       -0.46489617 0.23597297 -0.09502451 -0.23815356
0000c0 c8 9a 91 3e 61 b0 7f be b8 c1 73 bd 98 ad a2 3d
       0.284384 -0.24969627 -0.059510916 0.07943267
0000d0 d1 d5 bc 3e 9c bc 04 bd 29 11 6e be e0 1a 6a 3e
       0.3688188 -0.032406434 -0.23248734 0.22861814
0000e0 e8 1a 50 3e 54 f3 b2 3e 8c 4b 8b be 23 de ea be
       0.20322764 0.3495127 -0.27206075 -0.45872602
0000f0 92 87 14 be 4b 58 93 3e b8 fb c3 bb 4b cf 83 3d
       -0.14504841 0.287783 -0.005980935 0.06436022

layers.2.b_net.4.bias f4 [8]
000000 75 d5 86 be 7f 88 84 3d 57 a2 32 be 92 e3 11 be
       -0.2633473 0.06471347 -0.1744474 -0.14246967
000010 b0 99 10 be 62 de e2 3c 53 45 2a 3e 3c 72 e2 3d
       -0.14121127 0.027693931 0.16628008 0.11056945

layers.2.b_net.6.weight f4 [8, 8]
000000 5c 25 55 be 49 d3 95 3e 44 58 65 bb 3a 0b f4 be
       -0.20815033 0.2926276 -0.0034995237 -0.47664815
000010 40 23 05 be ca 4a 87 be b3 b4 b7 3e 96 51 83 bd
       -0.13001728 -0.26424247 0.3588005 -0.06412046
000020 b3 38 a1 3e e2 46 01 3e d6 a2 e8 3d 47 71 4a be
       0.3148857 0.12624696 0.113591835 -0.19769774
000030 54 e8 8f bd 15 e9 02 3e 11 21 86 be 67 98 31 3e
       -0.07026735 0.12784226 -0.26197103 0.17343293
000040 d2 68 53 be 4b 2f 19 3e cd 29 18 be 6b f1 f3 3d
       -0.20645455 0.14959447 -0.14859696 0.11911281
000050 c1 14 4a 3d 56 53 53 3e 2c 68 4a 3e 4a cb 30 3e
       0.0493362 0.20637259 0.19766301 0.17265049
000060 00 75 cf bb 0a 81 37 3e a6 2e bb bd db 32 9f be
       -0.006331086 0.17920318 -0.09139757 -0.31093487
000070 19 6b e0 bd 7c ba 49 3d 17 82 27 be a7 1e f4 bd
       -0.10957927 0.04925011 -0.16358219 -0.11919909
000080 9b 1d d0 3d ce 70 0d 3d 97 8c b0 bd 8e 72 17 bf
       0.10161897 0.034531407 -0.086205654 -0.5915917
000090 f2 42 2f bb cd 2e 39 3e 32 42 55 be dd d2 20 bd
       -0.0026742783 0.1808426 -0.20826033 -0.039263595
0000a0 df 6a a9 bd 7f 90 84 3d 2c 38 2f 3e f6 2b 3a bf
       -0.08272337 0.06472873 0.17111272 -0.7272333
0000b0 6e 01 83 be 9e ec 31 bf 5a db bc 3e 41 bb 49 3c
       -0.25587028 -0.69501674 0.36886102 0.012312711
0000c0 e4 70 3c be 1b 27 5a 3e 35 16 78 bc c0 4a a3 be
       -0.1840244 0.2130398 -0.015142013 -0.31892967
0000d0 91 48 93 3e 03 f2 7b bd 12 cf 7a 3e b0 94 17 3e
       0.287663 -0.061510097 0.24493054 0.14802814
0000e0 f0 f3 74 be d0 b0 dd 3d a0 3a 4b 3e 95 4f 0f bf
       -0.2392118 0.1082474 0.19846582 -0.5598081
0000f0 b0 cb a5 3e 64 6b 9d bd df 7c 52 3e 3a 2f 9d be
       0.32381964 -0.07686499 0.20555447 -0.30700094

layers.2.b_net.6.bias f4 [8]
000000 38 2f c6 bd 47 cf 26 3e 1d 65 fd 3d cf 3b 01 3e
       -0.09676975 0.16290008 0.123728015 0.12620471
000010 72 29 a5 be 1b 4a 34 bd 58 b0 92 3e ec bb 94 3e
       -0.32258183 -0.044015985 0.28650165 0.29049623

layers.2.b_net.8.weight f4 [1, 8]
000000 76 cb a8 3e 33 15 52 3e 6a 7f a1 be 67 d2 99 3c
       0.32967728 0.205159 -0.31542522 0.018777085
000010 a3 f1 7d 3e 7e 93 c4 3e 22 50 9b 3e 8b 0e 40 3d
       0.24799208 0.38393778 0.30334574 0.04688887

layers.4.log_s_net.0.weight f4 [8, 1]
000000 74 b4 17 3f e9 ba 87 bf 51 76 bb 3d 10 7c 3f 3e
       0.59259725 -1.0603915 0.091534264 0.1869967
000010 d0 69 5b bf 72 72 23 bf ab 31 c0 3e 26 7f 43 bf
       -0.8570833 -0.63846505 0.37537894 -0.7636589

layers.4.log_s_net.0.bias f4 [8]
000000 8b 10 2c 3e 44 03 20 3f 82 72 20 3f 70 66 55 3f
       0.16803186 0.6250498 0.62674725 0.8335943
000010 24 f4 54 bf c1 15 1e bf 40 bd af 3e d7 c6 1a bf
       -0.8318503 -0.61751944 0.34324074 -0.60459656

layers.4.log_s_net.2.weight f4 [8, 8]
000000 3c 22 f2 be c9 d5 84 3e dd f7 98 3c fa 56 97 3e
       -0.47291744 0.25944355 0.018672878 0.29558545
000010 7a 2e 08 bf ba 16 0b bf 3a 60 3c 3e 9d 0a 3b be
       -0.5319592 -0.54331553 0.18396083 -0.18265767
000020 2a a8 ad be 1d 15 dd 3d 3f f9 fa 3c 47 9b bd 3d
       -0.33917361 0.10795043 0.030636428 0.092581324
000030 7f 1e 36 3d 7e 61 ce bd a5 48 af be af 63 05 be
       0.044462677 -0.10077189 -0.3423511 -0.13026308
000040 ca c6 c1 3e 21 3d 93 3e ad d3 44 3e 53 00 97 be
       0.37846977 0.28757575 0.19221373 -0.29492435
000050 37 d3 00 3f 0d 1b 05 3f e6 6a be bc d3 9e b6 3d
       0.5032229 0.519944 -0.023244333 0.08917012
000060 3c 69 6f be 9a 47 90 3e 0b 50 bf 3e 09 10 93 3e
       -0.23379987 0.28179628 0.37365755 0.2872317
000070 c9 25 4b 3f 9c c1 0a 3f 00 b1 a5 3d fb 71 c9 3d
       0.7935453 0.54201674 0.08090401 0.09836193
000080 ea 46 a0 3e 14 ab bd 3e fa 58 4c be 42 98 50 be
       0.31304103 0.37044585 -0.19955817 -0.20370582
000090 7b 31 df 3e 2b 45 8f 3e 82 c7 8b 3d 6b 4b 73 3e
       0.43592438 0.27982458 0.068251625 0.23759238
0000a0 b9 ad ba 3e 22 82 ee be 42 a2 2a 3e 39 c6 36 3e
       0.36460665 -0.46583658 0.16663459 0.17849053
0000b0 7f 43 e0 3c df f7 b2 bd 20 cc 90 be cb 7a 0c 3f
       0.027375935 -0.08738684 -0.28280735 0.5487487
0000c0 0f a6 96 3e 67 0f 60 bd 2c 77 6a 3e f7 19 24 be
       0.29423568 -0.05470219 0.22897023 -0.1602553
0000d0 22 23 cf be ca 97 c5 be 5d ed 92 be 07 3b 78 3e
       -0.40456492 -0.38592368 -0.2869672 0.24241267
0000e0 d8 21 d4 3e 01 04 75 be 41 48 6c bd 82 7e 6c be
       0.4143207 -0.23927309 -0.057686094 -0.23095134
0000f0 26 18 48 be 34 4f 83 be 2f 9a 78 be 3b af 55 be
       -0.19540462 -0.25646365 -0.24277566 -0.20867626

layers.4.log_s_net.2.bias f4 [8]
000000 55 71 21 be ff ab 95 be 93 b1 31 be df e6 b9 3e
       -0.15765889 -0.29232785 -0.17352895 0.36308953
000010 84 36 a4 3d d2 66 12 3e 61 f9 a5 3e 5b 99 64 be
       0.080182105 0.14297035 0.32416824 -0.22324125

layers.4.log_s_net.4.weight f4 [8, 8]
000000 75 c2 07 3e dc b5 30 be f2 fa 4a be d7 43 a0 be
       0.13257773 -0.17256874 -0.1982229 -0.31301758
000010 13 a9 f3 3b b8 37 31 be 4e fd 4c be 78 95 c3 3c
       0.0074359267 -0.17306411 -0.20018503 0.023874983
000020 77 e8 02 3f 2e ec 99 3e 9b 40 f0 bd ce 6d 73 3d
       0.51135963 0.30063003 -0.117310725 0.05943089
000030 10 68 4b 3e fb 62 da 3d 76 e6 14 3b 5d bc 65 be
       0.19863915 0.1066341 0.0022720373 -0.22435136
000040 45 59 1d 3e 72 d0 8e 3e 58 80 6d 3d 73 44 8e 3e
       0.15366085 0.27893406 0.057983726 0.27786598
000050 fa 18 4d 3e 7c d3 05 bf 8e 2a 84 be b2 10 47 be
       0.20029059 -0.52275825 -0.25813717 -0.19439963
000060 b9 d8 00 bf 52 85 50 be 35 9b d6 3d ba a3 69 3d
       -0.5033069 -0.20363358 0.10478822 0.057040907
000070 0e b6 85 3e fd 20 0e 3e 86 89 84 be ff db f0 3e
       0.2611546 0.13879772 -0.25886172 0.47042844
000080 23 45 ce be 6b 85 37 3e b9 c0 2d 3e f4 8d a1 3e
       -0.40287122 0.17921989 0.16968049 0.31553614
000090 37 71 ad 3e 60 ed 4a bc 17 29 87 be 8c 03 8b 3e
       0.3387544 -0.012385696 -0.26398537 0.27151144
0000a0 40 44 bf be ca 69 22 be 80 1e 80 3e 88 b3 dc bc
       -0.37356758 -0.15860668 0.2502327 -0.026941076
0000b0 b1 20 54 be 11 1d 7e be c5 e1 a2 3e 65 dc 64 bd
       -0.20715596 -0.24815775 0.31812873 -0.055874247
0000c0 a1 96 c3 3e 0d 4d 8b 3e 8e e0 af 3d 6c ff e3 be
       0.38200858 0.27207223 0.08587752 -0.4453081
0000d0 de dc 94 be da a7 1a be 7c 1b 9c 3e a7 af 21 3d
       -0.29074758 -0.15103093 0.3048972 0.039474156
0000e0 de c4 7d 3e be 19 b2 bb 99 de 98 3e 33 f9 9c be
       0.2478213 -0.0054351976 0.2985733 -0.30658874
0000f0 0f 2c 67 be 4a e7 ad 3e 1e f3 ab bb c3 11 03 bc
       -0.22575401 0.33965522 -0.0052474877 -0.00799984

layers.4.log_s_net.4.bias f4 [8]
000000 87 99 ce 3c 4a 27 9c be cc e0 5e 3e da a7 96 3e
       0.025219692 -0.30498725 0.2176544 0.29424936
000010 d6 ec 8a 3e 6f 41 81 bc f5 b7 1f 3e 4a a1 12 be
       0.27133816 -0.015778271 0.15597518 -0.1431934

layers.4.log_s_net.6.weight f4 [8, 8]
000000 92 63 ca bd 7f b1 73 3d 48 94 7e be 7d f8 b3 3d
       -0.09882273 0.059495445 -0.24861252 0.0878763
000010 cd 90 df 3a fc 89 63 3e 31 5b 9f be 6d 89 14 be
       0.0017056704 0.22220606 -0.3112426 -0.14505549
000020 48 e7 a6 3e 05 46 26 be 21 57 92 3d 2e 0b 09 be
       0.3259833 -0.16237648 0.07145525 -0.13383171
000030 f9 9f ed bd ce 6f d9 3d 5a b9 9b 3e ae 74 9d 3e
       -0.11602778 0.10617028 0.3041485 0.30753082
000040 0f 9a 55 be 11 08 78 be 1c d8 8d 3e 46 8b 9b bd
       -0.2085955 -0.24221827 0.2770394 -0.07594924
000050 2d fe 55 be 13 2c 27 3e 26 19 69 be 50 6e 86 bc
       -0.20897742 0.16325407 -0.227635 -0.016410023
000060 c7 1e 96 3e ca 02 37 3e d4 42 c5 bd a3 3e 62 3e
       0.29320356 0.17872158 -0.09631887 0.22094207
000070 ae 01 88 3e bd 0b b4 3d a8 e1 c7 bd b9 8b 5e 3e
       0.26563781 0.087913014 -0.097598374 0.21732987
000080 29 b6 92 3e e7 05 a5 3e a4 11 03 be 28 2e 8b 3e
       0.28654602 0.32231066 -0.12799698 0.27183652
000090 f8 83 c1 bd 7d fd a7 3d 2c 69 93 be b7 96 2f 3e
       -0.09448999 0.08202646 -0.28791177 0.17147337
0000a0 d9 e6 2c be bb 92 ad be 80 5d ea 3d 21 24 95 3d
       -0.16884936 -0.3390101 0.11443615 0.07282282
0000b0 44 ef ab bc e2 a8 0a 3e 07 ee ce bd 6e fa 91 3d
       -0.020988114 0.13540986 -0.10103994 0.07127844
0000c0 d3 0c bb be 64 9a 78 3e 9a c6 dc 3e 4e 43 09 3e
       -0.36533222 0.24277645 0.4312027 0.13404581
0000d0 4d 1a 11 3e 8e 0a f2 3d 84 36 a8 3c 95 a0 52 3e
       0.14170189 0.118184194 0.020533808 0.2056907
0000e0 3b 20 6f be c0 f4 ab be 90 65 a8 3d 6e 00 54 3e
       -0.23352139 -0.33585167 0.082224965 0.20703289
0000f0 29 dd 73 3e 06 0f cb 3d 57 c9 82 be ec 3a fb 3d
       0.23814835 0.09914975 -0.25544235 0.12267098

layers.4.log_s_net.6.bias f4 [8]
000000 32 90 98 3e 64 37 a0 be 11 f0 97 be c6 2b e4 3d
       0.29797512 -0.3129226 -0.29675344 0.111411616
000010 34 95 59 bd 60 22 c8 be 09 41 82 be d1 a8 b5 3e
       -0.053120807 -0.39088726 -0.25440243 0.3548036

layers.4.log_s_net.8.weight f4 [1, 8]
000000 cf 4a 89 bd bc 2c 85 3e 7e de cf 3d ff 43 e6 bd
       -0.06703722 0.26010692 0.10149859 -0.11243438
000010 75 b4 ef bc f4 b5 6a 3e 50 3c a6 be 26 db 93 be
       -0.029260853 0.22920972 -0.3246789 -0.28878134

layers.4.b_net.0.weight f4 [8, 1]
000000 ee 14 c8 bd 1a db 86 3f 3e 67 01 bf 94 5c 83 bf
       -0.09769617 1.0535614 -0.5054816 -1.0262628
000010 05 cd 4c bf 26 5a bb be 76 c4 2a 3f f2 0f 31 3f
       -0.80000335 -0.36592215 0.66706026 0.69164956

layers.4.b_net.0.bias f4 [8]
000000 4c 95 a8 3e 7f a5 9e be a4 0f 4b bf b5 ca 0b 3f
       0.32926404 -0.30985638 -0.7932074 0.5460618
000010 17 21 ee be 3a f2 12 bd 0b 0f 72 3f 17 87 d8 be
       -0.4650962 -0.035875537 0.94554204 -0.42290565

layers.4.b_net.2.weight f4 [8, 8]
000000 88 9e 7d be 43 9a 0c 3f ba 46 71 bf dc 41 87 3e
       -0.24767506 0.54922885 -0.94248545 0.26417434
000010 d7 16 0a 3f 8f 3a 05 be 2d fe 8a be b6 4a 0c 3f
       0.539411 -0.1301062 -0.27147046 0.548015
000020 27 b8 a6 3d 7e ae 60 be 2b 8d 8c 3f 7d 55 3c be
       0.08140593 -0.21941563 1.0980581 -0.18391986
000030 27 9c 98 3e 9f b5 8b 3e 3c 69 b6 be b8 e6 2f 3e
       0.29806635 0.27287003 -0.35627162 0.17177856
000040 d1 43 0c 3d 01 44 54 be 24 8c 19 3f cd c7 8f be
       0.034244362 -0.20729066 0.5997946 -0.28082123
000050 2f e3 e3 be 30 95 e4 be a9 08 21 be d9 28 0c be
       -0.44509265 -0.4464507 -0.1572596 -0.13687457
000060 85 d0 81 3e bd 46 ee bd 0a 1d 59 bf dc ce 8f 3e
       0.253544 -0.11634586 -0.84809935 0.2808751
000070 af 76 3d 3f ad d9 f5 3d 9c ca 05 bf 0a 1a b1 be
       0.7400922 0.12004409 -0.5226228 -0.3459018
000080 f0 46 4b be fe 6c f9 be ba 7f 58 3f 28 8a 28 bb
       -0.1985128 -0.48715967 0.84569895 -0.0025717113
000090 25 13 fd bd e1 ac 15 3c 35 b4 1e 3d de 23 fe 3c
       -0.12357167 0.009135456 0.038746078 0.031022962
0000a0 21 13 8f 3e 4d 99 a8 be e2 91 72 3f 66 85 a0 be
       0.27944282 -0.3292946 0.9475385 -0.31351775
0000b0 b0 8b 8c be 6b ef bf 3a 33 ae ab be da 9c 08 bf
       -0.27450323 0.0014643496 -0.3353134 -0.53364336
0000c0 6b fa b1 3e ea fe 03 be 25 41 11 3e 8a af d8 bf
       0.34761366 -0.12890211 0.14185007 -1.692857
0000d0 b9 d8 0d be 41 eb 2a be 19 8a 8d 3e 1e 8a d6 be
       -0.13852204 -0.16691305 0.27644423 -0.4190225
0000e0 25 7f 99 be c9 86 04 bf ff a8 89 bf 17 70 6b 3e
       -0.29979816 -0.51768166 -1.0754699 0.22991978
0000f0 44 9a 1d 3f 2e 1c 60 3e e1 62 1d bf ea 0e 11 3e
       0.61563516 0.2188575 -0.61479 0.14165846

layers.4.b_net.2.bias f4 [8]
000000 d9 84 2d 3d 9f ed aa be 9e 2a 74 3e dd f7 3e be
       0.04236302 -0.33384416 0.23844382 -0.1864924
000010 b9 a2 b9 b9 b8 8f a4 be ae c4 0c be 99 be 52 3d
       -0.00035407188 -0.321409 -0.13746902 0.0514513

layers.4.b_net.4.weight f4 [8, 8]
000000 c5 76 1d bf 6f d7 a8 be 0b 54 86 3d df d2 61 bf
       -0.6150935 -0.32976863 0.06558999 -0.8821239
000010 1a 8c e0 bd f4 35 af 3d e6 da 0a 3f d4 c5 9b bf
       -0.10964222 0.085552126 0.5424026 -1.2169747
000020 da c9 7b 3e 22 ee 2b 3a a4 8c de be f0 6a 29 be
       0.24588719 0.0006558617 -0.43466675 -0.165447
000030 ce 89 c4 be 0b ba 15 be b0 3a 9a bf 26 c5 0c be
       -0.38386387 -0.14621751 -1.204916 -0.13747081
000040 55 16 af 3d df 18 16 3e 71 ba 36 be d6 d9 02 3f
       0.08549181 0.14657925 -0.17844559 0.5111364
000050 00 6a 1d 3d 73 7e d4 bc fa bc 7c be 1c de ff 3e
       0.038431168 -0.025939202 -0.24681464 0.49974144
000060 b5 54 96 be 02 11 9e 3d 38 7f 7c be c0 75 03 bf
       -0.293615 0.07718088 -0.24657905 -0.5135155
000070 87 95 28 3c 6b 19 c5 3e be 6f b2 bd 08 83 23 bf
       0.010289556 0.38495955 -0.087127194 -0.6387181
000080 87 88 e6 3c 4f 03 a9 3e 53 24 21 bc 7c ff 73 3d
       0.028141273 0.33010337 -0.0098353205 0.05956982
000090 cd 17 17 be 04 4d 71 bb 48 fe 6c 3e 48 8b dd 3c
       -0.14755173 -0.0036819587 0.23143876 0.027043954
0000a0 72 48 98 3e 71 71 67 be 2b 07 b4 3e f6 bf 72 3b
       0.2974277 -0.22601868 0.3516172 0.0037040687
0000b0 5d 91 38 be 6a eb bd bc d3 29 eb be de bf 3d 3f
       -0.18024202 -0.023183543 -0.45930347 0.7412089
0000c0 60 21 51 3f 74 2a bc be 27 72 83 bd 37 68 f2 bd
       0.8169155 -0.3675114 -0.06418257 -0.11836284
0000d0 94 50 14 bf da 65 c2 be 36 f1 7e be b3 e2 02 bd
       -0.5793545 -0.37968332 -0.24896702 -0.03195448
0000e0 7b d9 42 bf 22 c5 2e 3d 94 14 ae 3e b0 39 89 bf
       -0.761131 0.04266847 0.34000075 -1.072073
0000f0 73 4c 3c 3d da 39 a5 3e cb cb 56 3f d8 9f ac bf
       0.045971345 0.322707 0.83904713 -1.348628

layers.4.b_net.4.bias f4 [8]
000000 13 cd 8b 3e c7 de be bd fb e0 69 bd b5 16 e7 be
       0.27304897 -0.09319835 -0.057099324 -0.45134512
000010 b9 26 f8 bd 6a b1 c0 3e e8 fa 02 3d e5 3d ad 3e
       -0.12116761 0.37635356 0.031977564 0.33836284

layers.4.b_net.6.weight f4 [8, 8]
000000 2b 0e 95 3e f6 86 30 3e 07 3e b2 bf a5 e7 ab 3d
       0.29112372 0.17238984 -1.3925179 0.08393792
000010 73 e9 67 3e 84 f0 ce bd 16 68 95 be a5 4e 41 be
       0.22647648 -0.101044685 -0.29180974 -0.18877657
000020 0d a5 95 bf 34 72 19 bf 7a 34 0a 3d 9a 4f f0 be
       -1.1690995 -0.59939885 0.03374145 -0.4693573
000030 0e 7a 1a bd 25 44 57 bc 64 f4 af 3e ed 85 a4 bf
       -0.037714057 -0.0131388055 0.34366143 -1.2853371
000040 bd 83 da be eb 9b 13 be fe 2c bf 3e 2c b9 9c be
       -0.42678633 -0.14414947 0.37339014 -0.30610025
000050 24 29 11 3e 8d 7c 7e be a8 0e 7d 3e ce 87 49 3e
       0.1417585 -0.248522 0.24712622 0.19680712
000060 37 7e f1 3e c2 71 3d be f8 b9 c7 bf 6c 1b 98 3d
       0.47166607 -0.18500426 -1.5603628 0.07427105
000070 76 80 33 3e 30 63 36 be c1 0f b1 be a4 06 9f 3e
       0.17529473 -0.17811275 -0.34582332 0.31059754
000080 a4 c2 c9 3e ec 16 2f bd 12 c2 62 bf 70 db 8a bc
       0.39406312 -0.04274647 -0.8857738 -0.01695034
000090 ec b8 a6 be be 9e ab be 3f 19 b3 bd 10 08 bb 3e
       -0.3256296 -0.33519548 -0.0874505 0.3652959
0000a0 e4 a3 c5 3d 2d d3 16 3f c2 76 18 3c d2 c7 14 3f
       0.096504 0.5891598 0.009305658 0.581174
0000b0 08 93 b6 3d 65 3c 30 be 33 fd cf bf b0 dd b5 bd
       0.08914763 -0.17210539 -1.6249145 -0.08880174
0000c0 9b 79 7c bf 3e a1 0a be 09 46 dd 3e fa f3 38 3e
       -0.98623055 -0.13538072 0.43217495 0.1806182
0000d0 fa 20 1b 3e f6 5a 71 3e c1 3f c6 3e 5a 78 61 bf
       0.15149298 0.23569855 0.38720515 -0.88074267
0000e0 50 16 54 bf 6f 72 73 bd b8 f5 00 3f 0e ca 02 bf
       -0.82846546 -0.059435304 0.5037494 -0.5108956
0000f0 de 6c b7 bc 6b dd b5 3e 6f 76 6c bd 5f 3d bd bf
       -0.02239078 0.3552049 -0.057730135 -1.4784354

layers.4.b_net.6.bias f4 [8]
000000 25 59 50 3e 28 e8 2d 3e 23 2f a7 be 2a 0b 8f 3e
       0.20346506 0.16983092 -0.3265315 0.27938205
000010 44 65 62 3e 78 d9 1e 3e 6f 0a 87 bc fb 92 be 3d
       0.22108942 0.15512645 -0.016484467 0.09305378

layers.4.b_net.8.weight f4 [1, 8]
000000 71 b0 a2 bd ca d9 49 3f 6d ce 0b 3e 5a 90 dc be
       -0.0794381 0.78847945 0.13652964 -0.43078882
000010 fa d5 6a be cb 96 be be 38 d9 91 3e ee aa ca 3e
       -0.22933188 -0.3722442 0.28486037 0.39583534

layers.6.log_s_net.0.weight f4 [8, 1]
000000 5b 30 59 be 9f eb f3 be 5a dd 1a bf 1e 81 91 3f
       -0.21209852 -0.47640702 -0.60494006 1.1367528
000010 30 85 2b 3f 63 f2 a7 bd 1f 6d 87 be 5c bf 59 3f
       0.67000103 -0.082005285 -0.2645044 0.85057616

layers.6.log_s_net.0.bias f4 [8]
000000 80 2b 33 bf 21 cb f1 be 3b be 72 3f 5b 7c b9 be
       -0.6998825 -0.47225288 0.9482152 -0.36227688
000010 b2 33 84 bf bf 9f f7 3e 8f 02 0b bf 18 36 e1 be
       -1.0328276 0.48364064 -0.5430078 -0.43986583

layers.6.log_s_net.2.weight f4 [8, 8]
000000 8a ac 88 bd 9e b9 f7 be bc 40 56 3b fd b5 e7 bd
       -0.06673534 -0.48383802 0.0032692393 -0.113140084
000010 42 6f a9 3e 0d b5 8d 3e 1d 43 59 be 2d ab 35 bf
       0.33092695 0.27677193 -0.21217008 -0.7096432
000020 fc 5b 1d be e8 da ad be f8 c8 20 be 52 96 05 bf
       -0.1536712 -0.33956075 -0.15701663 -0.52182496
000030 f1 ad ea 3d f3 53 61 3b 75 09 06 ba 83 a0 77 bf
       0.11458958 0.0034382313 -0.00051131035 -0.96729296
000040 8c 16 72 be d0 74 43 be 7a 5f 1d bf 31 97 08 3f
       -0.23641413 -0.19087529 -0.6147381 0.533557
000050 a5 09 ac be e7 21 14 3e e7 31 f2 3d 7f 4b 81 3e
       -0.33601108 0.14466058 0.11825924 0.2525291
000060 ae ae 8e bd 75 90 d3 bc 00 1f a3 be 89 eb 2d 3f
       -0.06966911 -0.025825718 -0.3185959 0.67937523
000070 7d 97 60 3e b5 19 37 3d 34 82 04 3e 1c b3 22 bd
       0.21932788 0.04470225 0.12940294 -0.039721593
000080 f3 92 de 3c 1b 88 37 3e 7b ae 47 bf c3 72 f7 3c
       0.02716968 0.17923014 -0.7800061 0.03020609
000090 3a 30 08 bf fe 98 2c 3e 9c de 92 bd ec da 8a 3d
       -0.5319859 0.16855237 -0.071713656 0.06780037
0000a0 f4 19 8b 3e 5e a7 63 3e 97 de 7b 3e 42 3b 8a bf
       0.27168238 0.22231814 0.2459663 -1.0799334
0000b0 4a 39 f0 3d 3a 3c dc bd 79 c4 9a be 51 04 81 3e
       0.11729677 -0.10753675 -0.30228022 0.25198606
0000c0 4f 02 f3 bd b6 42 7d be bb 30 d8 bd 3e 31 0f 3f
       -0.11865675 -0.2473248 -0.105561696 0.5593451
0000d0 80 e5 c7 3e bf fa 34 be ba 68 1d be fc b2 61 3f
       0.39042282 -0.17673777 -0.15371981 0.88163733
0000e0 55 b1 eb 3d 59 67 39 3e 09 86 26 be e0 61 05 3e
       0.11508433 0.1810583 -0.16262068 0.13025618
0000f0 9f 72 7d 3d ec c1 40 be 66 05 0b be 42 f7 4f bd
       0.06187689 -0.18823975 -0.13576278 -0.050772913

layers.6.log_s_net.2.bias f4 [8]
000000 64 5e 8f bc 2b 92 27 be e7 6a 5d be 94 13 8a 3d
       -0.017501064 -0.16364352 -0.21622811 0.067420155
000010 d2 34 13 bd ee cb 09 3e 14 9d 6f bd ed b3 c6 be
       -0.035939045 0.13456699 -0.05849941 -0.38809147

layers.6.log_s_net.4.weight f4 [8, 8]
000000 a4 9e 09 bd 06 39 68 bd 79 4a f2 bd be 6c 02 bb
       -0.033598557 -0.056695007 -0.11830611 -0.0019901241
000010 85 34 8a be 99 08 4c 3e 75 42 71 3d b2 e2 89 be
       -0.26993194 0.19925155 0.05890127 -0.26930767
000020 37 7d 3c bd 28 d0 71 3d de e0 23 be 46 05 19 3d
       -0.04601785 0.059036404 -0.16003749 0.037358545
000030 c9 75 0c bb b6 e4 fa bd 94 14 ab 3e de 93 16 3e
       -0.002143251 -0.122506544 0.33414137 0.14704844
000040 8c 3b 97 bd 05 96 28 3e 40 34 e0 be f1 fd cd bf
       -0.073844045 0.16463478 -0.43789864 -1.6093122
000050 8a d2 90 be 12 83 d4 3e fe c1 3d be be 4f 54 be
       -0.2828563 0.4150625 -0.18531033 -0.20733544
000060 f6 51 a1 3e 69 a2 85 3e 09 14 de 3d 13 3c c8 3d
       0.31507844 0.26100472 0.10843665 0.09777083
000070 05 64 22 be f1 7b aa be ba 37 86 bf 47 18 ac 3e
       -0.15858467 -0.33297685 -1.0485756 0.33612272
000080 2c f0 0a bf 84 6a 01 be 3b ad 02 3f 3c 79 7c 3e
       -0.54272723 -0.12638289 0.5104558 0.24655622
000090 64 42 2b 3f ae 84 99 be d1 e0 a1 3e 46 b5 01 3e
       0.6689818 -0.2998404 0.31616834 0.12666807
0000a0 3f 8c 02 bf f0 96 ae be f0 dd db be 5c 32 06 3f
       -0.5099525 -0.3409953 -0.42942762 0.5242059
0000b0 0b f7 47 bf fc 6a c5 be 06 fd 49 3f 9a c1 80 3b
       -0.7811133 -0.38558185 0.7890171 0.003929329
0000c0 51 ac b5 be 61 54 25 be 07 d6 b3 bc c1 3c e3 bc
       -0.3548303 -0.16145469 -0.021952642 -0.02773893
0000d0 86 2f cf 3e a3 68 f0 3d 23 7f 02 3d 4d ba f1 3e
       0.40465945 0.11738708 0.03185953 0.4721245
0000e0 7f cd 2d be ba 43 05 be 74 ce c6 be df d6 0c 3e
       -0.16972922 -0.13014117 -0.38829386 0.13753842
0000f0 56 28 36 3d cc cb 18 3e 89 63 12 3f 41 2a 4c be
       0.04447206 0.14921492 0.5718313 -0.19937994

layers.6.log_s_net.4.bias f4 [8]
000000 65 eb 0b be 2f 49 ae 3e b9 3f fb 3d 0e 6a 58 3e
       -0.13664015 0.3404021 0.122680135 0.21134207
000010 86 0d 71 be de 31 59 3c 14 34 df 3d 99 17 73 3e
       -0.23540315 0.013256518 0.10898605 0.2373947

layers.6.log_s_net.6.weight f4 [8, 8]
000000 93 17 1a be af a8 49 be de 65 aa bd 88 f3 73 3e
       -0.15048055 -0.19693254 -0.08320211 0.23823369
000010 83 e9 30 3e f3 1d 6b bf 8e 56 74 3d a4 a0 06 be
       0.17276578 -0.91842574 0.059652857 -0.13147217
000020 d4 35 5b be b8 c9 fe ba e0 22 86 bf 99 db 4f 3e
       -0.21407253 -0.0019438779 -1.0479393 0.20298614
000030 6d f3 dc 3e ac 37 11 bf 6b 15 22 be da 25 9b be
       0.4315447 -0.56725574 -0.15828483 -0.30302316
000040 ed 5f 19 bd 3d ef cb be e5 46 6a be 48 66 ae be
       -0.037444998 -0.39830962 -0.22878607 -0.3406241
000050 6f c0 07 3e 0f 80 04 be da 03 2e be de c7 7f 3e
       0.13257001 -0.12939475 -0.16993657 0.24978587
000060 1b 56 c1 bd a2 29 52 be bd 35 38 3e 60 5d 8d be
       -0.094402514 -0.20523694 0.1798925 -0.27610302
000070 77 12 bd be 03 b5 1c 3e 44 b0 98 be a6 fb 37 3e
       -0.3692815 0.15303425 -0.2982198 0.1796709
000080 01 a4 d5 bd ff e5 56 be 13 4f 62 3e 52 1e 89 be
       -0.10431672 -0.20986174 0.22100477 -0.26780945
000090 89 5a 58 be bf c5 3d 3e 7e a6 a0 be dd 28 cb bd
       -0.21128286 0.18532465 -0.31377023 -0.099199034
0000a0 83 b0 8d 3e 0e 43 89 3e 71 0c a4 3e 67 5c 72 3e
       0.2767373 0.2680897 0.32040742 0.23668061
0000b0 6d 80 1a 3d 8f 26 f0 3c 33 c2 07 3e 65 c4 69 be
       0.037720133 0.029315261 0.13257675 -0.22828825
0000c0 b1 76 5c be 82 c8 b4 3e 63 e7 1d bd d6 e1 92 be
       -0.21529652 0.35309225 -0.038550746 -0.28687924
0000d0 31 97 3e bf a2 f5 a2 3e 39 fd ae 3d 87 21 66 3c
       -0.7444945 0.31828028 0.08544392 0.0140460795
0000e0 9d 78 20 3e ed 8d 04 3e 47 3f a2 3e bd 80 05 3d
       0.1567101 0.12944765 0.31688902 0.032593478
0000f0 98 44 a0 3e 32 c4 a0 be e9 db ed bd b3 8c 17 3e
       0.31302333 -0.31399685 -0.1161421 0.14799766

layers.6.log_s_net.6.bias f4 [8]
000000 35 99 7b 3e a9 34 35 3e d6 99 7e 3c 6e d2 87 bc
       0.24570163 0.1769587 0.015539607 -0.016579833
000010 1c f3 25 be 28 52 51 be ad e4 1c 3d 1f 3c 42 be
       -0.1620602 -0.20441496 0.03830402 -0.18968247

layers.6.log_s_net.8.weight f4 [1, 8]
000000 6b 39 99 3e a8 1f 45 3f f1 7b 22 3e 6c 90 06 bd
       0.2992662 0.7700143 0.15867592 -0.032852575
000010 5d f8 91 be 06 f0 35 3d 90 02 9c be 65 04 80 3d
       -0.285098 0.044418357 -0.30470705 0.06250838

layers.6.b_net.0.weight f4 [8, 1]
000000 23 2b 5b bf 9c e5 67 bf d8 d9 b8 be fe 98 36 3f
       -0.85612696 -0.9058473 -0.36103702 0.713272
000010 1f a8 1c 3d 8b 22 80 3f 09 18 52 be c1 3c 87 bf
       0.03824627 1.0010542 -0.20516981 -1.0565416

layers.6.b_net.0.bias f4 [8]
000000 1b ae 8c be e1 4c ab be 1f d0 0a be 41 80 77 3f
       -0.27476582 -0.3345709 -0.13555954 0.96680075
000010 15 1d 9e 3e 18 1f 63 bf c5 a9 5a bf 88 5b 36 3f
       0.30881563 -0.8871932 -0.854153 0.71233416

layers.6.b_net.2.weight f4 [8, 8]
000000 4a b3 c6 3a 04 91 57 be 5a 25 fd bc b3 a9 53 be
       0.0015159633 -0.21051413 -0.0309016 -0.20670204
000010 1b 60 12 be 6a 94 6d 3e 0f 88 97 3e 93 cd a0 bd
       -0.14294474 0.23201147 0.29595992 -0.0785171
000020 15 21 b9 3e b5 a3 bc 3e 46 b5 b5 3e ef de f1 be
       0.36158052 0.3684365 0.35489863 -0.47240397
000030 5e b8 5e bd 26 a7 04 3f bf 50 db bd 63 ba eb 3d
       -0.054375045 0.5181755 -0.107087605 0.1151016
000040 85 19 02 bf c4 5a a5 be e5 ed 52 bd c0 38 09 bd
       -0.5082019 -0.3229581 -0.051496405 -0.033501387
000050 5e 55 41 be 46 60 5a bf 76 c3 0c bd d3 6c 34 bd
       -0.18880221 -0.8530315 -0.034366094 -0.044049095
000060 6f c9 82 be dc cd c1 be 5c cb 3e be d7 a1 03 be
       -0.25544307 -0.3785237 -0.18632263 -0.12854706
000070 1d 24 5c 3e 31 29 8f bf 91 c4 93 be 03 d7 aa bd
       0.21498151 -1.1184446 -0.28860906 -0.083417915
000080 db 96 67 be 6a c2 7d 3e 1d ec 12 3d 4b b2 4b 3e
       -0.2261614 0.24781194 0.035869706 0.19892232
000090 9f 8f 09 be 43 6a 83 3f 92 92 a1 be 84 6e 64 bd
       -0.13433693 1.0266804 -0.31557137 -0.05576946
0000a0 45 ad 69 bd b0 1c df 3e 54 26 a0 3e 6e 47 e5 3d
       -0.05705001 0.43576574 0.31279242 0.11195265
0000b0 94 d7 92 3e ec f4 93 3f e6 81 bd 3e ce 98 ad 3e
       0.28680098 1.1559119 0.37013167 0.33905643
0000c0 8e 61 c2 be 73 f9 77 bd d9 dd 21 be 65 72 b0 be
       -0.37965053 -0.060540628 -0.15807284 -0.34462276
0000d0 0b 0a aa 3e d4 db 11 3f f5 b3 db 3d c5 5d 81 3e
       0.33210787 0.56976056 0.107276835 0.25266853
0000e0 4b 95 81 be 9f 8f be be ea 9a 12 bf 4a b0 45 bd
       -0.25309214 -0.3721895 -0.5726763 -0.048263825
0000f0 9d 28 94 be 01 3e 72 bf 8c b2 5f be a1 08 a8 be
       -0.28937235 -0.9462586 -0.21845454 -0.32819083

layers.6.b_net.2.bias f4 [8]
000000 ed 5a 73 3e 71 71 1c be e5 70 4c 3d 5c 18 aa bd
       0.23765154 -0.1527765 0.049912352 -0.083054274
000010 93 1d 0f be dd 41 71 be 70 e1 06 3e f5 b8 8f be
       -0.13976125 -0.23560281 0.13171935 -0.280708

layers.6.b_net.4.weight f4 [8, 8]
000000 eb 15 9a 3d 3f 8a e6 3e 16 21 ea be ab 25 21 bf
       0.07523712 0.45027348 -0.45728368 -0.629481
000010 38 a8 43 3f 3a dd 72 3d 62 60 90 3e 37 4c 7c be
       0.76428556 0.05929301 0.28198534 -0.24638449
000020 d1 a0 c9 3d 5a d1 2c be 40 b2 0f be 61 af d7 bd
       0.098451264 -0.16876736 -0.1403284 -0.10531498
000030 d6 f5 99 3e 65 10 a1 3d 71 b3 8d bd 0a 5e 99 be
       0.3007037 0.07864455 -0.06918991 -0.2995456
000040 0c b5 64 bc 80 42 71 bf 9b 19 83 3e d4 3b f1 3e
       -0.013959181 -0.94242096 0.25605473 0.47115958
000050 7a f2 0c be ad ed e7 be cf 34 fe 3d 56 82 90 bd
       -0.13764372 -0.4529852 0.12412416 -0.070561096
000060 df 71 5b 3e da 05 47 3e 43 12 89 3e 3a 76 41 be
       0.21430157 0.19435826 0.26771745 -0.18892756
000070 e3 ea 82 3e 91 c1 b0 3d 71 00 b8 bc 99 9e 5a be
       0.2556983 0.0863067 -0.022461148 -0.21349563
000080 ab ed 28 be f8 78 42 3f 07 22 97 be c3 ba 94 be
       -0.16496913 0.75965834 -0.29518148 -0.29048738
000090 ad 22 0f 3f 32 f1 0b 3f 45 7d 5b be 80 bc ac be
       0.55912286 0.5466491 -0.21434505 -0.33737564
0000a0 8a a1 2d 3d 7f 1f d2 3e 9f fc c8 3d b8 d0 fb be
       0.042390384 0.41039655 0.09813809 -0.49182677
0000b0 9b fd bc 3e 43 58 36 3e 93 d3 09 be 95 46 c2 be
       0.36912236 0.17807107 -0.13459615 -0.37944475
0000c0 14 5b d6 bd 8c 28 49 bf ef 14 8b ba 92 0b 0f 3f
       -0.104665905 -0.78577495 -0.0010611097 0.5587703
0000d0 29 f8 17 be e8 e8 f5 be 3e 4f 3f 3e db 31 53 be
       -0.1484076 -0.48029256 0.18682572 -0.20624487
0000e0 c1 24 26 be 0b e3 e5 3e ad 59 f7 bd cf ff 06 be
       -0.16224958 0.44899783 -0.12077651 -0.1318352
0000f0 6b 2b fc 3d 84 5d 52 3e ba 01 1e be 51 49 76 3e
       0.12312969 0.20543486 -0.15430346 0.24051405

layers.6.b_net.4.bias f4 [8]
000000 f7 56 dd bd 8d d0 a5 3d 69 3f 9d 3e 30 15 1e bd
       -0.10807603 0.080964185 0.3071244 -0.038594425
000010 e2 8f 43 3c 4a 1f 71 bd 01 a1 1f be a7 a7 b1 3c
       0.01193616 -0.05886773 -0.15588762 0.021686388
