checkpoints/conditional_flow_matching_model.pt (torch, 48500 bytes, 9 tensors)

mlp.0.weight f4 [64, 64]
0	0xbded84ba	-0.11597581
1	0xbe9b16f1	-0.3029094
2	0xbdbd59e7	-0.09245663
3	0xbe07f2a3	-0.13276152
4	0xbe26cd90	-0.16289353
5	0xbd813b70	-0.06310165
6	0xbd115a37	-0.035486426
7	0x3c9be62c	0.019030653
8	0xbe9a2dff	-0.30113217
9	0xbc1b5c78	-0.0094824955
10	0x3e4dc802	0.20095828
11	0x3e38d978	0.18051708
12	0xbe77061f	-0.24123429
13	0xbe14c5a5	-0.1452852
14	0x3e255822	0.16146901
15	0x3e43c5e8	0.19118464
16	0x3d116e72	0.03550572
17	0x3dd12758	0.10212582
18	0x3e0a9588	0.13533604
19	0xbd9273ed	-0.07151017
20	0x3dacd97d	0.0843992
21	0x3dcf9407	0.10135656
22	0xbcb9f4ae	-0.02269968
23	0xbe3d8197	-0.18506466
24	0xbe30f9f1	-0.17282845
25	0x3ceb74d6	0.028742235
26	0x3c7b7510	0.015347734
27	0x3dcbda45	0.09953741
28	0x3e262daa	0.16228357
29	0x3d9dd36f	0.077063434
30	0xbed8ff42	-0.42382246
31	0x3d7df225	0.061998505
32	0x3e2b8f03	0.16753773
33	0x3c019b81	0.00791061
34	0xbdf4ae1c	-0.11947271
35	0x3cb19b25	0.021680424
36	0x3d83544d	0.064125635
37	0x3d3ea654	0.04654534
38	0xbe64f6ee	-0.22359821
39	0x3cd12bb9	0.025533544
40	0xbd0c51fe	-0.03425788
41	0xbdee1324	-0.116247445
42	0x3c28b37f	0.010296701
43	0x3dd5b837	0.10435527
44	0xbe06953b	-0.13142864
45	0xbe39bfca	-0.18139568
46	0x3d1cd75a	0.038291313
47	0x3d0834a6	0.033253334
48	0x3de2a8a6	0.110673234
49	0xbd6a4b69	-0.057200823
50	0xbe00651b	-0.12538569
51	0x3e00d3f8	0.1258086
52	0x3d8bdbeb	0.068290554
53	0x3d1f07d6	0.038825832
54	0xbe27a756	-0.16372427
55	0x3c2177d2	0.009855228
56	0xbd6ff4c0	-0.05858302
57	0xbe80bf59	-0.25145987
58	0xbcd98c00	-0.026556015
59	0xbe3aef73	-0.18255405
60	0xbed43165	-0.41443935
61	0xbcf6cb90	-0.030126363
62	0x3d1b9e96	0.037993036
63	0xbdafa4b7	-0.08576339
64	0xbdc8d00d	-0.098053075
65	0x3d310e16	0.043226324
66	0x3d90150b	0.07035264
67	0x3e468dc5	0.19390018
68	0xbdc36919	-0.0954153
69	0x3d0ed71e	0.03487312
70	0xbe84dfb2	-0.25951916
71	0x3d28c9ff	0.041208263
72	0x3d242fb8	0.04008457
73	0x3d68a91c	0.0568019
74	0x3d07a1c7	0.033113267
75	0x3d80dc31	0.06291998
76	0x3d5e64fa	0.054295518
77	0xbe9bdfcd	-0.30444184
78	0xbe7a67fb	-0.24453728
79	0x3dd8f2b4	0.10593167
80	0x3db1b1d3	0.086764954
81	0xbdbbf3d3	-0.09177365
82	0x3e2d4176	0.16919503
83	0xbd89c89d	-0.06727717
84	0x3c34ec93	0.011042732
85	0xbda092d1	-0.07840503
86	0x3d4b49d7	0.049630966
87	0x3bb0c838	0.0053949617
88	0x3c1b449a	0.009476805
89	0x3da3c2af	0.07996117
90	0x3b36c6f6	0.0027889586
91	0xbd81ff5e	-0.063475356
92	0x3cf1e335	0.029527286
93	0x3e781bf2	0.2422941
94	0xbd5b82dc	-0.053591594
95	0xbd561b20	-0.052271962
96	0x3d33fdab	0.04394309
97	0xbdb75000	-0.08950806
98	0xbe26b5e8	-0.16280329
99	0x3dd610ab	0.10452398
100	0xba596a15	-0.00082937005
101	0xbd9ae7cc	-0.07563743
102	0xbd7d1e88	-0.061796695
103	0xbd74174f	-0.05959254
104	0xbd51aa73	-0.051187944
105	0xbe2c2550	-0.16811109
106	0x3cae2350	0.021257073
107	0xbdb9599b	-0.09050294
108	0xbc4f86d4	-0.012666423
109	0xbb74ed0e	-0.003737274
110	0xbe3ec681	-0.1863041
111	0x3c3498ca	0.011022756
112	0x3d8e7184	0.06955245
113	0xbdd3a62c	-0.10334429
114	0xbcc2569b	-0.023722937
115	0x3da33ecb	0.07970961
116	0x3d3e7407	0.04649737
117	0xbdf9c3f9	-0.12195582
118	0xbe385192	-0.17999867
119	0xbda3d619	-0.0799982
120	0x3d919c7b	0.071099244
121	0xbe188ccf	-0.14897464
122	0xbd37585d	-0.044762004
123	0x3e564d05	0.20927818
124	0x3cab5c4d	0.020918036
125	0x3df2fb6a	0.1186436
126	0xbca381c5	-0.01995934
127	0xbd8ff1d7	-0.07028549
128	0xbe91cb18	-0.2847526
129	0x3e5cfd8f	0.215811
130	0x3d3cca68	0.046091467
131	0xbeafafef	-0.34313914
132	0x3db50a52	0.08839859
133	0x3e10ca73	0.14139728
134	0x3e8c7b9e	0.27438062
135	0xbe051779	-0.12997235
136	0xbdbd46b0	-0.09241998
137	0x3e2248b2	0.15848044
138	0x3e16b171	0.14716126
139	0x3eb453f8	0.35220313
140	0x3e234653	0.15944795
141	0x3e970b8f	0.29501006
142	0x3e5f66b9	0.2181653
143	0xbe259da4	-0.16173416
144	0x3cae794e	0.021298077
145	0x3e4d9c96	0.20079264
146	0xbd5ed5d8	-0.054403156
147	0xbbb557f9	-0.005534169
148	0x3d7ace07	0.06123164
149	0xbd2632b9	-0.040575717
150	0xbdaf119f	-0.08548283
151	0x3e8a227a	0.2697943
152	0xbd0b7231	-0.03404445
153	0xbccbefe5	-0.024894664
154	0xbd43eb0c	-0.04783158
155	0xbe654972	-0.22391298
156	0x3eefdeb0	0.46849585
157	0xbd38f7ad	-0.045158077
158	0xbd286a6c	-0.041117117
159	0x3c49ddba	0.01232093
160	0x3e0f4bc8	0.13993752
161	0xbe064def	-0.13115667
162	0x3e89a482	0.26883322
163	0xbe2542b2	-0.16138723
164	0x3de53483	0.111916564
165	0x3e50cc7b	0.20390503
166	0xbe03df30	-0.12878108
167	0xbe673ed9	-0.22582568
168	0xbde28e58	-0.11062306
169	0x3dfd5f3a	0.12371679
170	0x3c504ba3	0.012713346
171	0x3e25ab0c	0.1617853
172	0xbe186146	-0.14880857
173	0x3c02a58d	0.007974041
174	0x3d938717	0.07203501
175	0x3dabffb8	0.08398384
176	0xbd9709ec	-0.07374939
177	0xbe46d9de	-0.19419047
178	0x3d8a17f6	0.067428514
179	0xbc1ae728	-0.009454526
180	0xbc453d14	-0.012038488
181	0x3d179bd0	0.03701383
182	0x3eed6c96	0.46371907
183	0x3e49c60c	0.19704455
184	0xbe54b12d	-0.20770712
185	0x3e8513bd	0.25991622
186	0xbddfd475	-0.10929195
187	0xbe0971a3	-0.13422255
188	0xbd24144f	-0.04005843
189	0x3c7d35a4	0.015454683
190	0x3d58f445	0.05296733
191	0x3ea7f86f	0.32806727
192	0xbac460cc	-0.0014982461
193	0xbdf9b24d	-0.12192211
194	0xbdb8317f	-0.08993816
195	0x3e1b7155	0.15179951
196	0xbcd41a8d	-0.025891567
197	0xbc004546	-0.007829016
198	0xbda9f5e2	-0.082988515
199	0x3dbc26eb	0.091871105
200	0x3d80be0a	0.06286247
201	0xbe489720	-0.195889
202	0x3bba479f	0.0056848074
203	0x3e3be528	0.18349135
204	0xbe30e303	-0.17274098
205	0xbe296a7f	-0.16544531
206	0xbd8ba8d5	-0.068193115
207	0xbd8cb3de	-0.068702444
208	0xbe20e12d	-0.15710898
209	0xbc8d719d	-0.01726609
210	0x3d1a86ce	0.037726216
211	0x3d3b0f9a	0.045669176
212	0x3c839427	0.016061855
213	0xbdd3cb68	-0.10341531
214	0x3dc05502	0.09391214
215	0xbe763127	-0.24042188
216	0x3be97eb4	0.0071257
217	0x3ba31938	0.0049773715
218	0x3d372345	0.04471137
219	0x3df56330	0.11981809
220	0xbb8d4e94	-0.0043123458
221	0xbcbefc29	-0.023313599
222	0x3d01b776	0.031669103
223	0xbddd9936	-0.10820238
224	0xbe14d958	-0.14536035
225	0x3d4f787f	0.050652023
226	0xbd662bba	-0.056194045
227	0xbd232357	-0.039828625
228	0xbe2fa719	-0.17153586
229	0xbdc9aefa	-0.09847827
230	0xbdf46196	-0.119326755
231	0x3e2f2944	0.17105585
232	0x3d1be273	0.038057756
233	0xbd9df1d8	-0.07712144
234	0xbca3c449	-0.019991057
235	0xbd45085f	-0.048103686
236	0xbd87c804	-0.06629947
237	0xbe21ba6f	-0.15793775
238	0xbe0d1662	-0.1377807
239	0x3d30cd93	0.0431648
240	0xbe44c3e1	-0.19215347
241	0x3c5b3a11	0.013380543
242	0xbd37d6e8	-0.044882685
243	0xbdf42367	-0.11920815
244	0x3d44ef6d	0.048079897
245	0x3ca4ed78	0.020132765
246	0xbea5f58d	-0.32413903
247	0xbde54a3d	-0.111958005
248	0x3e092e6a	0.13396612
249	0x3cc10eef	0.023566691
250	0xbd0cceff	-0.034377094
251	0x3b2ed034	0.0026674392
252	0xbcdc6dac	-0.026907764
253	0xbd8fe106	-0.07025342
254	0xbcc79efc	-0.024367802
255	0xbdb1f06c	-0.08688435

mlp.0.bias f4 [64]
0	0xbd40b6d7	-0.04704937
1	0xbb1c2a3c	-0.0023828885
2	0x3dfdcfd0	0.12393153
3	0xbe30ff8e	-0.17284986
4	0x3dd95081	0.10611058
5	0x3e06ba84	0.13157088
6	0xbde1bdfc	-0.11022565
7	0xbc8b911f	-0.017036973
8	0xbdc7d524	-0.0975745
9	0x3e12af85	0.14324768
10	0xbdd34376	-0.103156015
11	0xbd3d2a4a	-0.046182908
12	0xbe369dd3	-0.17833643
13	0x3dca00ba	0.0986342
14	0xbdb80287	-0.08984857
15	0xbd0b2988	-0.033975154
16	0xbe1f9467	-0.15583955
17	0x3db3f4cb	0.08786925
18	0x3d1b677b	0.037940484
19	0x3d5f1c1f	0.054470178
20	0xbe31bc9f	-0.1735711
21	0x3d8fac6e	0.0701531
22	0x3e1fc020	0.15600634
23	0xbd56a75f	-0.05240571
24	0x3e0d98ab	0.1382777
25	0xbe226e69	-0.1586243
26	0x3cf1961e	0.029490527
27	0x3e1574c8	0.1459533
28	0x3df7bc45	0.120964564
29	0xbd801256	-0.06253497
30	0x3e0c327b	0.13691132
31	0x3d738497	0.05945262
32	0x3c814607	0.015780462
33	0xbb853de8	-0.0040662177
34	0xbd82dbb9	-0.06389565
35	0xbb03c4db	-0.0020106349
36	0xbdf88a71	-0.121357806
37	0xbd55b955	-0.0521787
38	0x3e2d1e6d	0.16906138
39	0xbd085fe5	-0.033294577
40	0x3da52120	0.08062959
41	0xbc0dc27b	-0.008652325
42	0xbce8e534	-0.028429605
43	0xbd3a1062	-0.04542578
44	0xbc14b687	-0.009076721
45	0xbdfaaaa3	-0.122395776
46	0xbd9cdc6a	-0.07659228
47	0x3e019f0e	0.12658331
48	0xbdec66fe	-0.11543082
49	0x3e343fe3	0.17602496
50	0xbd6bcb96	-0.0575672
51	0xbe119011	-0.14215113
52	0xbdac3318	-0.08408183
53	0xbd3bff90	-0.04589802
54	0x3e140de7	0.14458428
55	0x3da17d34	0.07885209
56	0x3e2c5138	0.16827857
57	0xbc36ac71	-0.011149512
58	0xbc2b8fe3	-0.010471317
59	0x3d37d00c	0.044876143
60	0xbd67126e	-0.05641406
61	0x3dc3b89b	0.09556695
62	0x3dc5c605	0.0965691
63	0x3d3c6829	0.045997772

mlp.2.weight f4 [64, 64]
0	0x3df05f40	0.117369175
1	0x3da8c3fb	0.08240505
2	0xbd17f3ab	-0.037097614
3	0x3c43c42b	0.011948626
4	0x3d9cfede	0.076657996
5	0x3ca44ae1	0.020055236
6	0x3db4ba76	0.08824627
7	0xbe17d401	-0.14826967
8	0x3d5a26c5	0.05325963
9	0x3cc42f3a	0.0239483
10	0x3e708ccf	0.23491214
11	0x3d85de64	0.06536558
12	0x3dfc5bcd	0.12322197
13	0xbc0ce407	-0.008599288
14	0x3dd91dec	0.1060141
15	0xbd96e2eb	-0.073675
16	0xbf484fa0	-0.782465
17	0xbc4c0cd9	-0.012454235
18	0xbd300f26	-0.042983197
19	0xbe351c97	-0.17686687
20	0xbe083171	-0.1330011
21	0xbf17cff8	-0.5930171
22	0x3d7eb31c	0.06218253
23	0xbe281334	-0.16413575
24	0x3dbf6644	0.093456775
25	0x3cb42567	0.021990491
26	0xbf1d5fa9	-0.6147409
27	0x3e6beb07	0.23038875
28	0x3a2291f9	0.0006201561
29	0x3e88b61a	0.26701432
30	0x3ddcf129	0.10788185
31	0x3db2c084	0.08728126
32	0xbd58618a	-0.052827395
33	0x3cd7e4ba	0.026354183
34	0x3e838c58	0.2569301
35	0xbe58639f	-0.21131752
36	0xbe7f0fde	-0.24908397
37	0x3e963bc2	0.29342467
38	0xbd9e62fb	-0.07733723
39	0xbd1a387b	-0.03765152
40	0x3e65a3ae	0.2242572
41	0xbcc7188a	-0.024303693
42	0x3d111a64	0.03542556
43	0x3d470380	0.048587322
44	0x3da08d92	0.078395024
45	0xbd16795b	-0.036736827
46	0xbe01243b	-0.12611477
47	0xbbd4d5ee	-0.006495229
48	0xbd0cf462	-0.03441275
49	0x3eae8b02	0.3409043
50	0xbb830667	-0.003998566
51	0x3e2b28e8	0.16714823
52	0xbd9ee4ab	-0.07758459
53	0xbed35cdf	-0.41281793
54	0x3cc2d283	0.02378202
55	0x3d9b8d71	0.07595337
56	0xbc6e1a86	-0.014532691
57	0x3d3111dc	0.043229923
58	0x3dc9079d	0.09815905
59	0x3e4438ff	0.19162367
60	0x3c969fb5	0.018386701
61	0x3d9ba26b	0.07599338
62	0xbd522f1c	-0.05131446
63	0xbde47dff	-0.11156844
64	0xbcbb06cd	-0.022830391
65	0x3d871f8c	0.06597814
66	0xbe29d5ff	-0.1658554
67	0x3dfc2758	0.12312192
68	0x3d48d763	0.049033534
69	0xbc6bbe92	-0.014388697
70	0xbdbc3c66	-0.091912076
71	0xbb991edc	-0.004672868
72	0xbcdb4691	-0.026767047
73	0x3dd7b798	0.105330646
74	0xbd136c00	-0.03599167
75	0xbddf8298	-0.10913581
76	0x3d40e5dd	0.047094215
77	0xbc7423c8	-0.014901109
78	0x3e16baa6	0.14719638
79	0x3e1c286d	0.15249796
80	0x3e45725a	0.19281903
81	0xbe03f262	-0.1288543
82	0xbe73538a	-0.23762336
83	0x3d89a701	0.067213066
84	0x3d811eb2	0.06304683
85	0xbe224594	-0.15846854
86	0x3d5e53cb	0.05427913
87	0xbd975d23	-0.07390811
88	0xbd9027b1	-0.070388205
89	0x3ebde986	0.37092227
90	0xbe2487e9	-0.1606747
91	0xbd41b49c	-0.047291383
92	0xbcb042a3	-0.02151615
93	0xbda7ee32	-0.08199729
94	0xbdb1fa4c	-0.086903185
95	0x3dbe1f8b	0.0928336
96	0x3e21441e	0.15748641
97	0xbdf369ae	-0.11885391
98	0xbd153c10	-0.036434233
99	0x3d99dfe9	0.075134106
100	0x3dd56ad3	0.10420766
101	0x3e1e6bc4	0.15470797
102	0xbe8904c1	-0.2676144
103	0xbe152584	-0.14565092
104	0xbf3d2bed	-0.7389515
105	0xbe4008eb	-0.18753402
106	0x3e4ac122	0.19800237
107	0xbc9338e0	-0.017971456
108	0x3e22c205	0.15894325
109	0x3dcda5b2	0.100413695
110	0xbd83c075	-0.06433193
111	0xbd4cec3c	-0.05002998
112	0x3c0c63ac	0.0085686855
113	0xbd679c6d	-0.056545664
114	0x3cb4f069	0.022087293
115	0xbe08c4e5	-0.1335636
116	0xbdc6c52f	-0.097055785
117	0xbc859a8f	-0.01630905
118	0xbc2b74a8	-0.010464825
119	0xbd3a37da	-0.04546342
120	0x3e3e6dd8	0.1859659
121	0x3d90ce5c	0.0707061
122	0x3dca61c1	0.09881926
123	0x3e8678dd	0.26264086
124	0xb9aa3447	-0.00032463876
125	0xbde1413c	-0.109987706
126	0xbe49de68	-0.19713748
127	0x3e9604e2	0.293006
128	0x3de419ca	0.111377314
129	0xbc6482b7	-0.0139471805
130	0xbc000736	-0.007814219
131	0x3d3f2eaa	0.04667536
132	0x3d7b98af	0.061424907
133	0xbdcd5f85	-0.100279845
134	0xbc337e70	-0.010955438
135	0xbd02d840	-0.031944513
136	0xbd617b06	-0.055048965
137	0x3cabe69c	0.020983987
138	0x3d92e57b	0.07172676
139	0x3d4366c1	0.047705416
140	0x3de9d54c	0.11417636
141	0x3ca4eaba	0.020131458
142	0xbd774536	-0.06036874
143	0xbdf66a21	-0.12031961
144	0xbd0ee09b	-0.03488217
145	0xbe1f1586	-0.15535554
146	0xbd8c9439	-0.06864209
147	0x3ddade9e	0.10686992
148	0x3d7daae3	0.06193055
149	0x3e177d23	0.1479383
150	0xbdf591c1	-0.11990691
151	0x3e0139f6	0.12619767
152	0xbd7c1d4f	-0.06155139
153	0x3cf1c956	0.02951495
154	0x3e089064	0.1333633
155	0xbe30e3af	-0.17274354
156	0xbd4c3fe0	-0.049865603
157	0xbe382ac7	-0.17985068
158	0xbddf1f8a	-0.108946875
159	0x3da8f788	0.08250338
160	0xbc99b6c8	-0.018763915
161	0xbd7f9417	-0.06239709
162	0xbe1f72bf	-0.15571116
163	0x3d0c5c64	0.034267798
164	0xbe00c5e7	-0.12575494
165	0xbe044e43	-0.1292048
166	0xbe2451e9	-0.16046871
167	0xbda8d500	-0.082437515
168	0xbe440a1d	-0.19144483
169	0x3d133811	0.03594214
170	0x3d9a8747	0.07545333
171	0xbe364ac0	-0.17801952
172	0x3c06a9f1	0.008219228
173	0x3d864a6d	0.06557164
174	0xbd31cb22	-0.043406613
175	0xbdd5fa7d	-0.104481675
176	0xbe14da66	-0.14536437
177	0xbdf45b37	-0.1193146
178	0xbd91567c	-0.07096574
179	0x3da26261	0.079289205
180	0xbd0b593f	-0.03402066
181	0x3d102c8e	0.03519874
182	0xbc1b76b3	-0.009488749
183	0xbcb730f2	-0.022362206
184	0xbd942da8	-0.07235271
185	0xbd2db49a	-0.042408563
186	0xbd88de93	-0.06683078
187	0x3d492149	0.04910401
188	0xbda83134	-0.0821251
189	0xbd1ed484	-0.03877689
190	0xbd524ee0	-0.051344752
191	0x3daab14f	0.083346
192	0xbda0bbac	-0.078482956
193	0xb8312ede	-4.2243737e-05
194	0xbe4cf769	-0.20016254
195	0x3de5086a	0.111832455
196	0x3dc22614	0.09479919
197	0x3bd3b6b4	0.006460989
198	0xbd5085d1	-0.050908867
199	0x3d39f3a7	0.04539838
200	0x3dd58dfc	0.10427472
201	0x3ab3c56b	0.0013715451
202	0x3d02d4ce	0.031941228
203	0xbd4c251c	-0.049840078
204	0xbc762b29	-0.015024939
205	0xbcf660f9	-0.030075537
206	0x3db3eb53	0.08785119
207	0x3e697979	0.22800244
208	0xbe0d29c3	-0.13785462
209	0x3dd1bc7c	0.10241029
210	0x3daaae53	0.08334031
211	0xbe92fe3b	-0.28709587
212	0x3d1cef3c	0.03831409
213	0xbe16cd80	-0.1472683
214	0x3d81bf8a	0.06335361
215	0x3cc4d9a8	0.024029568
216	0x3d73d4ea	0.059529223
217	0xbd0fe6cc	-0.035132214
218	0x3e50a63b	0.20375912
219	0x3e1b36fc	0.15157694
220	0x3d8f84ac	0.07007727
221	0xbdb1e2bc	-0.08685824
222	0xbdc64695	-0.09681431
223	0xbde75a29	-0.112964936
224	0x3c6f93ff	0.014622687
225	0x3c9bdfc5	0.0190276
226	0xbe6971d0	-0.22797322
227	0xbe6f137b	-0.23347275
228	0x3df8522e	0.121250495
229	0xbbfd397b	-0.0077277995
230	0x3d4abad1	0.04949457
231	0x3dfd5d04	0.12371257
232	0x3dadbeca	0.08483656
233	0xbd6431f8	-0.055711716
234	0x3d2f9f75	0.04287668
235	0x3d657b4b	0.056025784
236	0xbdf11499	-0.11771507
237	0x3d69f1b5	0.057115275
238	0x3d828b25	0.06374196
239	0xbd2532c7	-0.04033163
240	0xbe2680fa	-0.16260138
241	0x3a23b308	0.0006244634
242	0x3c7c3479	0.01539337
243	0x3e30aa07	0.1725236
244	0x3e09bc71	0.13450791
245	0xbe404822	-0.18777516
246	0xbd300a3c	-0.04297851
247	0x3d02b1e4	0.03190793
248	0xbcf22bc3	-0.029561883
249	0xbc87a44d	-0.016557837
250	0xbe371e17	-0.17882572
251	0xbe067099	-0.1312889
252	0x3e1d77d5	0.15377744
253	0x3e1568c6	0.14590749
254	0xbdf0097a	-0.117205575
255	0xbcec1c80	-0.028822184

mlp.2.bias f4 [64]
0	0xbdb1a17b	-0.08673378
1	0x3d876713	0.06611457
2	0xbdbf5170	-0.09341705
3	0xbd015f9c	-0.03158532
4	0x3c8b8353	0.017030394
5	0x3da6b1ca	0.08139379
6	0xbcf251a7	-0.02957995
7	0x3da38694	0.07984653
8	0xbd69d69a	-0.057089426
9	0xbccd4071	-0.025055142
10	0x3ce4a661	0.027911367
11	0x3d3db400	0.04631424
12	0x3daa33e2	0.08310677
13	0x3b421381	0.0029613676
14	0xbd6a2853	-0.057167362
15	0x3e7d7567	0.24751817
16	0x3daf5fc0	0.08563185
17	0xbdd3e0af	-0.10345589
18	0x3e45a120	0.19299746
19	0x3e5c1b15	0.21494706
20	0xbe27355c	-0.16328949
21	0x3dc8f639	0.09812588
22	0x3e1fc64d	0.1560299
23	0x3d5748c7	0.05255964
24	0xbc96d859	-0.01841371
25	0x3d469123	0.048478257
26	0x3e555ab0	0.20835376
27	0x3dea3668	0.114361584
28	0xbdeadd7d	-0.11468027
29	0x3d65aee0	0.056074977
30	0xbc2cac92	-0.010539191
31	0xbd4bf916	-0.049798094
32	0xbe3fb6cf	-0.1872208
33	0x3daa730c	0.08322725
34	0xbae20e58	-0.0017246706
35	0x3e21ce40	0.15801334
36	0x3c7f52b1	0.01558368
37	0xbd36eb45	-0.044657964
38	0x3d5dc710	0.05414492
39	0x3e1ef514	0.15523177
40	0xbe409b81	-0.1880932
41	0x3d6d017d	0.057862747
42	0xbe16396b	-0.1467034
43	0xbd45c208	-0.048280746
44	0xbdcd01cc	-0.10010108
45	0x3e423847	0.1896678
46	0x3e41736e	0.18891689
47	0x3dc9f84e	0.098618135
48	0x3e80f541	0.25187114
49	0x3cf0b28d	0.029382015
50	0xbdd520df	-0.1040666
51	0x3d168c75	0.036755044
52	0x3bed2645	0.007237228
53	0x3d551de0	0.052030444
54	0x3d128e57	0.035780277
55	0x3d955a3e	0.07292603
56	0x3e281757	0.16415153
57	0x3d8c4772	0.068495646
58	0x3e2ffac3	0.17185502
59	0x3d245eec	0.040129587
60	0xbdb00963	-0.085955404
61	0x3e67e469	0.22645725
62	0x3e4ebe80	0.20189857
63	0xbe480178	-0.1953181

mlp.4.weight f4 [2, 64]
0	0x3dd44ea6	0.103665635
1	0xbe16fe31	-0.14745404
2	0xbcad981b	-0.021190694
3	0x3d81a3a7	0.06330042
4	0x3d6145f9	0.05499837
5	0xbe0dcc8e	-0.13847563
6	0x3df45c7c	0.119317025
7	0xbdde1640	-0.108440876
8	0x3d67365d	0.05644833
9	0xbdc54d3b	-0.09633871
10	0x3c6bd8c5	0.014394944
11	0xbeffd268	-0.49965215
12	0xbde8b96f	-0.11363494
13	0x3d0ef790	0.034904063
14	0xb9e7d6ad	-0.000442197
15	0xbdc8a904	-0.09797862
16	0xbd426bae	-0.047465973
17	0x38c89264	9.5640105e-05
18	0x3da675eb	0.0812796
19	0xbd6c0ed6	-0.057631336
20	0x3d3ee430	0.046604335
21	0x3e42c4dd	0.1902041
22	0xbd632c74	-0.055462316
23	0xbe5c0efa	-0.21490088
24	0xbda6c90d	-0.08143816
25	0xbd4a5ed2	-0.049406834
26	0x3e3db9b8	0.18527877
27	0x3e12e409	0.14344801
28	0x3a12a993	0.00055947265
29	0x3de9bda3	0.114131235
30	0xbd3f6d4e	-0.0467351
31	0xbe7c3d1e	-0.2463269
32	0x3e30293a	0.17203227
33	0x3e1414ac	0.1446101
34	0xbe480a36	-0.19535145
35	0xbdb2bad3	-0.0872704
36	0x3e165f6a	0.14684835
37	0x3df5d793	0.12004008
38	0x3dfd662f	0.123730056
39	0x3e133717	0.14376484
40	0xbdacbb32	-0.08434142
41	0x3d6820c4	0.056671873
42	0x3860081c	5.3413314e-05
43	0xbe542ffd	-0.20721431
44	0x3ebdaddb	0.37046704
45	0xbdf73853	-0.1207129
46	0x3e2c35bc	0.16817373
47	0xbe524415	-0.20533784
48	0xbe2a0c78	-0.16606319
49	0xbd8aebae	-0.067832336
50	0xbe72cc96	-0.23710856
51	0x3d817a75	0.06322185
52	0xbd1635bd	-0.036672343
53	0xbe4979e1	-0.196754
54	0x3d429fcb	0.04751567
55	0x3d213868	0.039360434
56	0xbdadbfb6	-0.084838316
57	0x3c8e42c3	0.017365819
58	0x3d147884	0.036247745
59	0x3e1003c4	0.14063936
60	0xbdd64877	-0.1046304
61	0xbdb79614	-0.08964172
62	0xbde5fe56	-0.11230151
63	0x3de6afe7	0.112640195
64	0xbe85a9e5	-0.26106182
65	0x3d46c920	0.04853165
66	0x3d600f35	0.054702003
67	0x3c8f5acf	0.017499356
68	0x3e249332	0.16071776
69	0xbd1db922	-0.038506635
70	0xbc6a0d5e	-0.014285414
71	0xbceee26d	-0.029160703
72	0xbd0e1956	-0.03469213
73	0xbd4d7b63	-0.0501665
74	0x3e89f6a6	0.2694599
75	0xbd5db9b6	-0.054132186
76	0x3c417978	0.011808746
77	0xbe1ed13e	-0.15509507
78	0xbac7164c	-0.001518914
79	0xbdebebb7	-0.115195684
80	0xbe07d305	-0.13264091
81	0x3b59d116	0.0033236197
82	0xbde7292f	-0.11287152
83	0xbdafc634	-0.08582726
84	0x3c76194a	0.015020678
85	0xbc31cf9c	-0.010852721
86	0xbd587ef8	-0.05285546
87	0x3db8246d	0.08991323
88	0xbcd3c3f0	-0.025850266
89	0xbd7f9ca1	-0.062405232
90	0xbd1d46c2	-0.038397558
91	0x3ca33d72	0.01992676
92	0xba9704ad	-0.0011521779
93	0xbe47bd26	-0.19505748
94	0xbddaa348	-0.10675675
95	0x3e3e393a	0.18576518
96	0x3e731cf2	0.2374151
97	0xbdd2ba17	-0.102894
98	0x3c11a38d	0.008889091
99	0xbd30031c	-0.042971715
100	0x3e88ed85	0.26743713
101	0xbe807ab7	-0.25093624
102	0x3de3c42d	0.11121402
103	0x3d830cbc	0.06398913
104	0x3db92504	0.09040263
105	0xbd24e4f0	-0.040257394
106	0x3de7fe0a	0.11327751
107	0xbe086671	-0.13320328
108	0xbe344515	-0.17604478
109	0xbdc9dcd2	-0.09856571
110	0xbc47ecd3	-0.012202459
111	0x3dc43df0	0.09582126
112	0x3c357eb1	0.011077569
113	0xbd651298	-0.055925936
114	0x3e87a60e	0.26493877
115	0xbd189650	-0.037252724
116	0xbc8bdca0	-0.017072976
117	0xbe3f3372	-0.18671969
118	0xbd685e3e	-0.0567305
119	0x3e102ef7	0.14080416
120	0xbe17d343	-0.14826684
121	0x3d0dd507	0.034626987
122	0xbc611ee1	-0.013740272
123	0x3dbb27c8	0.09138447
124	0x3d412006	0.04714968
125	0x3c5d4b2d	0.013506693
126	0x3dac66b3	0.08418026
127	0x3e49d238	0.19709098

mlp.4.bias f4 [2]
0	0x3d9de2db	0.07709285
1	0x3a92a3af	0.0011187698

class_embedding.weight f4 [5, 32]
0	0xbf432a43	-0.7623636
1	0x3f4d7ec1	0.80271536
2	0xc0150e67	-2.329004
3	0x3ef432be	0.47694963
4	0xbf431a0f	-0.7621164
5	0x3f0080f8	0.5019679
6	0xbf88675e	-1.0656545
7	0x3ed52787	0.4163172
8	0x3e9dd033	0.30822906
9	0xbfafedd6	-1.3744457
10	0xbf12360a	-0.5711371
11	0x3f6bcdca	0.92110884
12	0x3f0460c3	0.51710147
13	0x3f47c788	0.78038836
14	0x3f33dea3	0.7026159
15	0xbe930736	-0.2871644
16	0xbfe1a7b6	-1.7629306
17	0xbdb5823a	-0.08862729
18	0xbf9586a6	-1.1681716
19	0x3ed1370f	0.4086232
20	0xbd3154c6	-0.043293737
21	0xbc4486be	-0.011995016
22	0xbec85aa9	-0.39131668
23	0x3e45f66f	0.19332288
24	0x3d8a446e	0.06751333
25	0xbfb91adb	-1.4461321
26	0xbe0bfcef	-0.13670705
27	0xbefa370f	-0.4887013
28	0x3ecad1e3	0.39613256
29	0xbf4cee87	-0.80051464
30	0xbe9aa9b9	-0.30207613
31	0xbe9e348a	-0.3089946
32	0x3ec29c92	0.3801008
33	0x40202c36	2.5026984
34	0xbf55bccf	-0.83491224
35	0x3fcf7820	1.6208534
36	0xbbc9559d	-0.006144239
37	0x3fa84482	1.3145907
38	0xbf43550d	-0.7630165
39	0x3ecc9375	0.3995625
40	0xbf31bebc	-0.6943166
41	0x3df93902	0.121690765
42	0x401637d9	2.3471587
43	0xbf72fecb	-0.94920033
44	0xbeb77e24	-0.35838425
45	0x3f04492e	0.51674163
46	0xbfc7c50e	-1.5607011
47	0x3e3f4b0d	0.18680973
48	0x3fac3743	1.3454365
49	0x40206c54	2.5066118
50	0x3e1c3a2c	0.15256566
51	0xc00fe4b1	-2.2483332
52	0x3ebd3158	0.3695171
53	0x3f035a8f	0.51310056
54	0x3f94f8ec	1.1638465
55	0x3f643b23	0.89152735
56	0xbe6f11c2	-0.23346618
57	0x40338112	2.8047528
58	0x3f19b1f0	0.60037136
59	0x40008bc0	2.0085297
60	0xbe84ac4e	-0.25912708
61	0xbe819a6f	-0.25313136
62	0xbfb51347	-1.4146508
63	0xbf15ba65	-0.5848754
64	0xbf33c201	-0.702179
65	0xbf4bd12e	-0.7961606
66	0xbf0679ca	-0.52529585
67	0x3f165067	0.58716434
68	0x3ca990b2	0.020698879
69	0xbf36d731	-0.71422106
70	0xbf7fa1da	-0.9985634
71	0xbeeccba6	-0.4624912
72	0xbe7db525	-0.24776132
73	0x3f601bbc	0.8754232
74	0x3fecb434	1.8492494
75	0x3e7470f7	0.23871218
76	0x3ec514ea	0.3849252
77	0x3e702ed5	0.23455365
78	0xbf0f93fa	-0.5608517
79	0x3d8e4acd	0.06947861
80	0x3e38d6fa	0.18050757
81	0x3f3d4c32	0.7394439
82	0xbfa54640	-1.2912064
83	0x3f47e24c	0.78079677
84	0x3f290ff2	0.66039956
85	0x3f2aa9b8	0.6666522
86	0x3ed53a57	0.41646072
87	0xbed7b710	-0.42131853
88	0xbf268419	-0.65045315
89	0x3f8355a7	1.0260514
90	0x3e614155	0.21997578
91	0x3fac84c6	1.3478019
92	0xbdb51619	-0.088421054
93	0xbe6b4c96	-0.22978434
94	0xbf159f59	-0.5844627
95	0x3e89714a	0.26844245
96	0x3ea60310	0.32424212
97	0xc006e0ac	-2.107463
98	0xbfff425d	-1.9942127
99	0xbf9c5e55	-1.2216288
100	0x3f2b590b	0.66932744
101	0x3f018f99	0.5060974
102	0x3f7ce244	0.98782754
103	0x3f94a8c7	1.1614007
104	0xbe8b864a	-0.27250892
105	0xbe1571c9	-0.14594187
106	0xbf852c6d	-1.0404183
107	0xbf9780ca	-1.1836178
108	0x3f1fa5d7	0.62362427
109	0x3e4d75b5	0.20064433
110	0xbf36d57c	-0.714195
111	0x3f02d8f3	0.5111229
112	0xbd3299f9	-0.04360387
113	0x3f570647	0.83993953
114	0xbe227ea5	-0.15868624
115	0xbf96186f	-1.1726207
116	0xbf5bfc7b	-0.8593213
117	0xbe5e952a	-0.21736589
118	0xbfba5cb8	-1.4559546
119	0x3d50e980	0.051003933
120	0x3dacdbbb	0.08440348
121	0xbf807e77	-1.0038594
122	0xbec7023a	-0.38868886
123	0xbfcd4180	-1.6035614
124	0xbe62f46f	-0.22163557
125	0x3dfb51e8	0.12271482
126	0x3e61e06a	0.22058263
127	0xbe8ab343	-0.2708989
128	0xbf980468	-1.1876345
129	0xbfa0a18d	-1.2549301
130	0xbdd8672f	-0.10566556
131	0xbf80b7f0	-1.0056133
132	0xbd805102	-0.06265451
133	0xbed17012	-0.40905815
134	0xbec46fe7	-0.38366625
135	0x3f0a9dd5	0.5414708
136	0x3e6f3076	0.2335833
137	0xbe41fb45	-0.18943508
138	0x3f301756	0.6878561
139	0xbfea76ce	-1.8317506
140	0xbfafde3c	-1.3739696
141	0xbeafd9c7	-0.34345838
142	0x3f7fda45	0.9994243
143	0xbf3984da	-0.7246834
144	0xbe8f50f7	-0.2799146
145	0xbf0d2dce	-0.5514802
146	0x402a3b14	2.6598558
147	0xbfa5903a	-1.293464
148	0x3e3bafe6	0.18328819
149	0x3fa1671d	1.2609593
150	0x3f8aa3de	1.0831258
151	0x402f2e79	2.7372115
152	0xbe85cd8f	-0.2613339
153	0xbf963afe	-1.1736753
154	0x3ebafe3e	0.36522096
155	0xbfbf6a5c	-1.4954333
156	0xbcedf889	-0.029049175
157	0x3f621f25	0.8832877
158	0xbf012e92	-0.50461686
159	0x3ef276de	0.47356313

mixing_layer.weight f4 [64, 35]
0	0xbc9b68b6	-0.018970829
1	0xbdbec698	-0.093152225
2	0x3e4474cd	0.19185181
3	0x3d07cebb	0.033156138
4	0x3d1c8138	0.03820917
5	0x3c987d9b	0.01861458
6	0xbb0626dd	-0.0020469942
7	0x3ccf957c	0.025339834
8	0x3dd32926	0.10310583
9	0x3e59788b	0.2123739
10	0xbcd66ea0	-0.026175797
11	0x3dcce362	0.10004307
12	0x3c98c323	0.018647736
13	0x3c65536f	0.013996943
14	0x3e02d801	0.12777711
15	0xbd6e026b	-0.058107775
16	0x3dbfada6	0.09359293
17	0x3e1772c7	0.14789878
18	0x3d4f4f17	0.050612535
19	0x3dba3f66	0.090941235
20	0xbda45b05	-0.08025173
21	0x3d6e3c8f	0.058163222
22	0xbd829773	-0.06376543
23	0x3d1b2a3f	0.037882086
24	0x3d9a9063	0.07547071
25	0x3dbd248c	0.092354864
26	0xbe23b5a4	-0.15987259
27	0xbc866228	-0.016404226
28	0xbd3f7319	-0.046740625
29	0xbd85b88b	-0.065293394
30	0x3dd4f579	0.10398383
31	0x3e2a4e15	0.16631348
32	0x3d79209e	0.06082212
33	0x3e3142dc	0.17310661
34	0x3e332ff7	0.17498766
35	0xbeeb19ef	-0.45918223
36	0xbd99dfb7	-0.07513373
37	0x3eb05a14	0.34443724
38	0xbe13117c	-0.14362139
39	0xbc09d9bf	-0.008413731
40	0x3e6441d0	0.2229073
41	0xbd2dc920	-0.042428136
42	0x3dc204b9	0.09473557
43	0xbdc949e5	-0.098285474
44	0x3df592fa	0.11990924
45	0xbe555d47	-0.20836364
46	0xbddf1545	-0.10892729
47	0x3e6accf3	0.22929744
48	0xbca3d271	-0.019997807
49	0xbdf81c32	-0.12114753
50	0xbe3dfecb	-0.18554227
51	0xbe4bcaef	-0.19901632
52	0x3d913d97	0.070918255
53	0x3bf997ba	0.007616964
54	0x3e844006	0.25830096
55	0xbd7f0929	-0.062264595
56	0xbe1c89ef	-0.15286992
57	0x3e13685a	0.14395276
58	0x3e3564c3	0.17714219
59	0xbd2e5859	-0.042564724
60	0x3d70a73f	0.05875325
61	0x3e12086d	0.14261027
62	0xbe37e81b	-0.17959635
63	0xbdc09172	-0.094027415
64	0x3da797f3	0.08183279
65	0x3d9e5ece	0.07732926
66	0x3c307592	0.010770218
67	0x3dd611bd	0.10452602
68	0xbe0195b1	-0.12654759
69	0xbe0ac9d6	-0.13553557
70	0x3e66c13f	0.22534655
71	0xbc94c2a6	-0.018159222
72	0xbf14e350	-0.5815935
73	0x3d8f835d	0.070074774
74	0xbd877834	-0.06614724
75	0x3e38cd14	0.18046981
76	0xbdeae1a0	-0.11468816
77	0xbe16c3bb	-0.14723103
78	0xbd3bc656	-0.045843445
79	0xbcffe179	-0.031235443
80	0x3daa6ca8	0.08321506
81	0x3e4362b3	0.1908062
82	0x3d503131	0.050828163
83	0xbe2a7535	-0.16646273
84	0x3dadba4a	0.084827974
85	0xbdd66f96	-0.10470502
86	0x3d9f19e1	0.07768608
87	0xbd4d248c	-0.050083682
88	0x3def9694	0.116986424
89	0x3e135aa6	0.14390048
90	0x3dcf83ac	0.10132536
91	0xbc941008	-0.01807405
92	0x3ddca63c	0.10773894
93	0xbd151bbb	-0.0364034
94	0xbe19ece2	-0.1503177
95	0x3ddd34b9	0.10801072
96	0xbd6372dd	-0.055529464
97	0x3e10df52	0.1414769
98	0x3de5e53a	0.11225362
99	0xbab0e2f6	-0.0013495374
100	0xbe03ecfa	-0.12883368
101	0x3e5abcac	0.21361035
102	0x3d09c035	0.03363057
103	0x3db31742	0.087446705
104	0xbd7e7ff0	-0.06213373
105	0x3cfe8bbf	0.031072496
106	0xbe91e955	-0.2849833
107	0x3f4d0c80	0.800972
108	0x3d9b4e18	0.075832546
109	0x3e351fcf	0.17687915
110	0xbcc8e490	-0.02452305
111	0x3d20712e	0.039170437
112	0x3d9844ce	0.074349985
113	0xbdb5ff50	-0.088865876
114	0x3ca431b3	0.02004323
115	0xbbbe6c15	-0.005811224
116	0xbd17e9d8	-0.037088245
117	0x3da6fcc6	0.081536815
118	0x3dd9802e	0.106201515
119	0xbb3383e0	-0.0027391836
120	0x3de0f8be	0.10984944
121	0xbe2df321	-0.16987278
122	0x3e62ae96	0.22136912
123	0x3c7a8d49	0.015292474
124	0x3d939fca	0.07208212
125	0xbc98f0ae	-0.018669453
126	0x3d60a1d3	0.054841828
127	0xbd31a57f	-0.04337072
128	0xbd5692ee	-0.052386217
129	0xbe5c6a46	-0.21524915
130	0xbdabea0e	-0.08394252
131	0xbdcb9dea	-0.09942229
132	0x3bd65ffd	0.0065422044
133	0xbdcbaebb	-0.099454366
134	0xbdf9b8bf	-0.12193441
135	0x3de57435	0.11203805
136	0x3e0c4df5	0.13701613
137	0x3d460676	0.048346005
138	0x3df1d884	0.11808875
139	0x3d0c394f	0.03423434
140	0xbd171cf4	-0.036892846
141	0x3e395441	0.18098547
142	0xbf268b89	-0.65056664
143	0x3c9905aa	0.018679459
144	0xbde905a3	-0.11378028
145	0x3e22962c	0.15877599
146	0xbda86f53	-0.082243584
147	0x3cee2153	0.029068625
148	0xbdcc8e48	-0.099880755
149	0x3de3b8c6	0.11119227
150	0x3d5dbf3a	0.054137446
151	0x3e0754cf	0.13215946
152	0x3c83a0dd	0.016067917
153	0xbccb55b7	-0.024821145
154	0x3e31e4fe	0.1737251
155	0xbda4a8b5	-0.08039991
156	0xbbc7abe1	-0.0060934876
157	0xbdc0fe28	-0.094234765
158	0x3df9e045	0.12200979
159	0x3e51bbfa	0.20481864
160	0x3dca051c	0.09864256
161	0x3d2fd872	0.042931028
162	0xbdc9be55	-0.09850756
163	0xbe020d72	-0.12700441
164	0xbdb2ce06	-0.08730702
165	0x3dabc4c5	0.0838714
166	0xbc8397c3	-0.016063577
167	0xbda10f5a	-0.07864256
168	0x3d41b5d7	0.047292557
169	0xbdc55b56	-0.096365616
170	0xbcc0a2a3	-0.023515051
171	0x3e10e269	0.14148869
172	0xbe120045	-0.14257915
173	0xbd4f1af6	-0.05056282
174	0xbe4a404d	-0.19751091
175	0xbd8ea2aa	-0.069646195
176	0x3ee5b9c1	0.4486828
177	0xbf42b964	-0.76064134
178	0x3e39c672	0.18142107
179	0x3ccda6cb	0.025103947
180	0x3e11d909	0.14242949
181	0xbe1ba5b7	-0.15199934
182	0xbcdf9c0d	-0.02729609
183	0x3d318a0f	0.043344554
184	0xbc76a88e	-0.015054835
185	0x3c890718	0.016727015
186	0x3ce857dc	0.028362207
187	0x3e237562	0.15962747
188	0xbd06c325	-0.032900948
189	0x3e2612fe	0.16218182
190	0xbdc13c8a	-0.09435375
191	0xbdefe2ef	-0.11713206
192	0x3e06adba	0.13152209
193	0x3e4196f8	0.18905246
194	0xbda3635a	-0.07977934
195	0x3d29a81e	0.041420095
196	0xbb93f287	-0.0045149955
197	0xbdd6b67d	-0.104840256
198	0xbb7d7ae0	-0.0038677976
199	0xbe24e597	-0.16103207
200	0xbd54de6a	-0.051969923
201	0x3daa269f	0.08308148
202	0x3d25d935	0.040490348
203	0x3d2da84e	0.042396836
204	0x3df86e4d	0.12130413
205	0xbd6f1301	-0.058367733
206	0x3db79542	0.089640155
207	0xbbe5899c	-0.0070049297
208	0x3de3004d	0.11084042
209	0x3dc13c85	0.09435371
210	0xbe963c4b	-0.29342875
211	0x3dac5cce	0.084161386
212	0xbf25e94b	-0.648091
213	0x3d68d75e	0.056846015
214	0x3d12465a	0.035711624
215	0x3e07aa3d	0.13248535
216	0xbb9466f0	-0.0045288727
217	0x3dc7ceff	0.09756278
218	0x3bf873a5	0.0075821453
219	0xbc82daf5	-0.015973547
220	0x3dcd31e5	0.10019282
221	0x3df6b9ac	0.12047133
222	0x3d13ba8f	0.036066588
223	0xbda0b172	-0.07846345
224	0xbceeca09	-0.029149072
225	0xbd4e6eab	-0.05039851
226	0xbcdd1e35	-0.026991943
227	0x3e09c790	0.13455033
228	0x3c98b1f8	0.01863955
229	0xbd07fc0d	-0.03319936
230	0xbc9178d4	-0.01775781
231	0xbde0091b	-0.10939237
232	0x3e1924c3	0.1495543
233	0xbd78b3a3	-0.06071819
234	0x3c18518d	0.009296787
235	0x3d27e4f1	0.04098982
236	0x3e0a61ff	0.13513945
237	0xbde355be	-0.111003384
238	0xbe0615e3	-0.13094287
239	0x3df4e067	0.11956864
240	0x3e0fc467	0.14039765
241	0x3d6eacad	0.058270145
242	0xbe173a66	-0.14768371
243	0xbe2ecd54	-0.17070514
244	0xbca21bd9	-0.01978867
245	0x3e5652bd	0.2093
246	0xbda9de3e	-0.082943425
247	0x3f59e410	0.8511362
248	0xbc3b34ec	-0.011426192
249	0x3da9f295	0.08298222
250	0xbd768520	-0.06018555
251	0x3c0dd9e1	0.008657903
252	0x3dc1d633	0.094646834
253	0x3da53c9f	0.08068203
254	0x3dedc69d	0.11610148
255	0xbdc5edcc	-0.09664497

mixing_layer.bias f4 [64]
0	0xbd5a7e56	-0.05334314
1	0xbe04662c	-0.129296
2	0x3ae0759e	0.0017124896
3	0xbe15ea67	-0.14640199
4	0xbdea25c2	-0.11432983
5	0xbd739e4c	-0.059477136
6	0xbd85872e	-0.06519924
7	0xbd919f84	-0.07110503
8	0x3c508ec9	0.012729355
9	0x3e3b0f55	0.18267567
10	0x3d67bf59	0.056578968
11	0x3e5af252	0.213815
12	0xbca99470	-0.020700663
13	0x3e3984d9	0.18117084
14	0x3d6d3a36	0.057916842
15	0x3d757056	0.059921585
16	0xbc82abb5	-0.015951017
17	0xbd756709	-0.059912715
18	0x3aafba9c	0.0013407054
19	0xbe6e61ad	-0.23279448
20	0xbde012ba	-0.10941072
21	0xbdb062d6	-0.086126015
22	0xbdeb408d	-0.114869215
23	0x3dc77100	0.0973835
24	0xbe2acf24	-0.1668058
25	0xbe461908	-0.19345486
26	0xbe7fd5c7	-0.24983893
27	0xbd97c003	-0.0740967
28	0x3da18158	0.078859985
29	0x3ca516b2	0.020152424
30	0xbd991460	-0.07474589
31	0xbd644d24	-0.05573763
32	0xbd143154	-0.036179855
33	0xbe244701	-0.16042711
34	0xbdcaac7e	-0.098961815
35	0x3cc23bb2	0.023710106
36	0x3d216a26	0.03940787
37	0xbd1e9100	-0.0387125
38	0x3da51650	0.080608964
39	0xbe14e5c5	-0.14540775
40	0xbe742a24	-0.238442
41	0x3d11ad97	0.03556594
42	0xbe61b01a	-0.22039834
43	0x3e7c2896	0.24624857
44	0x39131c0f	0.00014029465
45	0x3df35b13	0.118826054
46	0x3db8f622	0.09031321
47	0xbc2c636b	-0.01052175
48	0xbe3d5034	-0.18487626
49	0xbccebce4	-0.025236554
50	0x3d4e78cc	0.05040817
51	0x3d54beaf	0.051939663
52	0xbe210af4	-0.15726835
53	0xbe326a26	-0.17423305
54	0x3e540ec1	0.20708753
55	0xbdf5e2bf	-0.12006139
56	0xbe50ca49	-0.20389666
57	0x3e41bd92	0.18919972
58	0xbda8df6b	-0.082457386
59	0x3dc58329	0.096441574
60	0xbe0df1d2	-0.13861778
61	0xbd4a92c0	-0.049456358
62	0xbdf5396e	-0.119738445
63	0x3df5ace8	0.1199587
