checkpoints/my_model.pt (torch, 66464 bytes, 150 tensors)

layers.0.net.0.weight f4 [8, 1]
0	0xbf8aeb72	-1.0853102
1	0xbec0443f	-0.37552068
2	0xbea103ca	-0.31448203
3	0xbf1635d7	-0.58675903
4	0xbf087f1f	-0.5331897
5	0xbf264fa8	-0.64965296
6	0x3eed5506	0.4635393
7	0x3f2fb4de	0.68635356

layers.0.net.0.bias f4 [8]
0	0xbf6d35ce	-0.92660224
1	0x3ee8bab2	0.45454937
2	0x3eaff3cc	0.3436569
3	0x3f5bd6c0	0.8587456
4	0xbf22e7ef	-0.6363515
5	0xbf38eba7	-0.72234577
6	0x3e9d32ff	0.3070297
7	0x3ef34750	0.47515345

layers.0.net.2.weight f4 [8, 8]
0	0x3bbac357	0.005699556
1	0x3d57a8f3	0.052651357
2	0xbdb6fa83	-0.089345
3	0x3e3271b8	0.17426193
4	0x3f071f71	0.5278235
5	0x3f4f8777	0.8106608
6	0x3e61d12a	0.22052446
7	0xbec6386f	-0.3871493
8	0x3dd04ccd	0.101708986
9	0xbe437edc	-0.19091362
10	0x3d9671f9	0.07345957
11	0xbe9a3172	-0.3011585
12	0xbecc9b00	-0.39962006
13	0xbee75aee	-0.4518656
14	0x3dd0813d	0.101809
15	0xbe4ad81c	-0.19809002
16	0xbea84751	-0.3286691
17	0xbeddc0d0	-0.43311167
18	0x3d9232fd	0.071386315
19	0xbda6e1a0	-0.08148503
20	0xbf0c39e4	-0.54775834
21	0xbf2d2c54	-0.67645764
22	0x3f65354a	0.8953444
23	0x3f294000	0.6611328
24	0x3e14bc0b	0.14524858
25	0xbe886712	-0.26641136
26	0xbe910402	-0.2832337
27	0x3e60fd2b	0.21971576
28	0x3e9684be	0.2939815
29	0x3eb81144	0.35950673
30	0xbdb6c706	-0.089246795
31	0xbd99aa78	-0.075032175
32	0x3ef8983c	0.48553646
33	0x3da2706e	0.079316005
34	0xbe1609cd	-0.14652176
35	0xbd92abba	-0.071616605
36	0x3f24bc4a	0.64349806
37	0x3ebc042a	0.36721927
38	0x3d82d5ab	0.0638841
39	0x3d86d6b5	0.06583921
40	0x3de839c2	0.113391414
41	0xbc987631	-0.018611046
42	0x3ebf7db8	0.37400603
43	0x3e83a24d	0.25709763
44	0xbf40d1e1	-0.7532025
45	0xbe58a393	-0.21156149
46	0xbe877dbe	-0.2646312
47	0x3d4a218c	0.0493484
48	0xbea26ad4	-0.31722128
49	0xbf98c4cb	-1.1935056
50	0xbf07f561	-0.53108793
51	0xbf0db845	-0.553593
52	0x3cbb78eb	0.022884807
53	0xbed071d3	-0.4071184
54	0x3d9fc6b0	0.078015685
55	0x3df49362	0.119421735
56	0x3f8330c2	1.0249255
57	0x3e6b4d6f	0.22978757
58	0x3e1aa780	0.15102959
59	0x3e9ddcd6	0.30832547
60	0x3e40ec1a	0.18840066
61	0xbef1cc95	-0.47226396
62	0x3e646e00	0.22307587
63	0x3e0b9f88	0.13635075

layers.0.net.2.bias f4 [8]
0	0xbe87da08	-0.26533532
1	0xbb55e3f4	-0.0032637091
2	0x3d4af1e7	0.049547102
3	0xbe6912fd	-0.2276115
4	0xbe1c5e67	-0.15270387
5	0x3d8342a0	0.06409192
6	0x3e8672b3	0.26259384
7	0x3e992489	0.29910687

layers.0.net.4.weight f4 [8, 8]
0	0xbe69ddc3	-0.22838502
1	0xbebf7e97	-0.37401268
2	0x3eb51ca8	0.35373425
3	0x3e1970e4	0.1498447
4	0xbf0aa799	-0.54161984
5	0xbec15ed6	-0.37767667
6	0xbdaadf2a	-0.083433464
7	0xbebf1ff0	-0.37329054
8	0x3e9c66c0	0.30547142
9	0x3cfd44c5	0.03091658
10	0x3ea12c14	0.3147894
11	0xbf7abaf5	-0.97941524
12	0x3de3ae28	0.11117202
13	0x3d03d23e	0.032182924
14	0xbfb51645	-1.4147421
15	0xbda10441	-0.078621395
16	0xbf06607c	-0.52490973
17	0x3ecee660	0.40410137
18	0x3c637dd5	0.013884981
19	0xbc6e47c7	-0.01454348
20	0xbf0c3f80	-0.54784393
21	0x3f28fecd	0.66013795
22	0xbf5d9773	-0.8655922
23	0x3f08902e	0.53345
24	0xbefa6ccc	-0.4891113
25	0xbe00727e	-0.12543675
26	0x3dc67063	0.09689405
27	0xbeb13dd2	-0.34617478
28	0xbe9c8092	-0.3056684
29	0x3ec2ac22	0.38021952
30	0x3c9378b0	0.018001884
31	0x3ecae3e2	0.39626986
32	0x3e790215	0.243172
33	0xbed35a65	-0.41279903
34	0xc0218b4b	-2.5241268
35	0x3c85644a	0.016283173
36	0x3e42d830	0.19027781
37	0x3e9c102d	0.3048109
38	0xbf23f359	-0.64043194
39	0x3e9658e6	0.293647
40	0x3ed4fefb	0.41600785
41	0xbeb5e9b4	-0.35529864
42	0xbeb3f9e2	-0.35151583
43	0x3e55eab2	0.2089031
44	0x3e29e49d	0.16591115
45	0x3dcb1b08	0.09917265
46	0x3e422395	0.18958886
47	0xbf033940	-0.5125923
48	0x3d291e0a	0.041288413
49	0xbe53165a	-0.20613995
50	0x3c676e96	0.014125487
51	0x3d9984b8	0.07496017
52	0x3f0ec3d7	0.5576758
53	0x3dfed67c	0.124432534
54	0x3e5b34d9	0.21406879
55	0xbec1361a	-0.3773659
56	0xbeba0315	-0.36330476
57	0xbe6f01a3	-0.23340468
58	0x3f14439f	0.5791568
59	0x3eba4441	0.363802
60	0x3ea0d7b9	0.31414583
61	0x3e1b137d	0.15144153
62	0x3f801e8b	1.0009321
63	0x3f3d4d91	0.7394648

layers.0.net.4.bias f4 [8]
0	0xbebf8e90	-0.37413454
1	0x3d778633	0.060430717
2	0xbda62b4a	-0.081137255
3	0x3e1b3c43	0.15159707
4	0x3e6ec1a9	0.23316063
5	0x3c900435	0.017580131
6	0xbb5f9cce	-0.0034120562
7	0x3e291eac	0.16515607

layers.0.net.6.weight f4 [8, 8]
0	0xbe398420	-0.18116808
1	0xbf00b4b0	-0.5027571
2	0xbf1b005b	-0.6054742
3	0xbe21957a	-0.15779677
4	0x3ee9950b	0.45621523
5	0x3f025688	0.50913286
6	0x3f28e08f	0.6596765
7	0x3f273179	0.65309864
8	0xbd95cb86	-0.0731421
9	0xbebd2fc3	-0.36950502
10	0xbf112ec5	-0.5671199
11	0x3e7b6e74	0.24553853
12	0x3eb65d35	0.35617986
13	0x3eb1db35	0.34737554
14	0x3da595de	0.080852255
15	0xbd4c4198	-0.049867243
16	0xbe69fcbe	-0.2285032
17	0xbf1056d6	-0.563825
18	0xbcfd312a	-0.030907232
19	0xbecff649	-0.40617588
20	0x3e9f67e5	0.31133953
21	0x3e39a932	0.18130949
22	0x3ec17bdf	0.3778982
23	0x3d8374c9	0.064187594
24	0x3cdcdc1e	0.026960429
25	0xbe3aef15	-0.18255265
26	0x3f1227f2	0.570922
27	0x3e95e67c	0.29277408
28	0x3d209785	0.039207
29	0xbe3f8321	-0.18702365
30	0xbcde87c8	-0.027164355
31	0x3ed8c79b	0.42339787
32	0x3e013651	0.12618376
33	0xbf0a5998	-0.5404296
34	0x3f306342	0.68901455
35	0x3eafc5e8	0.34330678
36	0x3e8835a8	0.26603436
37	0xbec1c53c	-0.3784579
38	0xbe9fe815	-0.31231752
39	0x3e917688	0.28410745
40	0x3f97a8d6	1.18484
41	0xbef9e999	-0.48811033
42	0x3f2b6081	0.6694413
43	0x3e8ec637	0.278856
44	0xbf1f9ad0	-0.623456
45	0x3d9400b6	0.07226698
46	0xbe3c2bfc	-0.18376154
47	0x3e1f297c	0.15543169
48	0x3f0a6481	0.54059607
49	0xbd34bf6e	-0.044127874
50	0x3f51a644	0.81894326
51	0x3e2972cd	0.165477
52	0xbe51af57	-0.20477043
53	0xbd3a0b94	-0.045421198
54	0xbc4f97de	-0.012670485
55	0xbdabb278	-0.083836496
56	0x3d9cedea	0.07662566
57	0xbe6e7db8	-0.23290145
58	0xbeb745f8	-0.3579557
59	0xbf02efec	-0.5114734
60	0x3eca28af	0.39484164
61	0x3ece2e07	0.4026949
62	0x3e4de0a0	0.20105219
63	0x3e152b7d	0.1456737

layers.0.net.6.bias f4 [8]
0	0x3e61fabe	0.22068307
1	0x3f0ee111	0.55812174
2	0xbec11c8d	-0.37717095
3	0xbe10bc6d	-0.14134379
4	0x3ebd9250	0.3702569
5	0xbece2923	-0.4026576
6	0xbe7e97eb	-0.2486264
7	0xbe14d542	-0.14534476

layers.0.net.8.weight f4 [2, 8]
0	0xbf0482af	-0.5176191
1	0xbf3cbe49	-0.7372785
2	0x3ecfa513	0.4055563
3	0xbe9c03e5	-0.3047172
4	0xbe7603ac	-0.24024838
5	0xbebe51c1	-0.37171748
6	0x3e00f8fa	0.12594977
7	0xbf3b943f	-0.7327308
8	0xbf1a057f	-0.60164636
9	0xbf9911f4	-1.1958604
10	0x3eb2d94c	0.3493141
11	0x3f016819	0.50549465
12	0x3e3565f3	0.17714672
13	0x3fb4791c	1.409946
14	0x3f727cd2	0.9472171
15	0x3f9bd275	1.2173601

layers.0.net.8.bias f4 [2]
0	0x3e6205f9	0.22072591
1	0xbed1751f	-0.4090967

layers.2.net.0.weight f4 [8, 1]
0	0x3f84eef8	1.0385427
1	0xbef55335	-0.47915044
2	0xbf44b1de	-0.76833904
3	0xbf5cc269	-0.86234146
4	0xbf8a244e	-1.0792329
5	0x3f6e8e24	0.9318564
6	0x3f3ceefc	0.7380216
7	0xbdd5841f	-0.10425591

layers.2.net.0.bias f4 [8]
0	0x3e49e9db	0.19718115
1	0x3f08ba83	0.53409594
2	0xbf95aab5	-1.1692721
3	0x3e27e213	0.16394834
4	0xbf324d5b	-0.69649285
5	0xbf4bef37	-0.7966189
6	0x3ea72162	0.32642657
7	0x3ebbd37d	0.3668479

layers.2.net.2.weight f4 [8, 8]
0	0x3e433658	0.19063699
1	0x3cc77b59	0.024350809
2	0xbf2ed278	-0.682899
3	0x3e8b9770	0.27263975
4	0x3f84bccf	1.037012
5	0x3dacbc49	0.0843435
6	0xbbf162b0	-0.007366501
7	0x3dda7aa7	0.10667925
8	0x3f0f5f94	0.56005216
9	0xbe349102	-0.17633441
10	0x3f6a0492	0.91413224
11	0x3ea6d5c6	0.3258497
12	0x3d855d6b	0.06511959
13	0x3eded7b2	0.43523937
14	0x3c806819	0.015674638
15	0xbe7447e2	-0.23855546
16	0xbe8e4c27	-0.27792475
17	0xbf73ab7f	-0.9518356
18	0xbdf0d46d	-0.11759267
19	0xbeb57cb3	-0.354467
20	0xbe29b63e	-0.16573426
21	0x3f2128f7	0.6295313
22	0x3e68bbd5	0.22727902
23	0xbedf1b08	-0.4357531
24	0xbd659b34	-0.056056216
25	0x3e78d987	0.2430173
26	0xbf3e6995	-0.74379855
27	0x3c93c7c1	0.018039586
28	0x3f069824	0.525759
29	0xbe5f8783	-0.21829037
30	0x3d61af59	0.055098865
31	0x3e155962	0.14584878
32	0xbe62de9e	-0.22155234
33	0xbe36a47b	-0.17836182
34	0xbe987cce	-0.29782718
35	0xbe73a64f	-0.2379391
36	0xbe4c5556	-0.19954428
37	0x3ca3bcce	0.01998749
38	0xbe15e719	-0.14638938
39	0x3ddfbcd4	0.10924688
40	0x3e826a34	0.25471652
41	0x3f13b33f	0.5769538
42	0xbf2813a0	-0.65654945
43	0x3e44c8f9	0.1921729
44	0x3e7631c7	0.24042426
45	0x3f37a3eb	0.71734494
46	0xbe4d066b	-0.2002198
47	0xbdccd772	-0.100020304
48	0x3e9bddb4	0.30442584
49	0x3d60a5e3	0.054845702
50	0xbc241dc3	-0.010016861
51	0xbe4d9865	-0.20077665
52	0xbd457035	-0.048202712
53	0x3da84641	0.08216525
54	0x3e6e7c7a	0.23289672
55	0xbeb00e66	-0.34385985
56	0xbe9018a3	-0.28143796
57	0x3e87c253	0.26515445
58	0xbef7c647	-0.4839346
59	0x3e84891d	0.2588586
60	0xbe4e1d6e	-0.20128414
61	0xbe8d41b6	-0.27589196
62	0xbe527d0b	-0.20555513
63	0x3e9475d1	0.28996137

layers.2.net.2.bias f4 [8]
0	0x3eb1c24f	0.34718558
1	0xbe366d45	-0.1781512
2	0xbe0491e4	-0.12946278
3	0x3eeb3615	0.459397
4	0x3ddcd2d6	0.10782401
5	0xbe682e20	-0.22673845
6	0xbe4b3fd6	-0.1984857
7	0x3df4d3e8	0.119544804

layers.2.net.4.weight f4 [8, 8]
0	0xbe50a2bf	-0.20374583
1	0xbf748a6e	-0.95523727
2	0x3e940fc7	0.28918287
3	0xbe22cf3b	-0.15899365
4	0x3cb8c3f0	0.022554368
5	0x3ee274b4	0.44229662
6	0xbd65b9dd	-0.056085456
7	0x3ebe8b4b	0.37215647
8	0x3ec333df	0.38125512
9	0xbe07f4ec	-0.13277024
10	0xbea1a4a4	-0.31570923
11	0x3eb9c417	0.36282417
12	0xbe95e223	-0.2927409
13	0x3dc2fa9b	0.095204554
14	0xbec9bdef	-0.3940272
15	0x3e78356a	0.24239126
16	0x3deeff64	0.11669806
17	0xbf3c6af7	-0.73600715
18	0xbd313a4d	-0.04326849
19	0x3da8b9d6	0.082385704
20	0x3e92faba	0.28706914
21	0x3f3c8000	0.7363281
22	0xbf1cf03d	-0.61304075
23	0x3eb5974b	0.3546699
24	0x3f2a48c3	0.66517276
25	0x3e7a3340	0.24433613
26	0xbe94a262	-0.29030138
27	0x3e75836d	0.23975916
28	0xbce1d4b1	-0.02756724
29	0xbf2db95a	-0.6786095
30	0xbeac4fdf	-0.33654687
31	0xbe67832b	-0.2260863
32	0xbf2a3ea0	-0.6650181
33	0xbecec15c	-0.40381896
34	0xbe2102ea	-0.15723768
35	0xbe472b35	-0.19450076
36	0x3e9a9f03	0.3019944
37	0x3ea36ca3	0.3191882
38	0x3f06b9bc	0.5262716
39	0xbe3f146e	-0.18660137
40	0xbee8fe76	-0.45506638
41	0x3efb7a1e	0.49116606
42	0x3f068ae1	0.5255566
43	0xbf02d379	-0.5110393
44	0xbe5a82fa	-0.21339026
45	0x3ed2fe26	0.41209525
46	0xbd1a413b	-0.037659865
47	0xbe082d21	-0.13298465
48	0xbde39e3a	-0.11114164
49	0xbcc57339	-0.024102794
50	0xbee09d02	-0.43869787
51	0x3da2b9f8	0.07945627
52	0x3ec6fe04	0.38865674
53	0xbe4c4ce4	-0.19951206
54	0x3e94ec68	0.29086614
55	0x3e268971	0.16263367
56	0x3d353593	0.044240545
57	0x3e88284c	0.26593244
58	0x3f386f75	0.7204507
59	0xbeab7f81	-0.33495715
60	0x3cc3dc62	0.023908798
61	0x3f0eb27e	0.5574111
62	0x3f1d78d4	0.61512494
63	0xbdb644eb	-0.08899864

layers.2.net.4.bias f4 [8]
0	0x3d698154	0.057008103
1	0x3eb15b5e	0.3464002
2	0x3de34d39	0.110987134
3	0x3ef404b1	0.4765983
4	0xbe6ec0f2	-0.2331579
5	0xbdbe089d	-0.092789866
6	0x3e06ccab	0.13164012
7	0xbe289212	-0.16461971

layers.2.net.6.weight f4 [8, 8]
0	0x3e90aa03	0.2825471
1	0xbc8ceb4c	-0.017202042
2	0x3e87c3da	0.2651661
3	0xbe89f231	-0.2694259
4	0x3e26f52c	0.16304463
5	0x3d9c29c9	0.076251574
6	0x3e6c1f81	0.23058893
7	0xbf410234	-0.75393987
8	0xbecc42fa	-0.3989485
9	0xbf391caa	-0.7230936
10	0xbe6bcc0b	-0.23027055
11	0xbf9ac746	-1.2092063
12	0x3ec5bf4b	0.38622507
13	0x3ef27b39	0.47359636
14	0xbea26e41	-0.31724742
15	0x3f036bc1	0.51336294
16	0xbf2cc1b9	-0.674831
17	0x3e8a71ef	0.2704005
18	0xbebb0dd0	-0.36533976
19	0x3e8e3053	0.27771243
20	0xbe777ff9	-0.24169911
21	0xbf60954d	-0.87727815
22	0x3ede0f47	0.4337103
23	0xbf8289a5	-1.0198256
24	0xbdb379a2	-0.08763434
25	0xbd959b05	-0.07304958
26	0x3eaa7190	0.33289766
27	0xbec6195b	-0.3869122
28	0x3dd72ed4	0.10506979
29	0x3e9c45ee	0.30522102
30	0xbccfd768	-0.025371268
31	0xbf848fc8	-1.0356379
32	0x3e3e0af5	0.18558867
33	0x3c5e11e4	0.01355407
34	0x3d52e46b	0.051487368
35	0xb9ea54b2	-0.0004469506
36	0x3ec43d9c	0.38328254
37	0x3e8e244c	0.27762067
38	0x3dbdc3ea	0.09265883
39	0xbe1bfdaa	-0.15233484
40	0xbcce4a01	-0.025181772
41	0x3f0622fe	0.52397144
42	0x3ec35ae8	0.38155293
43	0x3e47c54b	0.19508855
44	0xbefd4383	-0.4946557
45	0x3e91c9b0	0.28474188
46	0xbe312b6d	-0.17301722
47	0x3f16278e	0.58654106
48	0xbe02cfa8	-0.12774527
49	0x3e3c3fe9	0.18383755
50	0x3a85c496	0.0010205682
51	0x3ef3b8aa	0.47601825
52	0xbe6a8bdf	-0.22904919
53	0xbee8d245	-0.45472923
54	0x3d9f3fa4	0.0777581
55	0x3e1451e4	0.14484364
56	0x3ecd2da7	0.40073892
57	0x3d089aa4	0.0333506
58	0xbd683004	-0.056686416
59	0xbf276607	-0.65390056
60	0x3d4dfe7f	0.050291535
61	0x3e38f89c	0.18063587
62	0x3e455733	0.19271545
63	0xbe3e39ce	-0.18576738

layers.2.net.6.bias f4 [8]
0	0xbe595548	-0.21223938
1	0xbe9f61b1	-0.3112922
2	0x3ee7af71	0.4525104
3	0x3c60c5e4	0.013719056
4	0xbe3f4448	-0.18678391
5	0xbde277b8	-0.11057991
6	0x3dc658da	0.09684916
7	0x3ef16471	0.47146943

layers.2.net.8.weight f4 [2, 8]
0	0x3d77bef9	0.06048486
1	0xbed40e05	-0.41416946
2	0xbf1d4fbe	-0.614498
3	0x3ee920cf	0.45532843
4	0x3dbb3ac2	0.091420665
5	0xbee52339	-0.44753435
6	0xbf268d7d	-0.65059644
7	0x3f133d69	0.5751558
8	0x3e0c4b4f	0.13700603
9	0xbedd0dfc	-0.43174732
10	0xbf27c0fc	-0.65528846
11	0x3ecd9e7a	0.4015997
12	0xbe4bd123	-0.19903998
13	0x3f1ce4c4	0.6128657
14	0xbaf5be9b	-0.0018748821
15	0xbd596574	-0.05307527

layers.2.net.8.bias f4 [2]
0	0x3f043822	0.5164815
1	0xbeb6e194	-0.35718977

layers.4.net.0.weight f4 [8, 1]
0	0xbec30bab	-0.3809484
1	0xbecfd668	-0.40593266
2	0x3f62977c	0.88512397
3	0xbce8e734	-0.028430559
4	0xbf866fa2	-1.0502818
5	0x3f15d2e3	0.5852491
6	0xbf7890c1	-0.97095877
7	0x3f712e2f	0.94211096

layers.4.net.0.bias f4 [8]
0	0x3f82c671	1.021681
1	0x3f8311ca	1.0239804
2	0x3eb54ec5	0.3541166
3	0x3f640f72	0.8908607
4	0x3f1651a7	0.5871834
5	0xbf038631	-0.51376635
6	0xbf36d307	-0.7141575
7	0xbf368cb5	-0.7130845

layers.4.net.2.weight f4 [8, 8]
0	0xbddff37e	-0.10935114
1	0x3e2d8ec6	0.16948995
2	0xbf35d5c0	-0.7102928
3	0xbeb6520b	-0.3560947
4	0xbc7e9044	-0.015537325
5	0xbe4dc42b	-0.20094363
6	0x3e7494dc	0.2388491
7	0xbe352370	-0.176893
8	0xbe03e5d8	-0.12880647
9	0x3dcc3a0e	0.099720106
10	0x3ba4e055	0.0050316253
11	0x3eb1f41c	0.34756553
12	0x3e18b538	0.1491288
13	0xbf36c418	-0.71392965
14	0xbc7f4204	-0.015579704
15	0xbf04e6e7	-0.5191483
16	0x3e1f6ec2	0.15569595
17	0xbeacfaeb	-0.33785185
18	0xbe09bb85	-0.1345044
19	0x3d0b3f13	0.0339957
20	0xbe1a8d52	-0.15092972
21	0x3ed53b77	0.4164693
22	0x3eea534d	0.45766678
23	0x3e8ae587	0.2712824
24	0x3e10bc2f	0.14134286
25	0x3dc24df1	0.094875224
26	0x3e192100	0.14953995
27	0x3eefef57	0.4686229
28	0xbe89a4e9	-0.2688363
29	0xbe442dbb	-0.1915807
30	0xbf65d4f9	-0.89778095
31	0x3e1f66c3	0.15566544
32	0xbf9f587b	-1.2448877
33	0xbf8948f8	-1.0725393
34	0x3e69ef34	0.22845155
35	0xbe99981e	-0.2999887
36	0xbd25e80d	-0.040504504
37	0x3ef2c6d5	0.47417322
38	0xbe5bf4cc	-0.21480101
39	0x3f16f43b	0.58966416
40	0x3db99f98	0.09063643
41	0xbe355392	-0.17707661
42	0xbed27e01	-0.41111758
43	0xbd91c2fb	-0.07117268
44	0xbe92e3c0	-0.28689384
45	0xbca470d3	-0.02007333
46	0xbe31820d	-0.17334767
47	0xbe82b91f	-0.2553186
48	0x3ebbf402	0.367096
49	0x3c63c5dd	0.013902155
50	0xbe9df2e4	-0.30849373
51	0x3e776842	0.24160865
52	0x3e998682	0.29985434
53	0x3f03972f	0.5140256
54	0x3dc0931e	0.094030604
55	0x3e8ff9a7	0.28120157
56	0x3e71ae65	0.23601682
57	0xbcc60645	-0.024172911
58	0x3db3cd87	0.087794356
59	0x3e69fb06	0.22849664
60	0x3cc84466	0.024446677
61	0x3ee6d89b	0.45087132
62	0x3decf2e3	0.115697645
63	0x3dc7baf4	0.09752455

layers.4.net.2.bias f4 [8]
0	0x3e22640c	0.15858477
1	0xbe20c638	-0.15700614
2	0xbe35db83	-0.17759518
3	0x3ea64fdd	0.32482806
4	0xbdc7fe99	-0.097653575
5	0xbebb719a	-0.3661011
6	0x3eb2dc22	0.34933573
7	0xbd92f20b	-0.07175072

layers.4.net.4.weight f4 [8, 8]
0	0xbcc05614	-0.023478545
1	0x3d622678	0.055212468
2	0xbd354777	-0.044257607
3	0xbe03394b	-0.12814824
4	0x3ec38c81	0.38193133
5	0x3daf10ee	0.08548151
6	0x3e237ee0	0.15966368
7	0x3e4e494b	0.20145147
8	0x3e3ad90a	0.18246856
9	0x3e0504a3	0.1299005
10	0x3f20cde7	0.6281418
11	0xbf2cd609	-0.6751409
12	0xbd758124	-0.05993761
13	0xbdee5063	-0.11636426
14	0x3f03f39e	0.51543605
15	0xbe18924c	-0.14899558
16	0xbe6e490b	-0.23270051
17	0xbe445c6f	-0.19175886
18	0x3e665534	0.2249344
19	0x3e5dba79	0.21653165
20	0x3e51597d	0.20444293
21	0xbebe0b67	-0.37118074
22	0x3e327975	0.17429145
23	0x3e24bcd2	0.16087654
24	0xbef3c5f0	-0.47611952
25	0xbe5e0a9e	-0.21683738
26	0xbea925e4	-0.3303672
27	0x3f4650cd	0.7746704
28	0xbf24c80b	-0.6436774
29	0xbe6604d8	-0.22462785
30	0xbe2afab0	-0.16697192
31	0xbcbe2ad3	-0.02321378
32	0x3e3d7216	0.18500552
33	0x3ef3186a	0.47479564
34	0x3d9cf4ff	0.07663917
35	0xbf4eaf3b	-0.8073613
36	0x3e23f831	0.16012646
37	0xbe96e538	-0.29471755
38	0xbe41ae72	-0.18914202
39	0xbe893eec	-0.26805818
40	0xbe7c5d4b	-0.24644963
41	0xbcc9613d	-0.0245825
42	0x3ee0486e	0.4380526
43	0xbcbd2f9a	-0.023093987
44	0xbdbfd2e4	-0.09366396
45	0x3d4293a0	0.047504067
46	0xbe9fe64a	-0.31230384
47	0xbe865e39	-0.2624376
48	0xbe8ddaf4	-0.2770611
49	0xbe7d1c65	-0.24717863
50	0x3eb2733b	0.3485354
51	0xbe3da3d3	-0.18519525
52	0x3ebc67d4	0.36797965
53	0x3e07f6be	0.13277718
54	0xbdebbb7c	-0.11510369
55	0x3ebf125a	0.3731869
56	0x3ebab052	0.36462647
57	0x3e972ca7	0.29526255
58	0x3e845757	0.25847885
59	0xbf9db5d6	-1.2321117
60	0x3f38a3fb	0.72125214
61	0xbe8ee19c	-0.279065
62	0xbc9e43eb	-0.019319495
63	0x3ea13aff	0.31490323

layers.4.net.4.bias f4 [8]
0	0x3ed087b0	0.4072852
1	0x3dfc8511	0.12330068
2	0x3e0c45d4	0.13698512
3	0xbde239f0	-0.11046207
4	0xbb46998f	-0.003030393
5	0xbeb0f305	-0.3456041
6	0xbea239f0	-0.31684828
7	0x3de5fbf6	0.11229698

layers.4.net.6.weight f4 [8, 8]
0	0x3e880066	0.26562804
1	0x3ecb6c3b	0.3973101
2	0x3e17839c	0.14796299
3	0xbe7abb48	-0.24485505
4	0x3e6b6179	0.22986402
5	0xbe7bd400	-0.2459259
6	0xbe468e04	-0.19390112
7	0xbc7a44d5	-0.0152752
8	0xbd2c185c	-0.04201542
9	0xbd5f867d	-0.054571617
10	0x3e37323b	0.17890255
11	0x3e0dda0f	0.13852714
12	0xbe63a6f5	-0.22231658
13	0xbda58d54	-0.08083597
14	0x3c3845e8	0.011247136
15	0x3cbd4603	0.023104673
16	0x3e6a40e1	0.22876312
17	0x3ee49487	0.44644567
18	0x3e186267	0.14881288
19	0x3befb4c2	0.007315249
20	0x3d6b09d3	0.057382416
21	0x3e906ac5	0.2820646
22	0x3ea57c7a	0.3232153
23	0x3ed56524	0.41678727
24	0xbeb956b8	-0.36198974
25	0x3e96f8ab	0.29486594
26	0xbe922c6a	-0.2854951
27	0xbf081a96	-0.53165567
28	0xbc21b139	-0.009868913
29	0xbbff0112	-0.00778211
30	0x3ee0533b	0.438135
31	0x3d032a2a	0.032022633
32	0x3e01f41c	0.12690777
33	0xbe9b5ccc	-0.30344236
34	0x3e7dff12	0.24804333
35	0xbf15718f	-0.583764
36	0x3de7843e	0.1130452
37	0xbde6e86e	-0.11274801
38	0xbe85e608	-0.26152062
39	0xbe8ec23c	-0.27882564
40	0xbd1ef43a	-0.03880713
41	0xbe0539ed	-0.13010378
42	0x3e214edb	0.15752737
43	0xbe8a475e	-0.27007574
44	0x3dd8ae04	0.10580066
45	0xbda6a6d4	-0.08137289
46	0x3deec238	0.11658138
47	0x3dd32274	0.10309306
48	0xbdae6552	-0.08515419
49	0x3eccc478	0.39993644
50	0x3ea478e8	0.32123494
51	0x3e8d3947	0.27582762
52	0x3e69f500	0.22847366
53	0xbe9f6494	-0.31131423
54	0xbe1814d9	-0.14851703
55	0x3c2cf972	0.010557519
56	0xbcad00f2	-0.021118615
57	0x3eefb12e	0.46814865
58	0x3e810991	0.2520261
59	0xbe781e39	-0.24230279
60	0x3ecfab13	0.40560207
61	0xbe0ae965	-0.13565595
62	0x3e688a59	0.22709025
63	0x3f44d140	0.7688179

layers.4.net.6.bias f4 [8]
0	0xbe00c080	-0.12573433
1	0x3ea413e0	0.32046413
2	0x3d995335	0.074865736
3	0x3d80801b	0.06274434
4	0xbe4a56ec	-0.1975972
5	0xbdfd550c	-0.12369737
6	0xbdaec64c	-0.08533916
7	0xbe038075	-0.12841971

layers.4.net.8.weight f4 [2, 8]
0	0x3ea10f8f	0.31457183
1	0xbe4d97d0	-0.20077443
2	0xbe9b9cb1	-0.30392984
3	0x3e98eff1	0.2987056
4	0x3e673a5f	0.2258086
5	0x3dc0af14	0.094083935
6	0xbeaaeb7e	-0.3338279
7	0xbe89a141	-0.2688084
8	0x3efa4f2d	0.4888853
9	0xbeb65b74	-0.35616648
10	0x3e5bd221	0.21466877
11	0xbdf81bb9	-0.12114663
12	0xbe82aa58	-0.25520587
13	0x3e82d287	0.25551245
14	0xbe84d767	-0.2594559
15	0x3eda7feb	0.4267572

layers.4.net.8.bias f4 [2]
0	0xbe2ae407	-0.16688548
1	0x3e9e17be	0.3087749

layers.6.net.0.weight f4 [8, 1]
0	0xbdb498b8	-0.08818191
1	0xbf61b91f	-0.881731
2	0x3f04a321	0.51811415
3	0x3f76232e	0.9614743
4	0x3ea86f44	0.3289739
5	0x3eb172ae	0.34657806
6	0x3f8034ec	1.001615
7	0x3ec972c3	0.3934537

layers.6.net.0.bias f4 [8]
0	0xbf25190e	-0.64491355
1	0x3cfd480c	0.030918144
2	0xbf6076b9	-0.87681156
3	0xbf6143f4	-0.87994313
4	0x3ef87e91	0.48534063
5	0xbea71948	-0.32636476
6	0xbf3f19f5	-0.7464898
7	0x3e7b91ba	0.24567309

layers.6.net.2.weight f4 [8, 8]
0	0x3e5a8d49	0.21342959
1	0xbf0bbe5f	-0.5458736
2	0xbc163674	-0.009168256
3	0x3e3da639	0.1852044
4	0x3e701ab3	0.23447685
5	0x3dee02a5	0.11621598
6	0x3efdf19a	0.4959839
7	0x3e06c3a2	0.13160565
8	0x3e561682	0.20907024
9	0x3f322e23	0.6960165
10	0xbe8150a5	-0.2525684
11	0xbdb9177b	-0.09037682
12	0xbe821353	-0.25405368
13	0xbee7f786	-0.45306033
14	0xbce8b44c	-0.028406285
15	0xbe35e0d7	-0.17761551
16	0xbb2fc87a	-0.0026822374
17	0xbf4415fd	-0.7659605
18	0xbc6200c0	-0.013794124
19	0x3f275ab0	0.65372753
20	0x3e8b2c47	0.27182218
21	0x3e978b2a	0.2959836
22	0x3e7721a3	0.24133925
23	0x3ea64e3e	0.3248157
24	0xbeeb8aa2	-0.46004206
25	0x3ea3c8a1	0.31989005
26	0xbe52705f	-0.20550679
27	0xbd17b134	-0.03703423
28	0xba832a6b	-0.0010007148
29	0xbf1c8d01	-0.61152655
30	0xbe9a6afd	-0.3015975
31	0xbea4a1cd	-0.32154694
32	0xbdb8b030	-0.0901798
33	0x3f36c6d9	0.7139717
34	0xbe611893	-0.2198203
35	0xbe1133b1	-0.14179875
36	0xbea72b78	-0.32650352
37	0xbc049f66	-0.008094644
38	0xbe8033a0	-0.25039387
39	0xbf01a554	-0.50642896
40	0xbdfb1414	-0.12259689
41	0x3efc3367	0.49257967
42	0x3cd3a29a	0.02583437
43	0xbeace0e3	-0.33765325
44	0xbea0fa3f	-0.31440923
45	0xbe6e64ec	-0.23280686
46	0xbed55940	-0.41669655
47	0xbf5d5b74	-0.8646767
48	0x3e423daf	0.18968843
49	0xbddfc87d	-0.10926912
50	0xbdac8908	-0.08424574
51	0x3f011532	0.50422966
52	0xbe29b262	-0.16571954
53	0x3e1b4f10	0.15166879
54	0x3eecbd55	0.462382
55	0x3e2efec4	0.17089373
56	0x3ea6dd13	0.3259054
57	0x3e8abc68	0.27096868
58	0xbe21ad03	-0.15788655
59	0x3f1e658c	0.618737
60	0xbe87abd4	-0.26498282
61	0x3e9b0e98	0.30284572
62	0x3ed40f04	0.41417706
63	0x3d9fd7a8	0.07804805

layers.6.net.2.bias f4 [8]
0	0xbd86ded8	-0.06585473
1	0xbde24c3f	-0.11049699
2	0xbdbc18b1	-0.09184397
3	0x3e515158	0.20441186
4	0xbe31f4e2	-0.17378572
5	0xbd03a44c	-0.032139108
6	0x3d2e1e89	0.04250959
7	0xbdb43986	-0.08800034

layers.6.net.4.weight f4 [8, 8]
0	0x3e4077f1	0.18795754
1	0x3e5ba585	0.2144986
2	0x3e14fdfa	0.1455001
3	0xbec40875	-0.38287702
4	0xbe800aa4	-0.25008118
5	0xbeaa9e73	-0.33324012
6	0x3f1d38ba	0.6141468
7	0x3eb25f78	0.34838462
8	0x3e8058bb	0.25067696
9	0x3eceee76	0.40416306
10	0xbde4a9a8	-0.11165172
11	0x3d8da4c9	0.06916196
12	0x3ee852f8	0.453758
13	0x3f82c59e	1.0216558
14	0xbe939fef	-0.28832957
15	0xbe24fe8d	-0.16112728
16	0x3d680a15	0.05665024
17	0x3f1a6cda	0.60322344
18	0xbf10f323	-0.56621
19	0x3e5ef553	0.21773271
20	0x3f20a274	0.62747884
21	0x3f56ede9	0.8395677
22	0xbdeb25a1	-0.114817865
23	0x3f29bf9a	0.66307986
24	0x3db6ce2d	0.08926044
25	0x3ebb579b	0.36590275
26	0x3ead5b4e	0.33858722
27	0x3e19a783	0.15005307
28	0x3e7c893f	0.2466173
29	0x3f1e4f12	0.618394
30	0x3e211999	0.15732421
31	0x3f27a193	0.6548092
32	0xbe9eb80d	-0.30999795
33	0x3cb7e5f5	0.02244852
34	0xbebc6a2f	-0.36799762
35	0x3e57619b	0.21033327
36	0xbef2dfde	-0.47436422
37	0xbf3c6e4c	-0.736058
38	0xbdfefa8b	-0.12450131
39	0xbefce274	-0.4939152
40	0x3e432cf6	0.1906012
41	0xbe8c1c37	-0.27365276
42	0x3e9a0f40	0.3008976
43	0x3ce73e6c	0.028228007
44	0x3e03f9cf	0.12888263
45	0x3e0015b8	0.12508285
46	0x3e8a5bc2	0.2702313
47	0x3ed4baf7	0.41548893
48	0x3eee7ce9	0.46579674
49	0xbe870341	-0.2636967
50	0x3e7f5ad1	0.24936987
51	0xbf6b38b1	-0.9188338
52	0xbe9a102a	-0.30090457
53	0xbe4cc3fa	-0.19996634
54	0x3e98e4ec	0.29862154
55	0x3e4af391	0.19819476
56	0x3e946239	0.28981188
57	0x3f311f42	0.6918832
58	0x3d989498	0.07450217
59	0x3ee17aa4	0.4403888
60	0x3f24a662	0.6431638
61	0x3f470f73	0.7775795
62	0xbd7b7a4b	-0.061395925
63	0x3ee83b40	0.45357704

layers.6.net.4.bias f4 [8]
0	0xbe1c343c	-0.15254301
1	0xbdd17f1a	-0.10229321
2	0xbe390ff2	-0.18072489
3	0xbec79e01	-0.38987735
4	0x3dd7e3d7	0.10541504
5	0xbed442d8	-0.41457248
6	0xbde7bf3f	-0.11315774
7	0xbe6e99a6	-0.233008

layers.6.net.6.weight f4 [8, 8]
0	0xbd201e78	-0.039091557
1	0x3dc10ef0	0.09426677
2	0xbdd95151	-0.10611213
3	0xbf2be693	-0.67148703
4	0xbe7628e9	-0.24039043
5	0xbedbbf21	-0.42919257
6	0xbe93a429	-0.28836182
7	0xbe2e0708	-0.1699487
8	0xbf69e70e	-0.91368186
9	0xbf0b32f2	-0.5437461
10	0xbf1b0cbf	-0.60566324
11	0xbe21c3d1	-0.15797354
12	0x3f0c0f18	0.5471053
13	0xbee6f896	-0.4511153
14	0xbf8d5cf8	-1.1043997
15	0xbebf7a0d	-0.37397805
16	0xbeadea79	-0.3396795
17	0x3ef72ae1	0.48274902
18	0x3e84a6c4	0.25908482
19	0xbe18f033	-0.14935379
20	0xbf92e4d8	-1.1476088
21	0xbe998f0a	-0.29991943
22	0xbecf4e8b	-0.4048961
23	0x3eafeaad	0.3435873
24	0x3e7ce0cd	0.2469513
25	0x3ca97b5a	0.020688701
26	0x3e1a6878	0.15078914
27	0x3f0b3f11	0.54393107
28	0x3e40a012	0.18811062
29	0x3f012402	0.5044557
30	0x3ef9d68a	0.48796493
31	0xbd5f6e96	-0.054548822
32	0x3e6f7c92	0.23387364
33	0x3d630a59	0.05542979
34	0x3ed7393b	0.4203585
35	0x3f334440	0.70026016
36	0x3cab6e7b	0.020926705
37	0x3edfd9cb	0.4372085
38	0x3f05f659	0.5232902
39	0x3ef5b993	0.47993144
40	0x3eaf44b0	0.34232092
41	0xbfc5684c	-1.5422454
42	0xbfbe7314	-1.4878869
43	0xbf24cf66	-0.64378965
44	0x3f0fc34d	0.5615738
45	0xbf1d71db	-0.61501855
46	0x3e0814de	0.1328921
47	0xbf06def6	-0.5268396
48	0xbe87a1a1	-0.264905
49	0xbe93c5a9	-0.2886174
50	0x3de17c1a	0.110099986
51	0xbe318e1d	-0.17339368
52	0xbc280ed2	-0.01025744
53	0xbf3ebb99	-0.74505
54	0xbec984af	-0.39359042
55	0xbd390fd6	-0.045181118
56	0x3e166104	0.14685446
57	0x3e549165	0.20758589
58	0xbe1452af	-0.14484666
59	0xbef9ad2f	-0.4876494
60	0xb9f64097	-0.000469689
61	0xbf667d86	-0.90035284
62	0xbeda7c77	-0.42673084
63	0x3d200ef5	0.039076764

layers.6.net.6.bias f4 [8]
0	0xbb875f03	-0.0041311993
1	0x3e0bdf6f	0.13659452
2	0xbd9c88af	-0.07643258
3	0x3c668410	0.014069572
4	0x3bc00212	0.005859622
5	0x3ebfcd2a	0.37461215
6	0xbd1ae7f7	-0.037818875
7	0x3ed3f9e7	0.41401598

layers.6.net.8.weight f4 [2, 8]
0	0x3df75146	0.120760486
1	0x3ef4c62c	0.47807443
2	0x3e655df4	0.22399122
3	0xbe0cfc47	-0.13768111
4	0xbe6a80bc	-0.22900671
5	0x3f130154	0.574239
6	0x3e0a8f0c	0.1353113
7	0x3e46b2eb	0.1940419
8	0x3e9105d1	0.2832475
9	0x3ec3f96b	0.38276228
10	0x3ed10d5f	0.40830514
11	0xbe87aa5e	-0.26497167
12	0xbdf2c146	-0.1185327
13	0x3e22b637	0.15889822
14	0x3ecdd1cc	0.40199125
15	0x3ebfe997	0.37482902

layers.6.net.8.bias f4 [2]
0	0x3ea1f78c	0.31634176
1	0x3ea052de	0.31313223

layers.8.net.0.weight f4 [8, 1]
0	0x3f20cf50	0.62816334
1	0x3f261c30	0.6488676
2	0xbe474272	-0.1945894
3	0x3f0ef4f9	0.5584255
4	0x3ec2f4b6	0.38077325
5	0xbf900f64	-1.1254697
6	0x3e9568fa	0.29181653
7	0xbe87e729	-0.2654355

layers.8.net.0.bias f4 [8]
0	0xbf1a03eb	-0.6016223
1	0xbf1cad88	-0.6120229
2	0x3ccc74fa	0.024958123
3	0x3ed58efa	0.41710645
4	0x3f544e85	0.8293231
5	0x3eb0fd32	0.34568173
6	0x3eed7063	0.46374807
7	0x3e81adf4	0.25328028

layers.8.net.2.weight f4 [8, 8]
0	0xbee52031	-0.44751123
1	0xbdcab21c	-0.09897253
2	0x3e7656db	0.2405657
3	0x3d7c2ed5	0.0615681
4	0x3e425252	0.18976715
5	0x3eb21624	0.34782517
6	0x3e97a2a5	0.29616275
7	0x3e8d0588	0.27543283
8	0x3ec1e713	0.37871608
9	0x3ea086b0	0.31352758
10	0x3e6583dd	0.22413583
11	0xbdbf912b	-0.093538605
12	0x3d3633db	0.044483047
13	0xbcce8ce1	-0.02521366
14	0x3db9f988	0.090807974
15	0x3e71cfd4	0.23614436
16	0xbd8274ed	-0.06369958
17	0xbdb706be	-0.08936833
18	0xbcbaaeb7	-0.022788389
19	0x3eb60f90	0.35558748
20	0x3e31abd0	0.17350698
21	0xbdfffc27	-0.12499266
22	0x3e898062	0.2685576
23	0xb965cecb	-0.00021916178
24	0x3d05c0d9	0.032654617
25	0xbe764923	-0.24051337
26	0xbe8a81f1	-0.27052262
27	0xbf214f63	-0.6301176
28	0x3f1a1415	0.6018689
29	0x3dcd5dcc	0.10027656
30	0x3d355ed4	0.04427989
31	0x3e6ee9fb	0.23331444
32	0xbda215d4	-0.0791432
33	0xbe7c04ac	-0.24611157
34	0x3dbeb70d	0.09312258
35	0xbda13008	-0.07870489
36	0xbf856dbe	-1.0424116
37	0x3ed41a44	0.4142629
38	0xbf938802	-1.1525881
39	0xbd84d23f	-0.06485414
40	0x3ef09fbb	0.46996865
41	0xbd6ec7cf	-0.05829602
42	0xbe576528	-0.21034682
43	0x3e5da4b1	0.21644856
44	0x3d911d7d	0.070857026
45	0xbecbddee	-0.39817756
46	0xbe8bb351	-0.27285245
47	0xbde66b74	-0.11250964
48	0xbf326d12	-0.6969768
49	0xbf116aee	-0.56803787
50	0xbf2ba09e	-0.6704196
51	0x3ecb6b9e	0.39730543
52	0x3e26afbc	0.16277975
53	0xbf2c793f	-0.67372507
54	0x3ef1e496	0.4724471
55	0xbdf5219d	-0.11969302
56	0x3ef714ee	0.48258156
57	0x3e57c7fc	0.21072382
58	0x3e6a05a6	0.22853717
59	0x3e946924	0.28986466
60	0xbe5d26ed	-0.2159688
61	0x3ee0972e	0.4386534
62	0xbde7aaf4	-0.113119036
63	0x3ea6b100	0.32556915

layers.8.net.2.bias f4 [8]
0	0x3df788d0	0.12086642
1	0xbe7a6257	-0.24451576
2	0x3dc7b249	0.09750802
3	0xbb9d21ef	-0.004795305
4	0x3bb83db3	0.0056225895
5	0xbe60adf3	-0.21941356
6	0x3deafd53	0.11474099
7	0x3e5b09a3	0.21390395

layers.8.net.4.weight f4 [8, 8]
0	0x3e9d9034	0.3077408
1	0x3e8fc6ab	0.2808126
2	0x3d7c707e	0.06163072
3	0xbd71838e	-0.05896335
4	0x3e6e1736	0.23251042
5	0xbd59bbb7	-0.053157534
6	0xbe300e35	-0.1719292
7	0x3d8cf700	0.06883049
8	0xbe96f83c	-0.29486263
9	0x3ea83b2f	0.32857653
10	0x3e013007	0.12615977
11	0x3e656d5e	0.22405002
12	0xbe1f21cb	-0.15540235
13	0x3ec4b1df	0.38416955
14	0xbf39726e	-0.7244023
15	0xbe41337b	-0.18867294
16	0x3eadd1ce	0.3394913
17	0xbd1ef845	-0.038810987
18	0xbe732505	-0.2374459
19	0x3e139c16	0.14415011
20	0xbef8b2e2	-0.48573977
21	0x3e38be39	0.18041314
22	0x3f630c26	0.8869041
23	0xbe85c47c	-0.26126468
24	0x3dc3b721	0.095564134
25	0x3eb12a70	0.3460269
26	0x3dc96053	0.098328255
27	0xbf31b48d	-0.69416124
28	0xbf1d4295	-0.6142972
29	0xbe9087a1	-0.28228477
30	0x3cd150a9	0.025551157
31	0xbe587c3b	-0.2114114
32	0xbe95b2e7	-0.29238054
33	0x3e50b191	0.20380236
34	0x3de75402	0.1129532
35	0xbef5f8a2	-0.48041254
36	0xbeba34d4	-0.3636843
37	0xbeabf81d	-0.33587733
38	0x3eb74c44	0.35800374
39	0x3e3f44b0	0.18678546
40	0x3ea36c73	0.31918678
41	0xbe91f127	-0.28504297
42	0x3de90588	0.11378008
43	0x3dd1190c	0.102098554
44	0xbeb51090	-0.353642
45	0xbd2ce69b	-0.04221211
46	0xbf09da41	-0.53848654
47	0x3d28a0c7	0.041168954
48	0x3e512f4c	0.20428199
49	0x3ed10a66	0.40828246
50	0x3e10228e	0.14075682
51	0x3f06fc91	0.52729136
52	0x3e9d8a32	0.30769497
53	0x3d4d1864	0.05007209
54	0xbfcbb7aa	-1.5915425
55	0x3ee27104	0.4422685
56	0x3df4ec30	0.11959112
57	0xbd4ce452	-0.05002243
58	0x3ed6c91a	0.41950303
59	0x3dd59db6	0.104304716
60	0x3f2a2d35	0.6647523
61	0xbd465dc2	-0.04842926
62	0xbf306d7b	-0.68917054
63	0xbd87eef0	-0.066373706

layers.8.net.4.bias f4 [8]
0	0x3e8d5829	0.27606323
1	0x3eccb91f	0.39984986
2	0x3ecadf14	0.3962332
3	0xbdc59bc5	-0.09648851
4	0xbe925e93	-0.2858778
5	0x3c530ce8	0.012881495
6	0x3cf57a93	0.029965675
7	0xbc30086e	-0.010744197

layers.8.net.6.weight f4 [8, 8]
0	0x3ddb5cb1	0.10711039
1	0xbe6dd622	-0.23226216
2	0xbcf4d058	-0.029884502
3	0x3e8d1902	0.27558142
4	0x3d91af69	0.07113535
5	0xbd1e9bb8	-0.038722724
6	0xbdacb002	-0.08432008
7	0xbd8677f4	-0.06565848
8	0xbe71df08	-0.23620236
9	0xbf17d22b	-0.59305066
10	0x3f0b346c	0.54376864
11	0x3eba1c3b	0.36349663
12	0x3ec0ac59	0.3763149
13	0x3ed79246	0.42103785
14	0xbd239827	-0.039940026
15	0xbee2054b	-0.44144663
16	0xbe031d86	-0.12804231
17	0x3d3a7369	0.04552022
18	0x3e6b0996	0.22952875
19	0x3e10daec	0.14146012
20	0x3e2d3f3e	0.16918656
21	0xbcc67a2a	-0.024228174
22	0xbd9b4493	-0.07581439
23	0xbe6195e9	-0.22029842
24	0xbe8cf65f	-0.27531716
25	0x3ec2b3e2	0.38027865
26	0xbb6f2e50	-0.003649611
27	0xbd0bdfe4	-0.034149066
28	0x3ea45ae6	0.321006
29	0x3e4a8233	0.1977623
30	0x3b51b8fc	0.0032001128
31	0xbe1f3db2	-0.15550879
32	0xbd33dda2	-0.043912537
33	0x3c484834	0.012224246
34	0xbf2f62d6	-0.68510187
35	0xbe991c35	-0.29904333
36	0xbd501921	-0.050805215
37	0x3dd04694	0.10169712
38	0xbe307e3c	-0.17235655
39	0xbe84c334	-0.25930178
40	0x3e485ed9	0.19567432
41	0x3eafab89	0.34310558
42	0xbd81b71f	-0.06333756
43	0xbe24e550	-0.16103101
44	0xbd9a3547	-0.07529693
45	0x3ebd7b16	0.3700797
46	0x3e718de4	0.23589283
47	0xbe0fb9a5	-0.14035662
48	0x3d87e682	0.06635763
49	0x3f0ece29	0.55783325
50	0xbf017ef2	-0.5058433
51	0xbc267139	-0.01015883
52	0xbe65455d	-0.22389741
53	0x3e9811c4	0.29701054
54	0x3f0dd721	0.55406386
55	0x3e00aee8	0.12566721
56	0xbe19011e	-0.14941832
57	0x3dfff2e9	0.12497503
58	0xbc879f85	-0.016555557
59	0x3e26710d	0.16254063
60	0x3e9e6292	0.30934578
61	0xbca792d3	-0.020455753
62	0x3ec21e0b	0.37913546
63	0xbe5e59c0	-0.21713924

layers.8.net.6.bias f4 [8]
0	0xbe4b3a3b	-0.19846432
1	0x3bf96fd8	0.0076122098
2	0xbe1fbd1c	-0.15599483
3	0xbdfdcafe	-0.12392233
4	0xbe718b70	-0.23588347
5	0xbe298bfd	-0.16557308
6	0x3d088b68	0.033336073
7	0xbeb0b4e0	-0.34512997

layers.8.net.8.weight f4 [2, 8]
0	0x3e1868dd	0.14883752
1	0x3e818c4f	0.2530236
2	0x3e10353e	0.1408281
3	0xbe7b156c	-0.2451989
4	0xbaffd6ff	-0.001951903
5	0xbe985f9a	-0.29760438
6	0xbed3c626	-0.41362113
7	0xbea4c81d	-0.32183924
8	0x3e434458	0.1906904
9	0x3f35844a	0.7090498
10	0x3ebf392e	0.37348312
11	0xbe81ff20	-0.25389957
12	0xbe61b20b	-0.22040574
13	0x3e839019	0.25695875
14	0xbe926e1d	-0.28599635
15	0x3e963d30	0.29343557

layers.8.net.8.bias f4 [2]
0	0x3e678076	0.22607598
1	0x3e1a0492	0.15040806

layers.10.net.0.weight f4 [8, 1]
0	0x3f24a74b	0.6431777
1	0xbf83e621	-1.0304605
2	0xbf8017b2	-1.0007231
3	0xbec4de2a	-0.38450748
4	0xbf0112c3	-0.50419253
5	0xbeed6246	-0.4636404
6	0x3a8b3c74	0.0010622875
7	0xbf7440c7	-0.9541134

layers.10.net.0.bias f4 [8]
0	0xbe9a179b	-0.30096135
1	0xbf011d63	-0.50435466
2	0xbdb18de8	-0.086696446
3	0xbd914865	-0.07093886
4	0x3f6700a0	0.9023533
5	0x3f584baa	0.84490454
6	0x3f19f86f	0.60144705
7	0x3e80fef0	0.25194502

layers.10.net.2.weight f4 [8, 8]
0	0xbcf72b80	-0.03017211
1	0xbeaea892	-0.34112984
2	0xbe8a0fa2	-0.26965052
3	0xbef15bf6	-0.47140473
4	0xbeb277f8	-0.34857154
5	0xbda8aa86	-0.0823565
6	0x3cd04aeb	0.025426349
7	0xbf024a53	-0.5089466
8	0x3eb5d9f9	0.35517862
9	0xbe237e57	-0.15966164
10	0x3e202478	0.15638912
11	0xbe362a93	-0.17789678
12	0xbf08115e	-0.531515
13	0xbf08a82a	-0.533816
14	0xbe165835	-0.14682086
15	0xbe1b1f1e	-0.15148589
16	0xbe98d050	-0.2984643
17	0x3df5b28e	0.11996947
18	0x3ef19307	0.47182485
19	0xbd20bb85	-0.039241333
20	0x3dd1a8dc	0.102372855
21	0x3dc0645a	0.093941405
22	0x3e69f0b5	0.22845729
23	0xbe80c856	-0.25152844
24	0x3d802f04	0.062589675
25	0xba86700c	-0.0010256781
26	0xbec197e9	-0.3781121
27	0xbec68651	-0.3877435
28	0xbe8aa28a	-0.27077132
29	0xbe949ada	-0.29024392
30	0xbeaac6c3	-0.33354768
31	0xbdbe2879	-0.09285063
32	0xbcf2ce66	-0.029639434
33	0x3e17be29	0.14818634
34	0xbe92ae65	-0.28648677
35	0xbd01c821	-0.031685
36	0xbe344ea3	-0.17608123
37	0xbcf3ce66	-0.029761504
38	0xbea84a48	-0.32869172
39	0xbe3ec0b1	-0.18628193
40	0x3f15d470	0.5852728
41	0x3d47270d	0.048621226
42	0x3e6d981f	0.23202561
43	0x3d49c973	0.049264383
44	0xbf86ede5	-1.054135
45	0xbf74c53c	-0.95613456
46	0x3ecdab7f	0.40169904
47	0xbeeaeccb	-0.45883784
48	0xbe8893ae	-0.2667517
49	0xbe03521c	-0.12824291
50	0xbf730a30	-0.9493742
51	0xbf13d061	-0.57739836
52	0xbeef5c9e	-0.4675035
53	0xbd55857b	-0.05212925
54	0xbe83bf84	-0.25732052
55	0xbe288c00	-0.16459656
56	0xbe8e12c1	-0.27748683
57	0x3f322382	0.6958543
58	0x3f1dbb96	0.6161436
59	0xbca5a8fe	-0.020222183
60	0x3e28b328	0.16474593
61	0xbe0fefcb	-0.14056318
62	0xbe5c51e5	-0.21515615
63	0x3d9c37bb	0.07627817

layers.10.net.2.bias f4 [8]
0	0x3e6aac98	0.22917402
1	0x3e526cd8	0.20549333
2	0x3e344d4a	0.17607608
3	0xbdf6bcc6	-0.120477244
4	0xbd1661b6	-0.03671428
5	0x3c6c7acb	0.014433573
6	0xbe52ddee	-0.20592472
7	0xbe8689f5	-0.26277128

layers.10.net.4.weight f4 [8, 8]
0	0x3e6bb6ea	0.23018995
1	0x3ef85197	0.48499748
2	0xbd091895	-0.03347071
3	0xbe4e4613	-0.20143919
4	0xbe329346	-0.17438993
5	0x3f26976a	0.6507479
6	0xbedbd528	-0.42936063
7	0xbe6cf943	-0.23141961
8	0x3f047f85	0.5175708
9	0xbecab4c1	-0.3959103
10	0xbd41a495	-0.0472761
11	0xbe7b1d73	-0.24522953
12	0xbe059394	-0.13044578
13	0xbeab3143	-0.3343602
14	0xbea94f37	-0.3306825
15	0x3eda69e5	0.42658916
16	0x3ee7e82e	0.45294327
17	0x3de57367	0.11203652
18	0x3ca70848	0.020389691
19	0xbe7ac484	-0.24489027
20	0xbd876244	-0.066105396
21	0xbeb54d5f	-0.35410592
22	0xbec44d08	-0.3834002
23	0x3e9ee67b	0.31035218
24	0x3cf37369	0.029718118
25	0x3f192363	0.5981962
26	0xbf447819	-0.76745754
27	0x3e2b42e1	0.16724731
28	0xbe3ac225	-0.18238123
29	0x3ec41b69	0.38302162
30	0x3d10d1d4	0.035356358
31	0xbd00201c	-0.031280622
32	0x3e945be2	0.2897635
33	0x3e822079	0.254154
34	0x3e6345f8	0.2219466
35	0xbe82621b	-0.25465474
36	0x3e239f80	0.15978813
37	0xbce5ab1d	-0.028035695
38	0xbdfb7df1	-0.12279881
39	0x3f3b0beb	0.7306506
40	0xbe695128	-0.22784865
41	0x3dfdd022	0.12393214
42	0xbee2ecf2	-0.443214
43	0x3e6f6e07	0.23381816
44	0x3f03bab1	0.51456743
45	0xbdab11f6	-0.08353035
46	0xbe0bf0b5	-0.13666041
47	0x3eacd25d	0.33754244
48	0xbe6d9467	-0.23201142
49	0x3f12e7cf	0.5738496
50	0xbee5574f	-0.44793174
51	0x3db3bad2	0.087758675
52	0x3db64d67	0.08901482
53	0x3eeb45ca	0.45951682
54	0xbe2ba6ed	-0.16762896
55	0xbdc0e462	-0.094185606
56	0x3e95a28b	0.29225573
57	0x3e4dd92b	0.20102374
58	0xbc92d925	-0.017925808
59	0x3daba0cd	0.0838028
60	0xbe4681eb	-0.19385497
61	0x3f2f193a	0.6839787
62	0xbe7648e2	-0.2405124
63	0xbf422d98	-0.7585082

layers.10.net.4.bias f4 [8]
0	0x3dcd242b	0.10016664
1	0x3e0014e8	0.12507975
2	0x3e890b70	0.2676654
3	0xbebe9b82	-0.37228018
4	0x3e1be8d6	0.15225539
5	0xbea3897b	-0.31940827
6	0x3df80613	0.121105336
7	0x3e8eb6ca	0.27873832

layers.10.net.6.weight f4 [8, 8]
0	0x3f3296a2	0.697611
1	0xbf075516	-0.52864206
2	0xbadfc031	-0.0017070827
3	0xbf13c59a	-0.5772339
4	0xbe4eb85a	-0.20187512
5	0xbea115fc	-0.31462085
6	0x3f04d351	0.51884943
7	0x3efa288d	0.48859063
8	0x3e119aa9	0.14219154
9	0xbd4fe022	-0.05075086
10	0xbdc36e2c	-0.09542498
11	0x3f50cee4	0.8156569
12	0x3e05179d	0.12997289
13	0x3ec52607	0.38505575
14	0x3e71e53c	0.23622602
15	0xbe3f8e20	-0.1870656
16	0xbe8b1865	-0.2716705
17	0xbd81b27f	-0.063328736
18	0xbef9ca97	-0.48787376
19	0x3f845131	1.0337278
20	0x3e042d08	0.12907803
21	0xbe878ef9	-0.26476267
22	0x3e5c069c	0.21486896
23	0x3e9f272e	0.3108458
24	0x3e56a7a4	0.20962387
25	0xbf1214f0	-0.570632
26	0xbeadb339	-0.339258
27	0x3e934bee	0.28768867
28	0x3dcc6d31	0.09981764
29	0xbe18356c	-0.14864129
30	0xbd2a8970	-0.041634977
31	0xbd8d89c1	-0.0691104
32	0xbedce224	-0.43141282
33	0x3efddc70	0.49582243
34	0x3e94f774	0.29095042
35	0xbeebb93d	-0.46039763
36	0x3da6edf8	0.08150858
37	0xbe414757	-0.1887487
38	0xbe9ab33d	-0.30214873
39	0x3cc7b1e1	0.024376811
40	0xbc7bda6c	-0.0153719
41	0x3e1b3b1d	0.15159269
42	0xbd244d0e	-0.040112548
43	0x3f0b4f0a	0.5441748
44	0xbe2f0fdb	-0.17095892
45	0x3ea6e784	0.32598507
46	0x3e68072a	0.22658983
47	0xbe116991	-0.14200427
48	0x3da5a948	0.080889285
49	0x3d8fdfa6	0.070250794
50	0x3da4e71d	0.08051894
51	0xbe97cfbc	-0.29650676
52	0xbc8ae495	-0.0169547
53	0x3e78d1d7	0.24298798
54	0x3ecc58f7	0.39911625
55	0xbe217a32	-0.1576927
56	0x3de6a31a	0.11261578
57	0xbea9058b	-0.3301204
58	0xbe7dc1d2	-0.24780968
59	0xbd30bd6d	-0.0431494
60	0xbe6627fa	-0.22476187
61	0x3e35ca11	0.17752863
62	0x3e430257	0.19043861
63	0xbe5b6b3b	-0.21427624

layers.10.net.6.bias f4 [8]
0	0x3e63c7e2	0.22244218
1	0xbe762452	-0.24037293
2	0xbeb5bb7b	-0.354946
3	0xbe4a3998	-0.19748533
4	0x3dc56cc4	0.09639886
5	0x3e5ed753	0.21761827
6	0xbe051e90	-0.1299994
7	0x3d7b885a	0.06140933

layers.10.net.8.weight f4 [2, 8]
0	0x3efb4599	0.49076536
1	0xbeb2f869	-0.34955147
2	0xbe6845ea	-0.2268292
3	0x3e1ed164	0.15509564
4	0xbecf21b4	-0.404554
5	0xbd0c33d3	-0.03422911
6	0x3cee158f	0.029063014
7	0x3eae560d	0.34050027
8	0x3c143320	0.009045392
9	0xbeef09a1	-0.46687034
10	0xbde1c31a	-0.11023541
11	0xbe17e2ca	-0.14832607
12	0x3ebe1b55	0.37130228
13	0xbe2bb428	-0.16767943
14	0xbd7a9915	-0.061181147
15	0xbe942599	-0.28934935

layers.10.net.8.bias f4 [2]
0	0xbd3d9361	-0.04628313
1	0x3eadf19e	0.33973402

layers.12.net.0.weight f4 [8, 1]
0	0x3ebeb558	0.3724773
1	0xbf572e11	-0.84054667
2	0xbe3fb74b	-0.18722264
3	0xbf289afb	-0.6586148
4	0xbf91b4e5	-1.138333
5	0xbf8360a9	-1.0263873
6	0xbf42af71	-0.7604895
7	0x3eb778e6	0.35834426

layers.12.net.0.bias f4 [8]
0	0x3f399812	0.72497666
1	0xbe3f5a02	-0.18686679
2	0x3f085bf4	0.5326531
3	0x3eb9eac9	0.3631194
4	0xbf0f3ed7	-0.5595526
5	0xbf027a6d	-0.50968057
6	0xbf143248	-0.57889223
7	0x3f326d46	0.6969799

layers.12.net.2.weight f4 [8, 8]
0	0xbccbca7b	-0.024876824
1	0xbd9748d6	-0.07386939
2	0xbe0f5aa9	-0.13999428
3	0x3dff8a32	0.124775305
4	0x3d8284e7	0.06373005
5	0x3ec3d789	0.38250378
6	0xbede8c57	-0.43466446
7	0x3e621ab5	0.220805
8	0xbd837864	-0.06419447
9	0xbed84dbd	-0.4224681
10	0xbe757f97	-0.23974453
11	0x3e3ca8a0	0.184237
12	0xbf95c418	-1.1700468
13	0xbf985344	-1.1900411
14	0xbd35600d	-0.044281054
15	0x3dfc1b93	0.12309947
16	0xbe776ff1	-0.24163796
17	0x3e8b6eeb	0.2723306
18	0x3ec47a63	0.38374624
19	0x3e4d9adb	0.20078604
20	0x3e8e4498	0.27786708
21	0x3e93acf5	0.28842893
22	0x3ec658b0	0.38739538
23	0x3e79d249	0.24396624
24	0xbda9d40f	-0.082924
25	0xbd275497	-0.040852156
26	0xbcee98b8	-0.029125556
27	0x3e016ec7	0.12639914
28	0xbe057250	-0.13031888
29	0xbe46afd4	-0.1940301
30	0x3e8935ab	0.26798758
31	0x3e84888c	0.25885427
32	0xbeadce4a	-0.3394645
33	0x3e13e657	0.14443336
34	0x3d680915	0.056649286
35	0xbda4eb3d	-0.08052681
36	0x3e092c8f	0.13395904
37	0x3ea03edc	0.31297958
38	0x3e8d0729	0.27544525
39	0xbf61e25e	-0.88236034
40	0x3e1d0761	0.15334846
41	0xbdc75ea5	-0.09734849
42	0x3e971d5e	0.29514593
43	0xbdec0e87	-0.11526208
44	0xbf867067	-1.0503052
45	0xbf8a13eb	-1.0787328
46	0xbe14385d	-0.14474626
47	0x3e95799b	0.2919434
48	0xbe85217c	-0.2600211
49	0x3ed9c88b	0.42535815
50	0xbd20b2ef	-0.039233144
51	0x3ea495ac	0.3214544
52	0x3e8ba824	0.2727672
53	0x3d8fc770	0.070204616
54	0x3ee5d9b4	0.44892657
55	0xbd923c88	-0.07140452
56	0x3eb42180	0.35181808
57	0xbca63e54	-0.020293392
58	0xbee1d454	-0.44107306
59	0xbed4e27f	-0.41579053
60	0xbbcfd660	-0.006342694
61	0x3cb3092f	0.021854965
62	0xbe5e2f9e	-0.21697852
63	0xbe25adcc	-0.1617958

layers.12.net.2.bias f4 [8]
0	0x3e9fd33f	0.31215855
1	0x3e858c51	0.26083615
2	0x3ea3edf3	0.32017478
3	0xbd95d16b	-0.07315334
4	0xbeb30d76	-0.34971207
5	0x3b5107bb	0.0031895477
6	0x3dc5fd2d	0.0966743
7	0xbdcf75bb	-0.10129877

layers.12.net.4.weight f4 [8, 8]
0	0xbe03aa4c	-0.12857932
1	0xbe3484af	-0.1762874
2	0xbe8bf627	-0.27336237
3	0x3d483e2a	0.04888741
4	0xbe4082a6	-0.18799838
5	0x3e50b2d1	0.20380713
6	0xbe2c6a58	-0.16837442
7	0xbec82ff7	-0.39099094
8	0x3e291a93	0.16514044
9	0xbb95b102	-0.00456822
10	0xbdeac10d	-0.11462603
11	0x3e355882	0.17709544
12	0x3e9c8d40	0.30576515
13	0xbe0fdb4b	-0.14048497
14	0xbe4bc1de	-0.19898173
15	0x3e5ce5bf	0.21572016
16	0xbdb12ad3	-0.08650746
17	0x3e1189ea	0.14212766
18	0xbe966ec5	-0.29381385
19	0xbc97f6c7	-0.01855029
20	0xbdf0bcc5	-0.11754755
21	0x3e8041f9	0.25050333
22	0x3e481aae	0.19541427
23	0x3ed7609b	0.42065892
24	0xbe9c83d1	-0.30569318
25	0x3f41ff17	0.7577986
26	0xbd40910c	-0.047013327
27	0x3e802e18	0.25035167
28	0xbec23276	-0.37929124
29	0x3ec4603c	0.3835467
30	0x3d98fa5e	0.07469629
31	0x3eb23b5e	0.3481092
32	0x3b7c3c65	0.0038488146
33	0x3e10dbb9	0.14146318
34	0x3eda114b	0.42591318
35	0xbd03ac24	-0.032146588
36	0x3e83abf6	0.25717133
37	0xbe6951c9	-0.22785105
38	0x3e255581	0.16145898
39	0xbd8d6069	-0.069031544
40	0x3e2b7365	0.16743238
41	0xbf676685	-0.9039081
42	0xbe342c3e	-0.17595002
43	0xbde90d66	-0.11379509
44	0xbf393e0e	-0.7236031
45	0xbf711fc0	-0.9418907
46	0x3d4d8555	0.050175983
47	0xbe1dc975	-0.15408881
48	0x3e2e162c	0.17000645
49	0x3efb480d	0.49078408
50	0xbe8dcb49	-0.27694157
51	0xbe8b5396	-0.27212209
52	0x3eb9632a	0.3620847
53	0xbcf45aad	-0.029828394
54	0xbe5bdc39	-0.21470727
55	0x3f19ef5d	0.60130864
56	0x3e0ea679	0.13930692
57	0x3da8823b	0.082279645
58	0xbe3061bb	-0.17224781
59	0xbe15f96c	-0.14645928
60	0x3ed7009a	0.41992646
61	0x3e8851fa	0.26625043
62	0x3efd95fd	0.49528494
63	0x3e8de06a	0.27710277

layers.12.net.4.bias f4 [8]
0	0xbce134d9	-0.02749102
1	0xbe4c7c4c	-0.1996929
2	0xbeb9b866	-0.36273497
3	0x3de8a39d	0.11359332
4	0x3e193ca7	0.14964543
5	0x3ecf2371	0.40456727
6	0xbe6505a5	-0.22365434
7	0xbdabbf4e	-0.08386098

layers.12.net.6.weight f4 [8, 8]
0	0x3e978aff	0.29598233
1	0xbea76168	-0.32691503
2	0xbd3ca27d	-0.0460534
3	0x3e018cec	0.12651414
4	0xbe92b6cd	-0.2865509
5	0x3e144b44	0.14481837
6	0x3c0a9b6e	0.008459909
7	0x3d4d3611	0.05010039
8	0xbe2423aa	-0.1602923
9	0xbeadd162	-0.3394881
10	0x3deb4e95	0.11489598
11	0xbe9dccbe	-0.30820268
12	0xbdfd6ffb	-0.12374874
13	0xbde99c3e	-0.11406754
14	0x3db48cf5	0.08815948
15	0xbe027072	-0.12738207
16	0xbe34f038	-0.17669761
17	0x3df498ba	0.11943193
18	0x3e5e4cef	0.21709035
19	0x3eb77dfc	0.35838306
20	0xbd14f2de	-0.03636443
21	0xbe059a46	-0.13047132
22	0xbe6e4941	-0.23270132
23	0x3e8ca943	0.27472886
24	0x3e1e5ece	0.15465853
25	0xbe9c0b73	-0.30477485
26	0x3e9521d7	0.2912738
27	0x3dedf16c	0.11618313
28	0x3eac1006	0.33605975
29	0x3d1a76bc	0.03771089
30	0x3e6dc02e	0.23217842
31	0xbdf84021	-0.121216066
32	0xbd8cddb4	-0.06878224
33	0x3e0511f7	0.12995134
34	0x3e9dabb1	0.30795053
35	0x3e2ecf80	0.17071342
36	0xbe9355d6	-0.28776425
37	0xbfd87b11	-1.6912557
38	0x3eb137b7	0.3461282
39	0xbbcfa1c2	-0.0063364217
40	0xbdebbc1b	-0.11510488
41	0x3e205f25	0.15661295
42	0xbdd95aca	-0.1061302
43	0x3c0ed517	0.008717797
44	0xbe9a341a	-0.30117875
45	0xbe84a36e	-0.25905937
46	0x3e0540c1	0.13012983
47	0x3e0901be	0.13379571
48	0xbe1aba9b	-0.15110247
49	0x3e84cd58	0.25937915
50	0x3cea6aa5	0.028615305
51	0xbd1a98de	-0.03774344
52	0x3d3bfc91	0.045895163
53	0xbed25977	-0.4108388
54	0x3ec5b1e4	0.38612282
55	0x3eb5656f	0.3542895
56	0xba5f3a8b	-0.00085154985
57	0xbe48ce6c	-0.19609994
58	0x3db64e7f	0.08901691
59	0x3de3a4df	0.11115431
60	0xbedd1083	-0.4317666
61	0xbdce29f0	-0.10066593
62	0xbe3b05a5	-0.18263872
63	0x3e574685	0.21022995

layers.12.net.6.bias f4 [8]
0	0xbdc09ed2	-0.094052926
1	0xbe478d7a	-0.19487563
2	0x3e91863d	0.28422728
3	0x3e52fa65	0.2060333
4	0x3ee46355	0.44607034
5	0xbdb817c2	-0.089889064
6	0x3e0b501c	0.13604778
7	0xbdf1ffeb	-0.118163906

layers.12.net.8.weight f4 [2, 8]
0	0x3e9eeed2	0.3104158
1	0x3ddaa2f6	0.106756136
2	0xbd8ed5b4	-0.069743544
3	0xbc6c54ec	-0.014424544
4	0x3e13ff17	0.14452778
5	0x3e01472e	0.12624809
6	0xbe58da3f	-0.21177004
7	0x3dc42849	0.09577996
8	0xbeb15faa	-0.34643298
9	0x3d7ec01b	0.062194925
10	0xbed3d164	-0.4137069
11	0xbe6aa776	-0.22915444
12	0xbef70745	-0.48247734
13	0xbebd86ea	-0.37016994
14	0xbe38ec24	-0.1805883
15	0x3e854cac	0.26035058

layers.12.net.8.bias f4 [2]
0	0x3ebf0b5a	0.37313348
1	0x3d8bd266	0.0682724

layers.14.net.0.weight f4 [8, 1]
0	0x3ee93036	0.45544595
1	0x3f4e1f02	0.80516064
2	0xbf05f3ab	-0.5232493
3	0x3f99ef3b	1.2026132
4	0xbf4aba98	-0.7919097
5	0x3f63a279	0.8891979
6	0xbf458950	-0.7716265
7	0x3f0b66bd	0.5445364

layers.14.net.0.bias f4 [8]
0	0xbf5b6b20	-0.85710335
1	0x3e29c1c1	0.16577817
2	0x3f5e59a8	0.86855555
3	0x3f47fa30	0.7811613
4	0xbf67ab68	-0.9049592
5	0x3f568e7f	0.8381118
6	0xbddfd704	-0.10929683
7	0xbe9818b4	-0.29706347

layers.14.net.2.weight f4 [8, 8]
0	0xbe056714	-0.13027602
1	0xbdb0af81	-0.08627225
2	0xbe036304	-0.1283074
3	0x3e25595e	0.16147372
4	0xbe9014e4	-0.28140938
5	0x3e32863f	0.17434023
6	0xbef4576c	-0.47722948
7	0x3efeb4a0	0.4974718
8	0xbd7e538a	-0.062091388
9	0x3c56c1f0	0.013107762
10	0xbe055d60	-0.13023901
11	0x3e9ed9f6	0.31025666
12	0xbd21b67c	-0.03948067
13	0x3e55c2f4	0.2087515
14	0xbf968017	-1.175784
15	0x3ee7205a	0.4514187
16	0x3c506c60	0.012721151
17	0xbf632503	-0.8872835
18	0x3d754fd6	0.05989059
19	0xbe15d734	-0.14632875
20	0x3f119cb9	0.56879765
21	0xbe8dd494	-0.27701247
22	0x3f21c147	0.6318554
23	0xbe182e21	-0.14861347
24	0x3e31a6f5	0.17348845
25	0x3e8f4a7b	0.27986512
26	0x3e51ab1a	0.20475426
27	0x3db26576	0.087107584
28	0xbefb9cbc	-0.49143016
29	0xbe3d710b	-0.18500154
30	0xbf119e52	-0.568822
31	0x3dc50987	0.09620958
32	0x3ced091b	0.028935006
33	0x3cc2e289	0.023789661
34	0xbeb88254	-0.36036932
35	0xbe2af84d	-0.16696282
36	0x3fa26c75	1.2689348
37	0xbe89050c	-0.26761663
38	0x3f009961	0.5023404
39	0xbe88b3dd	-0.26699725
40	0xbdf137a5	-0.117781915
41	0xbf4a10c6	-0.78931844
42	0x3e30bfff	0.1726074
43	0xbd90e0dc	-0.070741385
44	0x3f718ebf	0.9435844
45	0xbe39b551	-0.18135573
46	0x3e71adbe	0.23601434
47	0xbe576f37	-0.21038519
48	0xbedba09a	-0.42895967
49	0xbe242bb8	-0.16032302
50	0x3f0051f1	0.5012503
51	0xbe9c08ff	-0.30475613
52	0xbd9538a7	-0.07286196
53	0x3e209bf9	0.15684499
54	0x3ef78cc6	0.4834959
55	0xbd157cbd	-0.036495913
56	0xbe8fc684	-0.28081143
57	0x3e9719e1	0.29511932
58	0x3bdb11db	0.006685478
59	0x3ecd8b79	0.40145472
60	0xbe8e155b	-0.27750668
61	0xbd3ca414	-0.046054915
62	0xbf8c832e	-1.0977533
63	0x3dce9f05	0.10088924

layers.14.net.2.bias f4 [8]
0	0xbcc51b20	-0.024060786
1	0xbdd146d5	-0.10218588
2	0x3e8b6518	0.27225566
3	0xbe52dd24	-0.20592171
4	0x3dbb3828	0.0914157
5	0x3d8714a8	0.06595737
6	0x3e298c80	0.16557503
7	0xbdca5b1f	-0.09880661

layers.14.net.4.weight f4 [8, 8]
0	0x3ee9a72f	0.45635363
1	0x3eaa1da1	0.3322573
2	0xbe426fe2	-0.18987992
3	0xbcf4b3fb	-0.029870978
4	0x3e55c0d3	0.20874338
5	0xbe4f62d0	-0.20252538
6	0x3f0c3a76	0.54776704
7	0x3ddf6404	0.10907748
8	0xbece0c93	-0.40243968
9	0x3dcbf645	0.099590816
10	0x3df81af0	0.12114513
11	0xbe29e51b	-0.16591303
12	0x3ea4a95a	0.32160455
13	0x3d1fce95	0.03901537
14	0xbee91def	-0.4553065
15	0x3e3c1067	0.18365632
16	0xbf0a5d68	-0.54048777
17	0xbf817404	-1.011353
18	0x3e61eea4	0.2206369
19	0xba9cb9a8	-0.0011957185
20	0x3f2cf011	0.6755381
21	0x3f2822bf	0.6567802
22	0x3ecbf565	0.3983566
23	0xbf1bb2cf	-0.60819715
24	0x3da64c2e	0.08119999
25	0x3e7d32fd	0.24726482
26	0x3ecddd21	0.4020777
27	0xbc2d8b47	-0.010592288
28	0x3e1811f6	0.14850602
29	0x3dc5b869	0.09654314
30	0x3dbef0d9	0.09323282
31	0xbaf849f9	-0.0018942944
32	0xbec40ae2	-0.38289553
33	0xbf842ad7	-1.0325574
34	0x3ef526ab	0.47881064
35	0x3c02e16c	0.007988315
36	0x3f4cc0d5	0.7998174
37	0x3f39472f	0.7237424
38	0x3d1f80f2	0.03894133
39	0xbf11b066	-0.5690979
40	0x3ec9c2a3	0.3940631
41	0xbd8d6a5c	-0.06905052
42	0xbef82c93	-0.48471507
43	0xbdb61dba	-0.08892389
44	0xbe5b9e8a	-0.21447197
45	0xbeeccb18	-0.46248698
46	0xbd0882f8	-0.033328027
47	0x3e50a9b5	0.20377238
48	0x3e954c8e	0.2915997
49	0x3c48c4a1	0.012253911
50	0x3e7b040e	0.24513265
51	0x3e87ce0c	0.2652439
52	0xbe369e9f	-0.17833947
53	0xbe9ab780	-0.30218124
54	0xbe60f9d5	-0.21970303
55	0xbe37f941	-0.17966177
56	0x3d9b01cf	0.07568704
57	0xbe6d3107	-0.23163234
58	0xbe8c5463	-0.27408132
59	0x3e4d5cf6	0.20054993
60	0x3ed19e67	0.40941164
61	0x3e53bc12	0.20677212
62	0x3e8dbbbd	0.27682295
63	0x3de8a496	0.11359517

layers.14.net.4.bias f4 [8]
0	0x3e024ff2	0.12725809
1	0xbe8f5168	-0.27991796
2	0xbe10e54d	-0.14149971
3	0xbf0c01e6	-0.54690397
4	0x3d0f9784	0.035056606
5	0x3d12e04b	0.035858434
6	0xbdf1d17e	-0.118075356
7	0xbdce02ea	-0.100591496

layers.14.net.6.weight f4 [8, 8]
0	0xbdb8a322	-0.0901549
1	0x3c5b64b6	0.013390711
2	0xbf0a73d5	-0.54082996
3	0xbee58f05	-0.44835678
4	0xbfb66933	-1.4250854
5	0xbea70cc3	-0.32626924
6	0x3e907f59	0.2822216
7	0xbd8cf79c	-0.06883165
8	0xbe8964c3	-0.26834688
9	0x3e278f16	0.16363177
10	0xbf38bb6c	-0.72160983
11	0xbee240fb	-0.441902
12	0xbf423e3d	-0.7587622
13	0x3d9ac062	0.07556225
14	0x3e8512ad	0.2599081
15	0xbe83381e	-0.25628752
16	0xbe99efb8	-0.30065703
17	0x3e227cbc	0.15867895
18	0xbf4c6b65	-0.7985137
19	0xbf4e685e	-0.80628
20	0xbf4b2fd7	-0.7936987
21	0x3e02e068	0.12780917
22	0xbe3f3c1e	-0.18675277
23	0xbea7befb	-0.32762894
24	0x3e7ac40f	0.24488853
25	0xbca1e335	-0.019761661
26	0xbf8ef590	-1.116869
27	0xbeaa8176	-0.33301896
28	0xbface915	-1.3508631
29	0xbd5c439a	-0.053775407
30	0x3ea65716	0.32488316
31	0xbdb1e710	-0.0868665
32	0x3e68a7c0	0.22720242
33	0xbed8e5e8	-0.42362905
34	0xbf3623f6	-0.7114862
35	0xbeb0a603	-0.34501657
36	0xbecffca3	-0.40622434
37	0xbe31c518	-0.17360342
38	0xb962c22c	-0.00021625374
39	0xbdf0d850	-0.11760008
40	0x3e14cc2f	0.14531015
41	0xbeb654b1	-0.3561149
42	0xbf169393	-0.5881893
43	0xbf69c08d	-0.91309434
44	0xbf14c079	-0.5810619
45	0x3e9beb8d	0.30453148
46	0x3e3aa42a	0.18226686
47	0x3d707b2c	0.058711216
48	0x3ecaddd6	0.39622372
49	0xbe89e444	-0.26931965
50	0xbef4e0c8	-0.47827744
51	0x3dad968c	0.0847598
52	0xbf4d8ac3	-0.8028986
53	0x3e44a784	0.19204527
54	0xbe1161f3	-0.14197521
55	0x3e7136fd	0.23556133
56	0xbde0535e	-0.10953401
57	0xbc73b50a	-0.014874706
58	0xbf518b4f	-0.81853193
59	0xbe2dafa7	-0.16961537
60	0xbe5e8a5f	-0.21732472
61	0xbf158e76	-0.58420503
62	0x3c267cb6	0.010161569
63	0x3e2f1603	0.1709824

layers.14.net.6.bias f4 [8]
0	0xbdfe6486	-0.12421517
1	0xbebda489	-0.37039593
2	0xbe44d399	-0.19221343
3	0xbedd7e8f	-0.4326062
4	0x3d1fa3d1	0.038974587
5	0x3d9ba5d3	0.07599988
6	0xbd2493ef	-0.040180143
7	0x3e495e43	0.19664864
